character_prompt_test/model/character_ana_model_v2.pth (torch, 2440 bytes, 4 tensors)

fc1.weight f4 [6, 3]
0.26140735 -0.27605182 -0.21217844 0.28363293 -0.53802323 0.4031832 -0.11844179 0.29159394
0.065220416 -0.070767164 0.16030113 0.033344638 0.18244043 -0.24177797 -0.19410065 -0.053160746
0.08250001 -0.0034898673
00000000: 2fd7 853e aa56 8dbe 4e45 59be 5638 913e
00000010: e4bb 09bf 076e ce3e 9c91 f2bd cd4b 953e
00000020: 4892 853d 60ee 90bd fb25 243e 6394 083d
00000030: aad1 3a3e a594 77be 52c2 46be 15bf 59bd
00000040: c4f5 a83d 42b6 64bb

fc1.bias f4 [6]
0.4808035 0.18515684 -0.21689372 -0.3485655 -0.118195444 -0.25021827
00000000: e02b f63e c199 3d3e 6319 5ebe 2d77 b2be
00000010: 7410 f2bd 9c1c 80be

fc2.weight f4 [4, 6]
-0.09016985 0.0908329 0.24380381 0.21593617 -0.3595358 0.24600501 0.116320506 0.39884105
0.2597131 -0.37406173 -0.3822403 -0.19603597 0.3342393 -0.11964144 0.1752622 -0.1879971
0.3751993 -0.17029893 0.31603885 0.024866017 -0.20812471 0.21270208 -0.20514373 0.121081844
00000000: f8aa b8bd 9906 ba3d b5a7 793e 5f1e 5d3e
00000010: 1415 b8be bde8 7b3e 7239 ee3d e534 cc3e
00000020: 1ef9 843e 0585 bfbe 00b5 c3be a7bd 48be
00000030: 6a21 ab3e 9206 f5bd ef77 333e 5082 40be
00000040: 1f1a c03e d862 2ebe d8cf a13e d1b3 cb3c
00000050: a51e 55be 93ce 593e 3311 52be c2f9 f73d

fc2.bias f4 [4]
-0.091759674 -0.049957506 -0.41180632 -0.18567298
00000000: 7fec bbbd 3ea0 4cbd 47d8 d2be 0f21 3ebe
