character_prompt_test/model/character_ana_model.pth (torch, 2352 bytes, 4 tensors)

fc1.weight f4 [6, 3]
000000 fc 68 6f 3e 8b 8b 89 be 06 e3 1e bf c5 5d 9d 3e
       0.23379892 -0.26864275 -0.6206516 0.30735603
000010 48 75 02 bf 73 30 5e 3f 40 24 11 be 49 61 8e 3e
       -0.50960207 0.8679268 -0.14173985 0.27808598
000020 d2 58 8d 3e e1 9b c6 bd 5c 36 07 3e d0 3e 93 ba
       0.27606827 -0.096977 0.1320433 -0.001123393
000030 1c 29 28 3e 41 30 83 be 5a fd 0e bf 2d c3 61 bd
       0.16421932 -0.25622752 -0.55855334 -0.055117775
000040 b8 f3 a4 3d d0 7b b2 bb
       0.08054298 -0.0054468885

fc1.bias f4 [6]
000000 51 70 f6 3e 45 12 39 3e 47 e3 6b be 4c ea c0 be
       0.48132566 0.18073376 -0.23035918 -0.37678754
000010 9f 88 e9 bd 0d 1d 81 be
       -0.114030115 -0.25217476

fc2.weight f4 [4, 6]
000000 6e c4 07 3d 98 90 80 3e ca af 68 3d e5 56 4c 3e
       0.033146314 0.25110316 0.05680827 0.19955023
000010 72 64 1a be 2f 25 80 3e d1 85 a4 3d 9d 52 d1 3e
       -0.1507738 0.2502837 0.08033336 0.4088334
000020 b6 4c 9a 3e d3 55 b5 be 4b 4b e5 be ea d1 46 be
       0.3013665 -0.3541704 -0.44784006 -0.19416013
000030 64 75 a1 3e ce 28 21 be 40 83 9d 3e 75 a6 4d be
       0.31534874 -0.15738222 0.30764198 -0.2008303
000040 c6 cc b0 3e c7 9e 33 be 2a 12 ac 3e a4 11 c7 3b
       0.3453123 -0.17541037 0.33607608 0.006075101
000050 3e e8 a5 be 28 a8 3f 3e 30 f8 30 be aa 44 f0 3d
       -0.3240375 0.1871649 -0.17282176 0.11731847

fc2.bias f4 [4]
000000 9d ac 6c bd 57 89 78 bd 35 19 cf be e0 bd 32 be
       -0.057781804 -0.060677852 -0.4044892 -0.17455244
