character_prompt_test/model/character_ana_model_v3.pth (torch, 2440 bytes, 4 tensors)

fc1.weight f4 [6, 3]
000000 1c f6 6f 3e 85 ae 93 be 9a 84 bf be 7f 9e 8c 3e
       0.23433727 -0.28844085 -0.37405854 0.27464673
000010 9b 50 0e bf bf 0b fd 3e 35 5f f5 bd 07 ec 91 3e
       -0.55591744 0.49423024 -0.1198105 0.28500387
000020 03 9b 1f 3d 08 07 88 bd ae ef 26 3e 65 be 5d 3d
       0.03896619 -0.06641966 0.16302368 0.054136652
000030 98 0e 38 3e 8b aa 6b be 26 66 ef be 33 62 5a bd
       0.17974317 -0.23014276 -0.4675762 -0.053316306
000040 35 a4 a8 3d 16 e9 6e bb
       0.08234445 -0.0036454848

fc1.bias f4 [6]
000000 a1 24 f0 3e f7 28 28 3e a0 9f 66 be b6 e9 b0 be
       0.46902946 0.16421877 -0.2252183 -0.34553307
000010 ef dc da bd f3 30 80 be
       -0.10686671 -0.25037345

fc2.weight f4 [4, 6]
000000 5c 3e 64 bd ac 40 3e 3e 6a c2 71 3e 03 3e 50 3e
       -0.055723533 0.18579358 0.2360932 0.20336156
000010 e3 d0 b8 be fb 95 7e 3e 00 45 be 3d 24 55 c5 3e
       -0.36096868 0.248619 0.092905045 0.3854152
000020 6c fc 7c 3e 57 3a c0 be df 65 cc be 30 78 47 be
       0.24705666 -0.3754451 -0.3992147 -0.19479442
000030 40 26 b1 3e c4 93 2c be df 3a 3d 3e 21 52 44 be
       0.34599495 -0.16853243 0.18479489 -0.19171955
000040 51 5a ca 3e 0e f1 2f be ab 22 9d 3e 0a 9a 03 3d
       0.3952203 -0.17181799 0.30690512 0.032129325
000050 fc 40 47 be f0 f4 6b 3e 46 ae 57 be a8 68 eb 3d
       -0.19458383 0.23042655 -0.21062574 0.11494571

fc2.bias f4 [4]
000000 6a 26 84 bd 24 06 a3 bd d7 4d cc be ce 75 42 be
       -0.064526394 -0.079601556 -0.39903137 -0.18990251
