models/SortingHat_2.pt (torch, 539326 bytes, 9 tensors)

statembed_net.fc1.weight f4 [1, 768]
00000000: 4ca2 a53b f857 c03c 5807 8cbc 8d2e 6f3c
00000010: 9c87 33bc 2114 eaba c2c7 d4bc 0f84 b7bc
00000020: dada 183d cdd2 d83c deef a63c 32ea 5ebc
00000030: c0ba 403c 5f1b 44bd 8ed7 cabb 43fb b63c
00000040: ecfc 92ba 9b56 4ebc 6db6 583d b9c7 3f3c
00000050: 8804 cfbb 3392 d3bc ffde 83bc 7782 48bd
00000060: de49 54bc b9e1 1f3d f4a4 eebc f5d0 05bd
00000070: df63 f5bc 9d0c 173d 0e75 363c 28d6 203c
00000080: ef58 e53c b56a 3d3d f910 983b 45c8 11bd
00000090: 35ce 443c d930 4c3d 9ea1 b83b 1852 85bc
000000a0: b0ae e93c 61c8 193d 48fd 40bc 9e5b 1d3c
000000b0: 8919 0bbd e455 283d 6aca 97bc b9c4 01bc
000000c0: 7c3f be3c f986 073b c700 ed3c 558a 16bc
000000d0: 695d cabc 5620 2bbc e6ac 0a3c 9540 33bd
000000e0: 595e 4f3c 4494 ebbb 0158 8a3c cb7b dabc
000000f0: 9fcd 90bc 3e69 39bc 898f 12bd 84e3 2b3d
00000100: 8141 013d 66db aabc 615a cc3c 87c6 833c
00000110: 9553 e43c c471 27bd 61fc e23c 7655 073d
00000120: f072 4f3d 01d2 d03b a42d fbbc 3b8e 1d3b
00000130: 5379 473c 3faa 3bbb eafe 7abc d879 16bd
00000140: e6d1 6f3c d0db 04bd 31df e93c f01b f53b
00000150: 8010 d7bb 54a6 d63c 5a14 2c3d 5cce 33bd
00000160: de51 bebc 8380 fdbc 429c 333c ee07 9dba
00000170: bb68 8cbc 6797 813b 0380 593b be40 0d3c
00000180: 7209 50bd 2516 21bc 0f25 483c 79aa 0d3c
00000190: 4adb 343d bb5c d3bb de2a d9bc 5dc7 11bc
000001a0: c205 4ebc 5a22 c5bc a177 8bbc 7246 15bd
000001b0: 6b3f 92bc 1ace c9bc 4579 ad3c 30f6 c43c
000001c0: bbd4 0cbc eac2 16bd ef2e dfbc ec03 4c3c
000001d0: ea47 61bc 8dc8 6b3d aa9b 593c ba37 d23c
000001e0: 2bb5 ba3c 38c5 ba3c 7042 213c 5b63 003d
000001f0: 127b 0f3c da8f 94bc d063 c83b 4137 463d
00000200: 7349 453c 616e e53b 0e74 1ebc 1100 843c
00000210: 2037 a23a 30ca a03c c263 5f3d f774 a43c
00000220: 05f2 9b3c 6043 ec3c 0eba 3a3c e861 e63a
00000230: 58a9 eebc b15b 12bc e726 863c cf3a 713b
00000240: 0019 f63c f87a 59bd 240e 45bc f9c5 c2bc
00000250: f22f 0fbd d90d 37bd 726e 953c 6793 a83b
00000260: c68c 23bd 053a b33c 1ec9 673c 93c0 4cbd
00000270: 43d3 b13c 93f1 393c f6ad 72bc 5bf5 36bd
00000280: 8a7d 0cbd 2007 3d3d d083 263d 5d0f ea3b
00000290: 6094 a93a 5f9a b2bc 94c2 42bd dd07 a3bc
000002a0: 18af 7e3c 8369 09bc 7737 fb3c b78f b13c
000002b0: c82d 16bb 6b16 fd3c 4760 923b 4e8e 52bc
000002c0: c03b bdbc b187 08bb f440 253c 1082 6bbc
000002d0: b8e4 8dbc 4ee5 5bbd d0cd 36bc bd31 c6ba
000002e0: 48ab 443a 1c4c 1bbd 0bb1 d7bc c486 093d
000002f0: 0f2d 19bd 422f 2bbc e7a2 c73c b9e8 3cbb
00000300: 8f26 eb3c 0fc3 aabc d095 02bd b1b4 f53c
00000310: fee7 083d afc9 663d c3f8 273d 011b 6f3c
00000320: e8e8 123c 0774 cc3c cff0 dbbc da34 30bd
00000330: 7888 043d 6d27 b63c 3334 803c 57b2 273d
00000340: 613b b53b 747b dcbb 8c3b e13c 8085 d1bc
00000350: 23a2 a0bc 0058 8b3c 160d 38bd faa0 26bd
00000360: c449 e13b 7339 68bc ef9f b8ba 90d9 2f3a
00000370: adc1 903c 29a6 e2bc 48c4 3039 8f8a 8d3c
00000380: 9d2f 1b3d 2a8a 5fbd 1962 9bbc 1f0e 7c3c
00000390: 34b6 303d 37e1 a8bc 0b64 303c d6e0 643c
000003a0: 4410 65bc 9f86 f5bc 7a1c cd3c d21d e1bb
000003b0: f957 0abb 13bd 0638 a977 e9b9 b568 b8bc
000003c0: dfed c5bc 4af1 213c 1a9b 74bd 7a90 c43c
000003d0: 08d7 143d 996f 89bc edd7 243d 7f0c 32bd
000003e0: 7bc6 6f3a e000 293d ca5c 21ba d775 87b9
000003f0: 03db 3a3c 7b7b 263d 2e85 283d 5617 3c3d
0.0050547477 0.023479447 -0.017093346 0.014598501 -0.010957625 -0.0017858782 -0.025974158 -0.022401838
0.037318088 0.026467705 0.02037805 -0.013605641 0.011763275 -0.047877666 -0.006190247 0.022336608
-0.0011214293 -0.012593891 0.05290835 0.011705332 -0.006317679 -0.02582655 -0.016097544 -0.048952546
-0.012957064 0.039033625 -0.02913139 -0.03266998 -0.029954849 0.036877263 0.011136306 0.009816684
0.027996508 0.046244342 0.004640695 -0.035591383 0.012012054 0.049851272 0.0056345006 -0.016274497
0.02852568 0.03754461 -0.011779137 0.009604363 -0.0339599 0.041097537 -0.018529136 -0.0079204375
0.023223631 0.0020679815 0.028931035 -0.009188254 -0.024702745 -0.010444721 0.008464074 -0.043762762
0.012656772 -0.0071893055 0.016887667 -0.026670357 -0.017676173 -0.011316596 -0.035781417 0.041965023
0.03155661 -0.02085657 0.02494544 0.016085876 0.027871886 -0.04087998 0.027708234 0.033040486
0.050646722 0.0063726907 -0.030661412 0.0024041075 0.012174922 -0.002863541 -0.015319565 -0.036737293
0.014637446 -0.032436192 0.028548809 0.007480137 -0.0065632463 0.026202358 0.042011596 -0.04389797
-0.023232397 -0.030945068 0.010962548 -0.0011980513 -0.017139783 0.003954816 0.0033187873 0.008621393
-0.050790258 -0.00983194 0.012215867 0.008646601 0.044154443 -0.0064502633 -0.026509698 -0.00889763
-0.012574615 -0.024064232 -0.017024817 -0.036444135 -0.017852506 -0.02463441 0.02117599 0.024043173
-0.008595641 -0.03680698 -0.02724406 0.012452107 -0.013750056 0.057564307 0.013281742 0.025661338
0.022791466 0.02279912 0.0098425 0.031344753 0.00875737 -0.018135 0.006115414 0.048392538
0.012041437 0.0070016836 -0.009671224 0.016113313 0.0012376048 0.01962766 0.054538496 0.020075304
0.019036302 0.02884072 0.011396898 0.0017576786 -0.029133484 -0.008932994 0.016375972 0.0036808734
0.030041218 -0.053095788 -0.012027297 -0.023776041 -0.034957834 -0.04469094 0.018241141 0.005144525
-0.039929174 0.021878252 0.014147071 -0.04998834 0.021707183 0.0113491 -0.014811983 -0.044667583
-0.03429941 0.046149373 0.04065305 0.0071429447 0.0012937896 -0.021802125 -0.047548845 -0.01990121
0.015544675 -0.008386972 0.030666096 0.021674974 -0.0022915471 0.030894479 0.0044670436 -0.012851311
-0.02309978 -0.0020832832 0.010086287 -0.014374271 -0.017320976 -0.05368548 -0.011157468 -0.0015121024
0.00075023295 -0.03791438 -0.026329538 0.03357579 -0.037396487 -0.010448279 0.02436967 -0.0028825237
0.02870491 -0.020844964 -0.031881154 0.029993387 0.03342437 0.056344684 0.041008722 0.014593841
0.008966662 0.02495767 -0.026848225 -0.043019153 0.03235671 0.022235597 0.01564989 0.040941563
0.00553076 -0.006728584 0.027494214 -0.025576353 -0.019608563 0.017009735 -0.044934355 -0.040680863
0.0068752486 -0.014173853 -0.001408575 0.00067081396 0.017670477 -0.027667122 0.00016857788 0.017277984
0.037887204 -0.054575123 -0.018967675 0.015384226 0.043142512 -0.020615203 0.01076604 0.013969621
-0.013980929 -0.029971419 0.025037993 -0.00687001 -0.0021109565 3.212418e-05 -0.00044530377 -0.022510866
-0.024161277 0.009884188 -0.05971823 0.023994673 0.036337882 -0.016776847 0.040244985 -0.04346895
0.00091467024 0.0412606 -0.0006155489 -0.00025837004 0.0114047555 0.040645104 0.041142635 0.045920692

chara_net.RNN.weight_ih_l0 f4 [200, 203]
00000000: 8b49 db3c e124 063d f44d cc3c 971d 0c3d
00000010: 43c6 a23c fcc1 67bc 9da4 4abc 8ab5 de3c
00000020: 5e98 143d 03a9 533d 1222 fabc 897f da3a
00000030: 09d3 d23c 1a57 20ba f5cb 9ebc f5ba 8fbd
00000040: 666a 42bd 9a5e 2e3d 5266 e93c 4525 973d
00000050: 3de4 8ebd 236e 7a3d 0cad 653d d442 0bbc
00000060: a1a9 83bc 013b c73c a755 96bd 7436 7d3d
00000070: 8ae5 153d ff66 64bd dcd5 01bd a971 7e3d
00000080: 5eb5 903d ac24 a33c 5a06 833a b7ba ba3c
00000090: 9e1e 4b3d 6eaf 8f3d 3aac 3ebd 8be1 3b3b
000000a0: 813c c13b 0a57 273d 79db 9d3d e334 7fbd
000000b0: 1b55 243d 17d6 103d 0e81 623d 55c0 8e3d
000000c0: 8583 b03c fa24 1cbd c9cd db3c bc8b 4ebd
000000d0: 85c3 76bc de44 72bd 0278 45bd 94fa 3e39
000000e0: cf7a b63b b6be 31bd eed3 113d b243 fdbc
000000f0: 53e8 973c e52e 37bd 31f1 9c3d f7c8 343d
00000100: 8188 0dbd 45dd a9bb 3343 26bd 07eb 5f3d
00000110: 17cd 213d eed3 f63b dd44 1dbd 3ea5 b0bb
00000120: 19f5 b03c 4458 fc3c c826 62bd cdb0 2a3d
00000130: c7d6 1d3c e9e2 fa3c b2c6 643d ff50 663d
00000140: 29f6 863d 6f25 febc 8cb9 54bd 09ac c53c
00000150: 91c0 b03c 6cb5 25bd 7e63 0bbb 443e 75bd
00000160: 817b 4c3c 7428 7cbd cb33 0a3b 9eda 30bc
00000170: 7099 bcbb 94aa 1a3d 3336 813d 4656 8b3d
00000180: 87de cf3b 7fc7 4c3b e319 693c 250f 8f3d
00000190: 5532 d0bb 7959 703d a8c1 80bd 7edf 203d
000001a0: a2b5 08bd 95b8 93bc 5893 8abd 9a23 843d
000001b0: 0a00 4cbd 9d1f 8b3b 8ee5 45bd 6df5 0f3d
000001c0: 715e 713d bb57 7cbd 6dd6 75bd e221 74bd
000001d0: 1280 593d a043 30bd 587b f0bb 622e 32bc
000001e0: f881 7fbd 7ce7 1dbd 4371 873d 2e7a 2bbd
000001f0: c429 463d 8716 40bd 95ec ebbc 0275 57bd
00000200: 1baf 64bc 7868 20bd 67ea 01bc ea1f 43bd
00000210: 6434 4bbd fe87 43bd 7bbf 1f3d c15a 76bc
00000220: 7ab3 86bd 14fd 6ebc 4d6f 2abd 4ada 0abd
00000230: 57dc 13bd 038c af3c 46a7 8b3d fcbc 5f3d
00000240: b7d8 5b3d 3833 653d 1135 87bd 6fa7 943c
00000250: e1f0 1e3d 46aa 30bc d571 643d 37ca 383d
00000260: 435a 46bd 383f 7e3d af55 fcbb c7a2 08ba
00000270: 6a02 723c 9ed7 e73c c441 213d 8a45 253d
00000280: 9c78 8ebd ebf7 c5bb 5219 723d 3e21 df3c
00000290: 00a3 93bd 9281 f5bc d5ae 993c 7711 56bc
000002a0: c7c0 daba ec95 d93c e716 0ebd 2f51 1dbc
000002b0: c1c9 8bbd dd0e 663c 2e8c bcbc 9721 2d3d
000002c0: ee93 0fbd 69cd 87bd 8d1f 83bc 2c9c 6fbd
000002d0: acc4 eabb 4c8d 74bd 7ff8 2ebd c31d a3bb
000002e0: bc3a debc 4551 563c 0284 86bc 0d86 72bd
000002f0: 04f5 80bc 8475 35bd 503c 403d cdb3 f5bb
00000300: 0142 35bd a684 9e3c 2bfd 343d b7b9 15bd
00000310: 166d ba3c 1ea3 353d 0b0b a13c 80f9 82bd
00000320: a507 5c3d 9e54 ad3c 9823 7fbb a5ae 34bd
00000330: cb34 f73c 0ce3 44bc 1409 b13c 109b 893d
00000340: ee43 10bd 6a1d 813b bd41 b33c 76cd 80bc
00000350: 36a8 163c d62c e7bc 03dc 203d 89ba 7f3a
00000360: 0b44 2c3d 94c3 4e3d 0625 85bd 6ae9 e7bc
00000370: 5206 39bb f1be 6f3d 0595 7a3c a76d 5a3d
00000380: 6766 b9bc 2970 013d e627 92bb 5687 7cbb
00000390: 772a fbbc b38a fc3c f705 103d 1eb4 6fbd
000003a0: 9fd1 0ebd c794 133d 11e4 51bd 5a7b 333d
000003b0: 4074 f0ba 8fa7 63bd e6d0 743d 5e27 92bd
000003c0: 9eea d8bb 8be6 12bd 33a9 083d cdc8 2a3c
000003d0: f741 e9bc af17 05bd 75a9 ccbc 862d 8ebd
000003e0: 87dd c53c 9a33 fbbb fadf 42bc cd41 f7bc
000003f0: 27ec 52bd 6306 82bc 9789 4d3d b3e2 04bd
0.026768466 0.032750014 0.024939515 0.034207907 0.01986993 -0.014145371 -0.012368348 0.027186174
0.03627812 0.051674854 -0.030533824 0.0016670089 0.025735395 -0.0006116495 -0.019384364 -0.07018081
-0.04746475 0.042570688 0.028491173 0.073801555 -0.06977127 0.06114019 0.056073233 -0.00849982
-0.016072096 0.024320127 -0.07340556 0.06181951 0.03659586 -0.055762287 -0.031698093 0.062120114
0.07065843 0.019914947 0.00099964 0.02279411 0.049589746 0.070158824 -0.046550967 0.002866837
0.005897105 0.04085449 0.07707877 -0.062306296 0.040120225 0.035360422 0.055298857 0.06970278
0.021547088 -0.0381212 0.026831524 -0.05042623 -0.015061264 -0.059147708 -0.04821015 0.0001821316
0.005568839 -0.043394767 0.035602503 -0.030916069 0.018543398 -0.044722456 0.07663191 0.044136968
-0.03455401 -0.005183848 -0.04059143 0.0546675 0.03950223 0.007532588 -0.03839575 -0.005390792
0.021601247 0.030803807 -0.055212766 0.041672517 0.009633726 0.030625777 0.055853553 0.056229588
0.0658992 -0.03102371 -0.051934764 0.024129884 0.021576198 -0.04045622 -0.0021269019 -0.059873834
0.0124806175 -0.061562017 0.0021088 -0.01079431 -0.005755596 0.037760332 0.06309166 0.06803565
0.006343666 0.0031246839 0.014227363 0.069853105 -0.0063536563 0.058679078 -0.06286937 0.03927564
-0.033376344 -0.018032352 -0.06766385 0.06452103 -0.049804725 0.004245712 -0.048314624 0.035146166
0.058927957 -0.061607104 -0.060018945 -0.059602626 0.053100653 -0.043033242 -0.0073389225 -0.010875316
-0.062379807 -0.03855084 0.066134 -0.041864567 0.048379675 -0.046896484 -0.028799335 -0.05260182
-0.013957764 -0.03916213 -0.007929421 -0.047637857 -0.04961051 -0.047737114 0.03900097 -0.015036286
-0.06577201 -0.014586706 -0.04161005 -0.033899583 -0.036098804 0.021429067 0.06819014 0.05462359
0.053673472 0.05595705 -0.066019185 0.018146245 0.03880394 -0.010782784 0.05577262 0.045114722
-0.048425924 0.06207201 -0.007700644 -0.0005212244 0.014771083 0.028301056 0.03936936 0.04034952
-0.06956598 -0.006041517 0.05910618 0.02723753 -0.07208824 -0.02996901 0.018760124 -0.013065687
-0.0016689532 0.026560746 -0.03468981 -0.009601875 -0.06825591 0.01404163 -0.023016062 0.042268362
-0.035053186 -0.06630976 -0.016006256 -0.058498546 -0.0071645584 -0.059705064 -0.042717453 -0.004977913
-0.027127616 0.0130809 -0.016420368 -0.059209872 -0.015741833 -0.044301525 0.04693252 -0.0074982406
-0.0442524 0.019350361 0.044186752 -0.036554065 0.022757094 0.044345014 0.019658586 -0.063952446
0.053718228 0.021158513 -0.0038931128 -0.044111867 0.03017654 -0.012017023 0.021610774 0.06719029
-0.035221033 0.003940274 0.021881932 -0.015722971 0.009195378 -0.028219622 0.03927232 0.0009755274
0.04205708 0.050479487 -0.06501202 -0.028309543 -0.0028232527 0.058531705 0.015294318 0.05332723
-0.022631837 0.031601105 -0.0044603227 -0.0038532815 -0.030659897 0.030827856 0.03516194 -0.058521383
-0.03486788 0.036030557 -0.05124289 0.04381881 -0.0018345192 -0.05557972 0.059769534 -0.07136415
-0.0066197654 -0.035864394 0.033364486 0.010423851 -0.028473837 -0.03249329 -0.024983147 -0.06942277
0.024153484 -0.0076660635 -0.0118942205 -0.030182743 -0.051494744 -0.015872186 0.050180044 -0.03244276

chara_net.RNN.weight_hh_l0 f4 [200, 200]
00000000: bdf6 1bbb 9e62 893d f7ef 6b3d 6d69 803b
00000010: b758 0a3d 4698 433c 6ebd 173d 78ad d1bc
00000020: 5304 86bd e2b0 b1bc 10eb 433d a63c 3a3c
00000030: 5d3b 3dbd 4d2d 1a3d ffdf 14bd 6fcb 9f3c
00000040: b2d8 cf3c 2f96 cebc 2195 843d 4582 963a
00000050: 3fe5 5b3d 971f f43c 150d 863d 1e6b 7ebd
00000060: 29ce 233c 939f 0b3c 0a13 143c f5fb 7abd
00000070: 1989 a3bc 7731 c13c c4e9 51bd 72ce 11bd
00000080: e038 29bd 9039 8f3d f75b dd3a 6e82 b93c
00000090: 34bf af3b 37a8 80bd 0900 90bc 3cee 673d
000000a0: d63a cdbc 7935 b5bc cf38 40bd 2c55 523d
000000b0: 4ed7 49bd 5228 31bc bb28 5bbd 50f6 233d
000000c0: a9c8 6dbd 222a 0ebd f75a 81bd 299f 7a3d
000000d0: cdb0 ddbc cf0f 45bd b37d 3ebb adfc 893d
000000e0: 1bf1 453d 4b6f febc e473 f33c c2f1 803d
000000f0: 5f5b 3d3d 112f 8c3b a39d 83bd 52e3 503d
00000100: fc87 8a3d 13bf 3a3d 0776 403d f0a6 10bc
00000110: 0497 2f3d 9f3d 5cbd 8b7e fbbc 0c6c 173d
00000120: 2a51 54bd f6e8 e4bc e4a5 73bb 23a4 4f3b
00000130: 7d5a 9f3a cc10 033d f81d 383d 990c 143d
00000140: eeb0 a93c b922 d8bc 7fc5 30bd 324b c43c
00000150: ceb6 bd3c 2c56 5a3d c87c a5bc 3a8c 8cbd
00000160: 0475 a03a a312 90bd 7196 da3c 70bc 7f3c
00000170: 20e7 e13c 86cb bf3c 3cdf 403d 6847 3d3d
00000180: 8aec 563d 08b6 d6bc 30e5 88bd 6830 23bd
00000190: b605 6a3d d58d 133b d4d2 c0bc 4e19 413d
000001a0: 1aa7 7b3d f22e c0bc 3f1d f7bc 820e 05bc
000001b0: 11be 41bd 95ec ddbc a496 e73b dda4 5ebd
000001c0: a79d 57bd d366 4ebd 1558 58bd 1580 193d
000001d0: 4143 5bbd ed97 65bb ca36 27bd fa43 2b3b
000001e0: 5ef5 2c3d e6a1 82bd 14d2 983d b420 f53c
000001f0: 0ef0 79bc 7d03 0d3c ec43 6cbd 5dc4 7b3d
00000200: f4d4 e03c 116e 2a3d 85ac 933d cd1f 863c
00000210: 3612 82bd cf7b 3a3d b8f9 5bbd 7ade ab3c
00000220: edf9 73bc 1afb 1f3d e575 4fbd 6e60 b9bc
00000230: 034b dbbc b083 e83c f801 99bc 78e2 633d
00000240: 3471 99bd 6036 5fbb 0967 4a3b e63e 213d
00000250: c39c 133d 79d2 6bbb bb93 b93c cc65 1fbc
00000260: 321b 853d 2dd0 05bc 87c2 573c ae7a 5a3c
00000270: f1e6 cd3a 85c7 7c3c 3510 933c 0479 dfbc
00000280: 84d4 b7bc b851 6abd 74f1 813d da44 553c
00000290: a57d 8d3c 459a 0bbd 3584 a7bb b2f9 e0bc
000002a0: 7994 de3c 69e7 7cbd 1472 b43c cbd6 a1bc
000002b0: bec8 7c3c 2de6 573c 1344 2bbd f82b e9bc
000002c0: 1beb 4f3d e06d 03bc d808 52bd 5c55 953c
000002d0: 0230 2a3d bd73 51bd 1703 02bc 00b1 75bd
000002e0: d898 e1bc ffdf 813d a1a4 57bd b7bc d4bc
000002f0: c6cc 86bc e3f0 fa3c fb59 54bd e341 04bd
00000300: 1473 88bd 94b7 88bd 3f8e a03b a70c 583d
00000310: b069 47bd efd6 83bd a7ef a7bb 4c03 1a3c
00000320: 9674 1c3d bb8c a4ba 6548 81ba caee c8bc
00000330: be9d 09bc f31f 743d fee7 0b3d e1bb 853d
00000340: 898c 15bc c8ab e4bc fb38 37bd 5ddc 9e3d
00000350: 3278 7e3c c152 7ebd 184f ff3c 3b4f 64bd
00000360: bf46 8fbd c44c 6a3d 09cd 3c3d 2ced 243d
00000370: 5169 fd3a 7a12 3b3c 100a 9a3d 550a 773c
00000380: c11d 593d 7b61 91bd 20a7 81bd 02b9 633d
00000390: b8a0 18bb ace9 95bc 027d ddbc 6c70 bc3c
000003a0: 012a 89bc 4782 0f3d 97c6 f43c e56d b5bc
000003b0: 21da 8f3c 452f 823d 65ef 863d e296 75bd
000003c0: 8bf9 62bd 0a57 8d3d 63d1 2b3d 9186 603d
000003d0: 2d8b 213d 41da 47bd ea6b c3bc a50d 8c3d
000003e0: abc2 8abd 01d6 59bd b9ac e6bc aecd dabc
000003f0: a71f 27bd 9acb 483d 339d 3f3d ebe7 5b3c
-0.002379819 0.06708263 0.057601895 0.0039188177 0.03377601 0.01193816 0.03704589 -0.025595412
-0.065437935 -0.02169079 0.047831595 0.011366999 -0.04619919 0.03764086 -0.03634643 0.019506184
0.025371883 -0.025218097 0.064737566 0.0011482915 0.053685423 0.02980022 0.06545464 -0.062113874
0.009997883 0.008521932 0.009037742 -0.06127544 -0.019962834 0.023583157 -0.051248327 -0.035597272
-0.041314006 0.06993401 0.001688837 0.022645202 0.0053633694 -0.062820844 -0.017578142 0.056623682
-0.02505247 -0.022120224 -0.046929177 0.051350757 -0.049277596 -0.010812836 -0.05350564 0.040029824
-0.058052693 -0.03470815 -0.06316178 0.061186943 -0.027061844 -0.04811078 -0.0029066622 0.06737647
0.04832564 -0.031058928 0.029718347 0.06296112 0.046229716 0.0042780717 -0.06426551 0.05099804
0.06764218 0.04559238 0.04698756 -0.0088288635 0.04286863 -0.053769704 -0.030699989 0.036968276
-0.051835217 -0.027943116 -0.0037177736 0.0031683526 0.0012157705 0.03199844 0.044950455 0.036144827
0.02071425 -0.026383745 -0.043157097 0.023961637 0.023158457 0.053304836 -0.020201102 -0.068626836
0.0012241905 -0.07034805 0.026683064 0.015608892 0.02757603 0.023412477 0.047087893 0.046210676
0.052471675 -0.026209846 -0.06684339 -0.039841086 0.057134353 0.0022514958 -0.02353803 0.047143273
0.061438657 -0.023459885 -0.030165313 -0.008121135 -0.047300402 -0.02709035 0.0070675183 -0.054356445
-0.052640583 -0.05039103 -0.052818377 0.037475664 -0.053530935 -0.0035033182 -0.040823735 0.0026133046
0.042226188 -0.06378536 0.07461944 0.02992282 -0.015254987 0.008606789 -0.057681963 0.061466563
0.027445294 0.041608874 0.0721064 0.016372586 -0.0635113 0.04552823 -0.053704947 0.020980109
-0.01489113 0.03905783 -0.050649542 -0.02262899 -0.026769167 0.028383106 -0.018677697 0.0556359
-0.07492295 -0.003405951 0.0030884168 0.039366625 0.03603817 -0.0035983606 0.022653451 -0.00972886
0.06499328 -0.008167309 0.0131689375 0.013334913 0.0015709085 0.015428429 0.017952064 -0.027279384
-0.022440203 -0.05720684 0.06344882 0.013016904 0.017271826 -0.03408267 -0.005112196 -0.027462814
0.027170407 -0.061744127 0.022027053 -0.019755742 0.01542872 0.013177437 -0.041812968 -0.028463349
0.050761323 -0.008021802 -0.051277965 0.01822918 0.04154969 -0.051135767 -0.007935307 -0.059983253
-0.027538702 0.06341552 -0.052647237 -0.025968892 -0.016455065 0.030632442 -0.051843625 -0.032289397
-0.066625744 -0.0667564 0.0048997696 0.05274644 -0.048684776 -0.0643748 -0.0051250043 0.0094002
0.038197123 -0.0012554148 -0.0009863494 -0.024527926 -0.008399425 0.05960078 0.034156792 0.06529976
-0.0091277445 -0.027913943 -0.044732075 0.07756875 0.0155315865 -0.06209064 0.031165645 -0.055739623
-0.069959156 0.057202116 0.046093974 0.040265247 0.0019333755 0.011417979 0.075214505 0.015078147
0.05300689 -0.07098671 -0.06330705 0.05559636 -0.0023289155 -0.0182999 -0.027037147 0.023002826
-0.016743662 0.03503635 0.029879851 -0.022147128 0.017560067 0.06356672 0.0658863 -0.059958346
-0.055413764 0.06901367 0.041947734 0.054815833 0.03943937 -0.048792128 -0.023855168 0.0683854
-0.06775411 -0.053182606 -0.028158532 -0.026709404 -0.04080167 0.049022295 0.046780776 0.013421993

chara_net.RNN.bias_ih_l0 f4 [200]
00000000: 8252 8cbd 11d1 1fbd 121d 12bd 9d3b 12bd
00000010: 97ea 46bd a293 eb3b 36c6 53bd cdb6 603d
00000020: 895a 04bd 46c5 8a3d c123 673d b1e6 84bd
00000030: b4d8 3c3d 758e 2a3d 3584 8a3d cfd7 85bc
00000040: b638 1ebc ac91 513d e5a5 d83c 7c2b 8fbc
00000050: 4cfa 1c3d efd7 233d 9ab4 f2bc f71d 90bd
00000060: ea5c cb3c 69f1 e73c a87b 04bd 0735 82bc
00000070: db34 4ebd caa6 363d 8371 9a3d 6714 13bd
00000080: c8ad 50bd eb10 633d 7e4a 87bd ab7a 4c3d
00000090: 7c9c 69bd 0598 8a3d 6651 23bd dfe9 e4bc
000000a0: 8191 063d 8c0d 6a3c 9c4b 3cbd 82a1 9bbc
000000b0: b70d 4a3c d49f 6d3d e72c 573d f74e 71bd
000000c0: f5a1 753c e68b 563b 0101 4dbb b378 8b3d
000000d0: f340 62bc 1352 343d 88e1 833d e47f 4fbd
000000e0: 40dc 873d 28db 6e3b 3dc5 b7bc 9350 873d
000000f0: d99c f5bc 7069 90bd b0be 3ebd b4cc 16bd
00000100: c503 1ebc 6905 44bd bfbf aebc 9391 6bbd
00000110: 8fdc 5b3c ebdd efbb d615 41bd 1a00 293d
00000120: 4798 85bc a9af 1b3c 3c30 66bd 9070 9abd
00000130: a17b 68bd 81a3 613d 4693 adbc 7bf8 533d
00000140: 8b2a bbbc bef1 89bc b7f5 27bd c291 9f3c
00000150: 4572 0fbd 0be6 853c a9f9 65bd b0d8 833d
00000160: 5b15 ff3c 196c 893d e512 173c 5fd1 07bd
00000170: 1d88 153d ace0 19bd 1e46 4f3d 1faa a8bc
00000180: cd96 25bd 8442 20bd c877 513c 0a29 953c
00000190: 61e6 963b 297b 10bd 6566 c53c 5e35 bcbb
000001a0: 207d 2cbd 061f ba3c 2679 633c 112c 043d
000001b0: b172 9abc c1a1 6abd 5ce2 023c 6fb6 09bc
000001c0: b291 8c3d 55c5 7a3d ecaf 2cbd 1004 76bd
000001d0: 8d45 0f3d 999e 083c 216f 853c 3e37 343d
000001e0: 367d 48bd dfc9 823d 1f7c 193c 70cf 81bd
000001f0: beb4 26bd 3de7 55bd fe37 92bd 4427 273c
00000200: 3f76 8e3a 74b2 0fbd b06a 3abc d955 8d3c
00000210: 187b b43c 52a5 67bd 2cbf 1abd 440c 533d
00000220: c2f5 77bd 886a 5cbc efa8 1f3d dd9e 64bb
00000230: 8bfb 28bd c719 52bd 5636 0ebd 795a 89bd
00000240: ae43 86bd 1879 1bbc 5847 b8bc 95fb 543d
00000250: ae99 57bd 5c3e 813d fc0f 3cbd 7931 573b
00000260: 8ef2 28bd 3380 bcbc 3a40 f73a 95b9 443d
00000270: 8149 773d 86b7 bcbb 4c1b 903d 507c 793d
00000280: ac8e 793c 8480 0f3d ca96 863d e09b 763d
00000290: 887f 81bc 9677 6bbd 9f18 643d da79 393d
000002a0: d544 1ebd 28d8 643d 54de 103d d5a7 c5bc
000002b0: 9637 cbbc 7440 073d fe65 093d b647 8cbc
000002c0: ed59 9a3d 56ab 9fbc f46a 6abc ea1a 953c
000002d0: dda5 58bd 3bda 70bd 5f4b b13c 0a34 86bd
000002e0: e5fc 973d 8a3b 5b3d acbf d5bb c84e 8ebd
000002f0: 2e2a 6f3c 2e56 fd3b d219 c5b9 f926 863d
00000300: b73b 98bc c7b5 563d 6923 7f3d 322b 133a
00000310: 4275 073d 5836 853d 2a57 9c3c 7e8f a3bb
-0.068516746 -0.03901774 -0.035672255 -0.035701383 -0.048563566 0.00718923 -0.0517027 0.054861832
-0.032312904 0.06775908 0.056430582 -0.064893134 0.0461051 0.041639764 0.06763498 -0.016338257
-0.009657076 0.051164314 0.026446292 -0.01747679 0.03832464 0.040000852 -0.029627133 -0.07036965
0.024824578 0.028313356 -0.03234449 -0.015894426 -0.050343376 0.044592656 0.07541182 -0.03590813
-0.05094698 0.055436056 -0.06606005 0.049921673 -0.057034 0.06767277 -0.03987255 -0.02794355
0.032853607 0.014285456 -0.045970544 -0.018997911 0.012332371 0.058013752 0.052533057 -0.058913197
0.014992227 0.0032737195 -0.0031281116 0.06810131 -0.01380943 0.044023585 0.06439501 -0.050659075
0.06633806 0.0036446545 -0.022432918 0.06607165 -0.029982017 -0.070513606 -0.046568573 -0.036816314
-0.009644453 -0.047856722 -0.021331666 -0.057511877 0.0134192845 -0.007320156 -0.047139965 0.041259862
-0.016307963 0.00950233 -0.056198344 -0.07541001 -0.056758527 0.05508757 -0.02118839 0.05175064
-0.022847435 -0.016838904 -0.041005816 0.019478682 -0.035021085 0.016345045 -0.056146298 0.06437814
0.031138113 0.06710071 0.009220813 -0.033158656 0.03650676 -0.03756778 0.05060398 -0.020588933
-0.040427018 -0.039125934 0.012784906 0.018208046 0.0046051 -0.035273705 0.024096677 -0.0057436666
-0.042111516 0.022719871 0.0138838645 0.032268587 -0.018853517 -0.057283167 0.007988539 -0.008405312
0.06863727 0.061223347 -0.04215996 -0.060062468 0.03497844 0.008338594 0.016288342 0.043997996
-0.048947535 0.0638616 0.009367972 -0.06338394 -0.040699713 -0.05222248 -0.07139586 0.010202233
0.001086898 -0.035082296 -0.011377975 0.01725285 0.022031352 -0.056554146 -0.037779972 0.05152537
-0.060537107 -0.013453133 0.038979467 -0.003488473 -0.041255515 -0.051294114 -0.034719788 -0.067067094
-0.065558776 -0.00948932 -0.022494957 0.05199774 -0.052636795 0.06310722 -0.04591368 0.0032835884
-0.041246943 -0.023010349 0.0018863745 0.048028547 0.060372833 -0.0057591824 0.070364565 0.06090957
0.0152317695 0.03503467 0.065717295 0.060207248 -0.015807882 -0.057487093 0.055687543 0.045282222
-0.038639862 0.055870205 0.03536828 -0.02412788 -0.024806779 0.03302045 0.033544533 -0.017124038
0.07536683 -0.019490879 -0.014307726 0.01820131 -0.052892555 -0.05880187 0.021642385 -0.065528944
0.07421283 0.053523578 -0.006523093 -0.0694862 0.014597459 0.0077312207 -0.00037594006 0.06550402
-0.018583162 0.05241945 0.06228963 0.00056140416 0.03307081 0.06504506 0.019084532 -0.004991471

chara_net.RNN.bias_hh_l0 f4 [200]
00000000: e022 3e3d 07f7 1fbd 125d 11bd b05d 4dbb
00000010: 8bc5 14bd bdb4 dc3c 4926 813d fb5d 0ebd
00000020: 0d92 f43c 37c8 41bc 5501 9fbc 7da6 183b
00000030: a6a9 a63b 92f7 533d 534c 393d 7690 853d
00000040: 4558 8abd bcd9 5cbc 3f0a 793c 68d7 583c
00000050: 3495 2c3d c33e b1bc f2df 57bd e195 75bd
00000060: 920c 503d 4851 193d 69d7 2f3d 5028 323d
00000070: 3408 a9bc 83f5 d23c 75ca e6bb fb58 503d
00000080: 9e75 923d df5a 14bd cd8b 43bd 1865 1d3d
00000090: 335d 0a3d c6f9 89bd 069c 6abd 296d 1c3d
000000a0: 4042 7d3d 54a2 1cbc dffc 25bd 4cb8 ce3c
000000b0: 31e9 39bd 95aa 673d 5761 66bd 17f0 44bd
000000c0: 710a 1cbc 89c0 713d 3b00 a93c 7f1b 333c
000000d0: d8d2 85bd 03f2 26bd 911b 9abc 7bd7 b33c
000000e0: a150 da3c d171 42bc c0f0 d7bc 6e07 353b
000000f0: 7e3f 8dbb 9a63 46bd e906 563d 5765 d9ba
00000100: 1276 653d fca1 8d3d 4743 cbbc 621b 683d
00000110: 6dac d6bc 8e9d 6ebd 7440 683c 554c 44bd
00000120: 8176 44b8 76d2 58bc 2515 d03c 5278 c1bc
00000130: 249d 8dbd afd7 90bd 265e b8bc c7f8 72bd
00000140: 3915 663d aab4 0ebc abc2 afbc e25a 81bd
00000150: 4035 4d3d 5d09 48bd 8b38 833d c7df 1c3d
00000160: 7923 993d 2abf 103d 6846 52bd 4b9e 003d
00000170: abc8 d7bc c461 893d ca97 233d 8a50 6dbd
00000180: 082f 303d 9eea bdbc 223b 6d3d 78f8 73bc
00000190: 332e 8f3c 98ca 98ba 48a8 ba3c 516f 6ebd
000001a0: ccca 80bc 3149 453d 9a5b 34bc 8bea 4ebd
000001b0: 55e3 6bbd 0b66 383d 342b 163d c7a2 f1bc
000001c0: 102f 8bbd be66 00bd d863 09bc 9d1b 6bbb
000001d0: dc15 203c 5afd bbbc 2c06 50bd 3cb1 033d
000001e0: 64c0 eabc a90f 33bd 3f3e 563d be5f a33b
000001f0: f5f4 85bc c54e 863c bd70 89bd ebad 113a
00000200: f9bb 253d 2eb7 d13c 0a96 3bbd 10ae 283d
00000210: 315b 0cbd d1da 2dbd cbb7 08bd 19af 98bc
00000220: 3636 82bb da16 27bc b8a6 13bd c8a4 913c
00000230: abd9 00bd 2edd 873d dfc5 8d3d 9a17 703d
00000240: 3000 90bc 0e59 b33c b260 0abd 66ee 383a
00000250: 1a02 f53c f53b f5bc 5d9d 053d 8547 253d
00000260: 77e4 a2bc 56ce 813d 90f5 d93c 4071 893c
00000270: 3781 21bd 5c6d 683d 2657 863d d824 1e3d
00000280: 520d a4bc d678 a03c 0a3a 543b 4b8d 113d
00000290: 9470 2f3c 6926 393d b2d6 873d 540a 123d
000002a0: 08e8 1dbb 3855 2fbd 99ef 1e3d 8d58 043b
000002b0: 8e58 8abd 90fd 493a 97e0 fc3c ae4d bf3b
000002c0: ae0d 5fbd c571 883c 725c d43c bb7e f0bb
000002d0: 81b7 b53b 9f38 a33c abe0 723d 6963 21bd
000002e0: b0a7 52bd 84e1 8a3d c6cf 783d df07 bd3c
000002f0: 1886 583d 698d 983d da31 14bd 3229 26bd
00000300: d680 34bd 32a4 0f3d fa8b 77bc 4643 3fbd
00000310: 1c17 27bd ae3a 273d 05f4 03bd e8f1 0abc
0.04641998 -0.039053943 -0.03548915 -0.003133636 -0.036321204 0.026941651 0.063061304 -0.034757596
0.029854799 -0.01182752 -0.019409815 0.0023292594 0.0050861416 0.051749773 0.045238804 0.06521694
-0.06755117 -0.013479646 0.015200197 0.013234951 0.04213448 -0.021636372 -0.052703805 -0.05995739
0.050793238 0.03743103 0.04293004 0.043495476 -0.020633794 0.025751835 -0.0070431777 0.05086611
0.0715134 -0.036219474 -0.047740746 0.03842649 0.033780288 -0.067370936 -0.0572777 0.03819004
0.06183076 -0.009560186 -0.04052436 0.025234364 -0.045388404 0.056559164 -0.056245174 -0.04808053
-0.009523974 0.059021506 0.020629993 0.010931849 -0.06534356 -0.040758144 -0.018811973 0.021953335
0.026649775 -0.011867956 -0.026359916 0.0027622837 -0.0043105474 -0.04843483 0.052252684 -0.0016585988
0.056020804 0.06915662 -0.024812354 0.05666674 -0.026205266 -0.058255725 0.014175523 -0.04792436
-4.6840407e-05 -0.013233772 0.025400707 -0.023616944 -0.06914738 -0.070723884 -0.022505831 -0.059319284
0.056172583 -0.008710066 -0.02145513 -0.06316163 0.05009961 -0.048837055 0.06407269 0.03829935
0.07477469 0.03533856 -0.051336676 0.03140096 -0.026340803 0.067081004 0.03993968 -0.057938136
0.043013602 -0.023183163 0.05791772 -0.014890783 0.017478084 -0.0011657057 0.02278532 -0.05821163
-0.015721701 0.048165504 -0.011008168 -0.050516646 -0.057589848 0.04501919 0.036662295 -0.029496564
-0.06796086 -0.031347983 -0.008385621 -0.0035874613 0.009770837 -0.022947956 -0.050787136 0.032151446
-0.028656192 -0.043716107 0.052305456 0.0049857786 -0.016352156 0.016394982 -0.06710956 0.0005557227
0.040462468 0.025600042 -0.045797385 0.041181624 -0.034266654 -0.042445008 -0.033378404 -0.01863818
-0.0039737476 -0.010198319 -0.036047667 0.01777877 -0.031457584 0.066339836 0.069225065 0.05861626
-0.017578214 0.02189305 -0.033783622 0.0007054567 0.029908229 -0.029935816 0.032620776 0.04035141
-0.019884331 0.063381836 0.026606351 0.016777635 -0.03942987 0.05674492 0.06559591 0.038609356
-0.020025883 0.019588869 0.0032383227 0.035535138 0.010707993 0.045202646 0.06632747 0.03565438
-0.00240946 -0.04280588 0.038802717 0.0020194382 -0.06755172 0.0007705325 0.030868812 0.0058381176
-0.054456405 0.016655812 0.025922988 -0.007339326 0.005545557 0.01992446 0.05929629 -0.039401446
-0.05142945 0.06781295 0.060745023 0.023075042 0.052862257 0.07448847 -0.036180355 -0.04056663
-0.04406818 0.0350687 -0.015109057 -0.046695016 -0.040793523 0.040827446 -0.032215137 -0.0084805265

ment_net.fc1.weight f4 [128, 400]
00000000: 8869 99bc 5576 153a 9fee 083d 1755 cebc
00000010: f776 37bc 5958 d73c dc03 20bc 8b03 2e3c
00000020: 3590 6c3c 869b 223c a679 023d 048f 63bd
00000030: b1da 07bb 23b3 5b3c 3016 dd3c 3a2c 4fbc
00000040: e84d 093d d569 533b 0b45 283c 9bc0 dc3c
00000050: 71d1 023d 3665 6d3b f5b9 893c 271d c13c
00000060: 0e79 43bd 7384 b13c 3902 23bd da28 f23c
00000070: 4510 37bd 6fc4 d83c bd9a b3bc 4639 50bd
00000080: bc47 5a3d 2440 4b3d 3bcc 493c f9c3 c3bc
00000090: 9832 abbb 5a3e 22bd d093 823b c4bd 153d
000000a0: 4398 ccbc 936d a03b 876e af3c 523e 933c
000000b0: 19ef 4d3d 77a1 89bc 0d42 37bc ddd8 673d
000000c0: 7769 4fbb d97c 94bc 17ab b53c a74c 213d
000000d0: bcf3 5ebb 2397 043d 644f f63c e2c4 703b
000000e0: deda f7bc e992 26bd 46d9 183d 9608 143c
000000f0: 492a 82bc 0c8b 0dbc dd66 dc3c e6da 19bc
00000100: 21db 0abd cbcd f53c 509f 983c 70f0 0cbc
00000110: 6d90 7ebc 6bc6 eebc 23e0 44bd ef5c 93bc
00000120: 57b1 f1bc 2e3e 993c 8528 09bd 04da 473c
00000130: f322 ee3c dd51 103d 47be 053d a71f 0ebd
00000140: 4378 3bbd ddc7 073b 278e c4bc d39b b03a
00000150: 86ff 7fbc 2c49 433b 46f2 17bd c85a 00bd
00000160: 3a83 483c 3f27 9d3c 10e9 f23c a383 023d
00000170: fbf2 fdbc 4376 ee3c b0a3 1b3d dea1 6bbc
00000180: e7ed 7a3c 00f1 953c 9e64 943c f8f3 5bbd
00000190: 6c62 c9bc 9e9d e5bc 65b5 3bbc ee55 98bc
000001a0: 6ab4 cdbc 84ff 6f3c c425 2dbd df4f 923c
000001b0: 7702 5bbd 758f 7ebc fcd3 6bbd 3584 663c
000001c0: ece4 0a3d dbd2 40bd 1bff 2fbd b051 9cbb
000001d0: af80 c5bb 66dd 243d fb0d 013d 1099 62bd
000001e0: 0812 00bd 7d65 1c3d 4b01 12bd b6ab 003d
000001f0: 5cd1 5cbd eee5 a53c d863 07bd 1b1e 063d
00000200: a894 15bd 9287 063d 936e 223d debc 1ebc
00000210: d271 2abd c0ad 133c f0cb 52bd 4b9e f5bb
00000220: 0814 96bc a4bb 01bd ce13 2abd 97fe 8d3c
00000230: 4b4b 37bd 525b 64bd e542 eabc bf48 dcbb
00000240: 067a 053d 270f 2d3d fd39 1fbd 4644 6d3d
00000250: 7008 c3bc 9702 d13c 1c45 a9bc a8b2 30bd
00000260: d7df 29bd 281b 12bd 5606 36bc 1830 54bd
00000270: 799e 913c d132 3e3d 9e6a a73c d9bb 10bd
00000280: a08f 3bbd 1d0c 223d 247f 2c3d 6f30 443d
00000290: 5e95 563c 869d 493c 3ab2 963c 9264 8d3c
000002a0: 80a6 22bd 1262 0d3c 064e 9dbc ca27 f6bc
000002b0: af3f 5f3c 2cff 183d 5b71 9e3c eb6e ddbc
000002c0: b160 08bd f2e8 e9bc 2f54 05bd 024d 4839
000002d0: 56ca cebc 6adc 4f3a 2c04 353d 0509 043c
000002e0: 8288 dfbb ce65 94bc 6e52 293c bd0c 68bc
000002f0: be25 b5bc b9e3 08ba 5b7a 82b9 e6d4 3bbd
00000300: 95de 323c 71eb e1bc e927 1a3d e943 a3bb
00000310: 9e2f 993c f392 e2bb 3329 983b e95b 123d
00000320: d2ab 2cbd ac93 18bc 67a2 2a3c d828 aa3c
00000330: 87ee 36bd 1f58 883c 9114 03bd 7489 15bd
00000340: 31b0 293d 85cf 833d 7233 613c 99ff 4e3c
00000350: 2279 1ebd 8a03 92bc d841 1e3c 5c43 2b3d
00000360: bc68 babc 3782 28bd c760 edbc 09c8 1b3d
00000370: 7d02 203d 4915 2bbd 389a 54bd 001a 25bd
00000380: cd43 1c3d c0be 3f3c d043 853c e9cd 31bd
00000390: be1c 74bc d147 d83c 8d3c 563d 2753 c9bc
000003a0: 229d 0c3c 7f76 ad3b 1333 05bd 33f4 3a3c
000003b0: 0a95 6bbc 5dc6 85bc 168e d6bc 6058 a5bc
000003c0: cf0e ecbc d071 ddbc 6313 173d ea2c 2b3d
000003d0: 3508 803c f26a babc e658 153d 0d9e 6fba
000003e0: 392d 0a3d 69f1 553d 8f4a 1e3d 9047 1cbd
000003f0: 6ae9 a0bc 9355 0e3d a4bd 6c3c ebde 43bc
-0.018727079 0.0005701532 0.03343069 -0.025187058 -0.011197797 0.026287245 -0.009766545 0.010620962
0.0144386785 0.009924775 0.031854294 -0.055556312 -0.0020729715 0.013409409 0.026988119 -0.012644822
0.033521563 0.0032259126 0.010270367 0.02694731 0.03193802 0.0036223656 0.016812304 0.023573471
-0.04772287 0.021669602 -0.03979704 0.029560495 -0.04469325 0.026460854 -0.02192437 -0.05083587
0.053291067 0.049621716 0.012316759 -0.023897158 -0.005224537 -0.039610244 0.003984906 0.036557928
-0.024974948 0.0048958748 0.021415008 0.017974053 0.05027685 -0.016800625 -0.011185181 0.0566033
-0.0031648555 -0.018125938 0.022176309 0.039379742 -0.0034019789 0.032370698 0.030067153 0.0036738445
-0.030255731 -0.04066745 0.037316583 0.00903525 -0.015889304 -0.008639108 0.026904518 -0.009390568
-0.033900384 0.030005356 0.018630654 -0.008602247 -0.0155373635 -0.029147347 -0.048065316 -0.01798865
-0.029503508 0.018706407 -0.033485908 0.012197975 0.0290694 0.03523432 0.032652166 -0.034698155
-0.045768987 0.0020718493 -0.023993565 0.0013474174 -0.015624886 0.0029798253 -0.037096284 -0.031336576
0.012238318 0.019183753 0.029652148 0.03186382 -0.030999651 0.029109126 0.0379979 -0.014381854
0.015315509 0.018303394 0.018114384 -0.053699464 -0.024583064 -0.02802926 -0.011456822 -0.018595662
-0.025110442 0.014648322 -0.042272344 0.017860351 -0.053469148 -0.0155371325 -0.05757521 0.014069607
0.033909723 -0.047076087 -0.042967897 -0.00477048 -0.006027303 0.040250205 0.031507473 -0.055321753
-0.031267196 0.038182724 -0.035645764 0.031413756 -0.0539106 0.02025124 -0.033054203 0.032743555
-0.036518723 0.032844134 0.039656233 -0.009688584 -0.041612454 0.009013593 -0.05146402 -0.0074956766
-0.018320099 -0.03167309 -0.041522793 0.017333312 -0.04474954 -0.055751152 -0.02859635 -0.006722539
0.032587074 0.04225078 -0.03887366 0.05792644 -0.023807734 0.02551393 -0.020662837 -0.04313913
-0.041473236 -0.03567043 -0.011109909 -0.05180368 0.017775761 0.04643518 0.020436581 -0.035335395
-0.04579127 0.039562333 0.04211344 0.047897752 0.013097135 0.012305623 0.018395532 0.01725987
-0.039709568 0.008629339 -0.019202244 -0.03004827 0.013626023 0.037352726 0.019341161 -0.027030429
-0.033295337 -0.02855346 -0.032550987 0.00019102174 -0.025242966 0.00079292676 0.04419343 0.008058791
-0.006821693 -0.01811495 0.010334594 -0.014163193 -0.022112723 -0.00052219216 -0.00024886694 -0.045857333
0.0109173255 -0.027578088 0.037635718 -0.0049824608 0.018699463 -0.0069144904 0.004643583 0.035732184
-0.042156048 -0.0093125515 0.010414696 0.020771429 -0.04466107 0.016643582 -0.032002036 -0.03650804
0.041427795 0.064360656 0.013745176 0.012634181 -0.03868974 -0.017823953 0.009659253 0.041812286
-0.02275502 -0.041139808 -0.028976811 0.038032565 0.039064873 -0.041768346 -0.051904887 -0.040308
0.038150597 0.011703193 0.016267687 -0.04340926 -0.014899431 0.026401432 0.05230384 -0.024575783
0.008582385 0.005293667 -0.03251941 0.011410761 -0.014378795 -0.016329939 -0.026190799 -0.020183742
-0.028815655 -0.02703181 0.036883723 0.04179088 0.015628913 -0.022756074 0.036461733 -0.0009140678
0.033734534 0.05223218 0.038645323 -0.038154185 -0.01964255 0.03474958 0.014449511 -0.011955003

ment_net.fc1.bias f4 [128]
00000000: 96db cf3b ba7e 8ebc 5365 0b3b d1e3 3e3d
00000010: 7ff3 3ebd 242d 0a3d b590 373d c248 8e3c
00000020: 5b5e c6bc cb8a 2ebd 5b3a ff3c b344 c83b
00000030: 5073 323d 4335 073d 5b9c a7bb c84f 5abc
00000040: 560b 54bc 0c22 e63c 7555 443d f2fb 433d
00000050: 1c2f 05bc 4990 c339 8800 433d a787 b93a
00000060: e162 723c c1aa ff3b adca 98bc 7d90 073c
00000070: 8dc8 cd3c dbd4 94bc b3f3 a2bc 2130 9f3c
00000080: 9db6 1ebd 09bc 343d d078 0fbd ffec ba3c
00000090: a216 f0bc 497f ecbb d800 2dbc a235 9ebc
000000a0: a900 903c 459f 3fbc bc10 073d 6061 3b3d
000000b0: 8c2d 38b8 82bc db3c c76e 95bc 3a41 24bd
000000c0: f8b5 52bd daef a13c 7fbf 21bd b72f 4dbc
000000d0: 4205 f13b 4bf5 d6bc 86e6 103c a991 3f3d
000000e0: 66d8 a1bc 129d babc 9512 c43c 43a9 32bc
000000f0: 48be bd3a 70e4 933c e04c f53c 7849 e7bc
00000100: d005 433b de13 0dbd 1d68 203d cd56 f3bc
00000110: 6003 403c ac8a 75bb 3a21 283c d39c 0ebd
00000120: 8a8e f83c 12d5 923b d2c9 4dbd 804b d33c
00000130: 35b1 bbbc 23d0 153d 937f 463d 1c2f debc
00000140: edd5 19bd 4f2d 8f3c 3ce3 083d 4d1e 013d
00000150: 60f0 a5bc 8317 123c 9c55 2bbd bfaa 413d
00000160: d49a 1dbd 2d6c b3bc e2d0 aabb 0edc 8d3c
00000170: 392d 38bd 9ca9 3fbd c74c 84bc 2a61 0abc
00000180: 5bd9 9abb cc0a c3bb 108a 8c3c 560e 37bd
00000190: c5ea 85bc 8e5b 373d 3d58 05bd afc8 933c
000001a0: 5f05 4cbc 3786 f9bc 4217 b8bc 7121 1bbd
000001b0: e223 abbb c342 4e3c 030b a7bc 0005 3f3d
000001c0: 9662 f63b ef1b d0bb 6955 afba 97a8 e5bc
000001d0: 0eaf 9fbc 4584 08bc 7499 163d 0fec f1bc
000001e0: f982 43bc 3ee9 053d 9ca0 0d3d ae8a 243d
000001f0: 23e9 0abd 7b16 1e3d b50b 303d 82b1 b83c
0.0063433154 -0.017394412 0.002127011 0.04660398 -0.046618935 0.033734456 0.044815738 0.017368678
-0.024214914 -0.042612832 0.031155756 0.006111705 0.043567 0.03300978 -0.0051150746 -0.013324685
-0.012942156 0.028092407 0.04793306 0.047847696 -0.0081289075 0.000373008 0.04760793 0.0014154807
0.014794082 0.007802338 -0.01865133 0.008274195 0.025120044 -0.018167904 -0.019891595 0.01943213
-0.038748372 0.044124637 -0.035027325 0.022818087 -0.029307667 -0.007217322 -0.010559283 -0.019312683
0.01757844 -0.011695688 0.032974944 0.04574716 -4.3911437e-05 0.026823286 -0.0182413 -0.040101267
-0.05144307 0.01976769 -0.039489266 -0.012523583 0.007355363 -0.026240012 0.008844024 0.04676977
-0.019756507 -0.022779975 0.023934642 -0.010904613 0.0014476264 0.018053263 0.029943883 -0.028233275
0.0029758103 -0.034442775 0.03916179 -0.029704476 0.011719555 -0.0037466688 0.010261828 -0.034817528
0.030341405 0.0044809664 -0.0502413 0.025792837 -0.022911647 0.036575448 0.048461508 -0.027122073
-0.03755753 0.01747766 0.033419833 0.031523038 -0.020256221 0.008916738 -0.04182969 0.047281977
-0.038477734 -0.021902168 -0.005212889 0.017316844 -0.044965003 -0.04679261 -0.016149892 -0.008446017
-0.004725618 -0.005952215 0.017155677 -0.044691406 -0.016347298 0.044765048 -0.032554854 0.01804003
-0.012452452 -0.030459506 -0.022472028 -0.03787369 -0.0052227834 0.012589159 -0.020390993 0.046635628
0.0075190766 -0.006350986 -0.0013376895 -0.028034491 -0.019492652 -0.008332317 0.036767438 -0.029531507
-0.011933082 0.03269314 0.034576997 0.040171318 -0.033913743 0.038595658 0.042979915 0.02254558

ment_net.fc2.weight f4 [6, 128]
00000000: d83e 83bd 3bfe 293d 149e 37bc 7018 dcbd
00000010: 8046 ddbd 42bb ffbb 368a e4ba ef81 96bd
00000020: 8ad8 81ba 80b3 41bd 6a99 bfbc de56 303d
00000030: edeb 9cbc cc67 adbb b232 a2bc 4889 76bb
00000040: 630d 7c3d 9d31 92bd 2bfc d4bd e4f9 7d3d
00000050: 4808 213d eccb 25bd 1988 06bd db29 973d
00000060: 076a c4bd cd2f a0bb 6da2 6bbd 2d07 193d
00000070: 556d a03b a251 d2bd 9a28 2f3d af26 c9bd
00000080: 594a 923d 918d ac3c 83be edbd e2b3 cbbd
00000090: e6bf d4bd 4523 e03b d7fb 02bd 9d42 a2bd
000000a0: 29d0 a7bd e361 363c 14b3 863b f85b 7cbd
000000b0: 5a63 483b ac80 ebbc d83a 263d 3456 23bc
000000c0: e043 843d adaf e53c 09c4 b13c 0b01 7ebd
000000d0: 3272 ed3a e0f8 4abd 3128 963b 9c38 5bbd
000000e0: 44ba 4abd 1536 e3bd a52c 69bd 5b2b a7bc
000000f0: 967d d4bc 46c3 abbd 476e 863b 1326 313c
00000100: 4e62 b8bd 642e d6bd 04e0 9fbd 7439 0c3d
00000110: 86ae 053d 550f 10ba 7b9e d8bd 4745 8fbd
00000120: d04c 5dbd 277d 383d 8c6b e5bb 0d85 c9bd
00000130: 1082 78bd 8a08 e2bc efb1 f3bc 4e84 43bc
00000140: 09f4 0bbc 32da 323d 86a6 57bd 15c1 52bc
00000150: 9fd7 ac3c c304 43bd 2a6b 443d 4f3b 063d
00000160: 0676 54bd 7d42 6a3c 322e 643d 22b9 1f3c
00000170: c0a4 bebd 510a 8b3c a655 c6bd 3806 f3bd
00000180: 4338 1a3d 1089 9abd 6b35 c8bd 4566 1e3d
00000190: ec22 8ebd fe14 623b 0af1 12bc 296b 3c3d
000001a0: da7f 7b3d 407c 4ebc a00f 043d 2daa 8dbd
000001b0: d982 95bd 8f4b c2bb 1199 b3bd be53 133d
000001c0: e7e4 4dbd c58b 2c3c 5806 1b3d 0afb b0bd
000001d0: 7db3 9cbd 9f51 4fbd 6de3 7ebc dcdd 273d
000001e0: fbaa b03c c9d1 1cbd c877 153d 01ac 363d
000001f0: e353 a63c 3e08 71bd ad90 fbbb ca6c 14bd
00000200: 8ed2 81bd e90f 91bd 1564 743d fa2b 9a3d
00000210: f271 c73d 849c bd35 33f0 ba3d 4cc2 6dbd
00000220: 46af d5bc 9898 c23b 5b50 99bd 0456 34bd
00000230: a853 8dbd 48ec 3d3d 06bf 55bd 78d8 bdbd
00000240: 4b31 ab3d 004c ae3c 9f83 1bbd 018a da3b
00000250: a288 b03c 7bfe 00bd 7479 63bd 0e1e 9dbd
00000260: 0a92 20bc 70b6 933d 4c42 723d 8a0c 8c3d
00000270: 47de eb3c 798a 8dbc bc5b 52bd d1ca 48bd
00000280: 70ba 363c 56eb 503d 21c2 b03c bffc 9e3c
00000290: fa31 903d c343 803d 4887 253d 7705 acbd
000002a0: d035 7e3a 4962 70bd ca77 913d 4b2c 4bbd
000002b0: e061 afbd 2a9d 04bd 7f1b b33d d699 81bc
000002c0: af3a 2dbd 80a7 59bd d708 37bc 21be 8ebd
000002d0: 6c79 a03d 33fe 8c3d 56c3 b0bd 7813 c33c
000002e0: db44 f63b 2257 0e3d 34b7 863b 8ade 063c
000002f0: a5de eb3c 807e a03d e990 24bd 2f8e 7c3d
00000300: 3821 56bd 9abe 7a3d ecf8 acbd be46 2dbd
00000310: 4e4a f73c d2b5 583d 89d4 203d 1347 fd3c
00000320: c39c e5b8 94a2 7a3d 1113 b43d b88a 84bd
00000330: f226 8c3d 255c 553d 4ce6 1fbd 16bd 82bd
00000340: 0826 a3bd 6869 b3bd 7421 28bd 2906 95bd
00000350: c9fb b63d 595d 5abc 8592 2a3d 0b3d bb3b
00000360: db4c b93d 200f c3bc cf71 a23d 5904 a53d
00000370: 637f 97bd f615 9f3d 5a00 893d 8682 0b3d
00000380: 7099 87bc eedf 473d 84ff b4bd 13f4 8bbd
00000390: 9b7b 523c ad86 a2bd 8296 ef3b ce7f bbbd
000003a0: 8e71 a73b fa19 91bd 804b 4dbd 0673 6c3d
000003b0: 7247 913d 329c b9bd 8e18 05bd 8ec0 1ebd
000003c0: 5f20 aa3d 4498 d5bd 8d6f 31bd a35b 8f3d
000003d0: 3864 ccbd 783d cdbd 5f2a 51bd 59e8 923d
000003e0: 21e8 813d 31b1 213d b404 553d 343d f23c
000003f0: 15d2 b4bd a9b2 ef3c a79f ba3c e0a0 85bd
-0.06408471 0.04150222 -0.011207122 -0.107468486 -0.108044624 -0.0078043053 -0.001743621 -0.073490016
-0.0009906453 -0.047290325 -0.023388583 0.043051593 -0.019155467 -0.0052919146 -0.019799564 -0.0037618447
0.061536204 -0.07138369 -0.1039966 0.062005892 0.03931454 -0.04047768 -0.032844637 0.0738103
-0.095905356 -0.004888511 -0.05752795 0.03736036 0.004895846 -0.102694765 0.04276333 -0.098218314
0.07143087 0.021063598 -0.11608603 -0.09946419 -0.10388164 0.006840142 -0.031978454 -0.07922862
-0.08194 0.011131736 0.0041107032 -0.061611146 0.0030576796 -0.028747879 0.04058346 -0.009969283
0.06458259 0.02803787 0.021699922 -0.062012713 0.0018115698 -0.049553752 0.004582428 -0.053520784
-0.049494043 -0.110943 -0.056927342 -0.020406416 -0.02593879 -0.08386855 0.0041025016 0.0108123
-0.09003125 -0.10458067 -0.078063995 0.03423448 0.03263714 -0.0005495449 -0.10577103 -0.069956355
-0.054028332 0.04504123 -0.007001346 -0.098398305 -0.060670912 -0.027591962 -0.029747931 -0.011933399
-0.008542069 0.04366512 -0.052649044 -0.012863417 0.02109891 -0.047611963 0.047953762 0.032771405
-0.05187037 0.014298079 0.055708118 0.009748729 -0.09308767 0.016972693 -0.09684305 -0.118664205
0.03765131 -0.07545674 -0.09775814 0.03867175 -0.069402546 0.0034497376 -0.008968601 0.046000633
0.061401226 -0.012602866 0.032241464 -0.06917224 -0.07300348 -0.0059294174 -0.087694295 0.035968535
-0.050267126 0.0105313705 0.037847847 -0.08641632 -0.07651422 -0.05061495 -0.015557152 0.040983066
0.021565905 -0.038286004 0.036491185 0.04459763 0.020303672 -0.05884575 -0.007677159 -0.03623656
-0.06338988 -0.07083113 0.05966576 0.07527919 0.0973853 1.4127149e-06 0.091278456 -0.058046624
-0.026084553 0.0059386007 -0.0748603 -0.044027343 -0.06900722 0.046367913 -0.052184127 -0.09269804
0.08359011 0.021276474 -0.03796732 0.0066692834 0.021549527 -0.03149269 -0.05553575 -0.07671748
-0.009800443 0.072125316 0.059145257 0.06838329 0.028792514 -0.017277943 -0.051357016 -0.049021546
0.011152849 0.051005684 0.021576943 0.019407628 0.07040782 0.062629245 0.040412217 -0.0839948
0.000969735 -0.058687482 0.07102926 -0.049602788 -0.0856359 -0.032376446 0.08745479 -0.015820425
-0.042292293 -0.053138256 -0.011171541 -0.06969858 0.078356594 0.06884422 -0.086310074 0.023812994
0.0075155324 0.034751065 0.004111195 0.008231768 0.028792689 0.07836628 -0.04017726 0.061659034
-0.052277774 0.061216928 -0.084459156 -0.042303793 0.030186798 0.052907772 0.03926519 0.03091768
-0.0001094877 0.061190203 0.08792699 -0.06471771 0.06843366 0.05208983 -0.039037988 -0.063837215
-0.07966238 -0.08760339 -0.04104753 -0.072765656 0.08934743 -0.01332792 0.04164364 0.005714064
0.09047862 -0.023810923 0.079318635 0.0805747 -0.07397344 0.077678606 0.0668952 0.034060024
-0.016552657 0.04879754 -0.08837798 -0.06833663 0.012846853 -0.079358436 0.007311643 -0.09155236
0.0051099723 -0.07085033 -0.05012083 0.057726882 0.07093705 -0.09062995 -0.03249412 -0.038757853
0.083069555 -0.10429433 -0.043319274 0.069999 -0.09980053 -0.1002149 -0.0510658 0.07173223
0.06343103 0.039475624 0.05200644 0.0295702 -0.088291325 0.029259996 0.022781206 -0.06524825

ment_net.fc2.bias f4 [6]
00000000: affb 6a3d 406c 933d 7aa9 a63b a355 c0bc
00000010: 2cf6 56bc 0c31 7d3d
0.05736893 0.071983814 0.005086121 -0.023478335 -0.013120215 0.061814353
