models/SortingHat_5.pt (torch, 539326 bytes, 9 tensors)

statembed_net.fc1.weight f4 [1, 768]
000000 b2 20 05 bd e2 1d ff 3c 8f 6f 03 3d ed 15 f7 bb
       -0.032501884 0.031142179 0.032088812 -0.0075404556
000010 6a 83 38 3d ba 27 60 3c 7c d7 8c 3c 61 ec df 3c
       0.0450472 0.013681347 0.017192595 0.027334394
000020 aa de 75 bc da b4 cb 3b 1b 3c 2d 3c 3b d4 d8 bc
       -0.0150067005 0.0062166275 0.010573412 -0.026468387
000030 ef ec a4 3c da 8b eb 3b 03 1c 8e 3c 31 61 4c 3c
       0.02013251 0.0071883025 0.017347341 0.012474344
000040 0e 26 b2 bb bc b8 dd 3c a8 0d 37 bd 5f 46 8c bc
       -0.0054366654 0.027065627 -0.044690758 -0.0171234
000050 e0 c6 ac 3a 70 39 64 3b d6 c4 d8 3c 9e af 95 bc
       0.0013181828 0.0034824274 0.026461046 -0.018272217
000060 b8 65 e2 bb 34 25 bd ba 37 5a 1e 3c b3 4c de 3b
       -0.0069090985 -0.0014430643 0.009665064 0.0067840456
000070 3c c9 02 3d cb 06 cb bc 99 51 2e 3c 13 9b 15 bd
       0.031930193 -0.024783513 0.010639572 -0.036524843
000080 2b 01 2d bd 29 34 f0 3b a2 1f c5 38 db d9 d3 3b
       -0.042237442 0.0073304367 9.399584e-05 0.0064651794
000090 ba 4a f6 3c ab 4b 37 bc c7 d3 1c bc 25 b4 7d bc
       0.03006493 -0.011187474 -0.009571976 -0.015484844
0000a0 36 6f 87 bc c6 06 bb 3c 6e 3f 13 bc c6 1b e9 bc
       -0.016532522 0.022830378 -0.008987291 -0.028455626
0000b0 c3 3c b6 3c 61 91 b4 3c dc 32 0e 3d 9c 38 cd 3c
       0.02224577 0.022041978 0.034716472 0.025051408
0000c0 13 a5 9f 3c 28 f5 66 3c 71 bc ab 3b 98 72 f6 3c
       0.019487893 0.014096536 0.00524097 0.03008394
0000d0 3c a9 65 3c e2 21 13 bc c3 42 59 bc ef 9c ab 3c
       0.014017399 -0.008980246 -0.013260546 0.020948855
0000e0 3f 2e 14 bc 98 d2 33 bd 7c 34 97 bc 50 d2 55 3c
       -0.009044229 -0.04390201 -0.018457644 0.013050631
0000f0 b7 73 74 bc a6 f8 aa bc a6 97 d5 bc f1 d5 96 bc
       -0.014920167 -0.020870518 -0.026073288 -0.018412562
000100 24 76 95 bc d5 a1 9a bc 1c 2c f6 bc 4f bb c2 bc
       -0.01824481 -0.018875996 -0.03005033 -0.023770956
000110 f1 7e 3f bc 5f b2 2b 3d 05 16 5d ba dd 6f b6 3c
       -0.01168798 0.041918155 -0.0008433762 0.022270137
000120 06 86 8f bc 1c 69 0a 3d 25 c5 28 bc 07 7d d3 bb
       -0.017519962 0.033791646 -0.010300909 -0.0064541134
000130 11 6e 18 bd 53 36 9a bc d0 cf e5 3b 5b 99 2e bc
       -0.037214343 -0.018824732 0.0070132986 -0.01065668
000140 07 41 5b bc ff 40 a7 3c d0 21 86 bc 13 6a bc 3c
       -0.013382203 0.020416735 -0.016373545 0.022999799
000150 79 1d 74 bc 07 26 3b 3d 0f e5 ef bc 4e 57 82 bb
       -0.014899605 0.045690563 -0.029284028 -0.0039776927
000160 26 3b d8 bc 8b 30 32 3d 80 21 57 bc 7a 31 3a bd
       -0.026395392 0.043503325 -0.013130546 -0.04545734
000170 74 b0 2d bc 3d 03 30 3d 40 d5 3e bd 75 c0 c7 bb
       -0.010601152 0.04297184 -0.04659009 -0.0060959407
000180 26 81 ce bb 97 77 7f 3c 9f 3d 2a bc 70 f5 a8 3c
       -0.006302017 0.015592477 -0.010390668 0.020624846
000190 3f 4a 73 3c 76 15 72 3c 10 4f ba 3c f6 4e ca 3c
       0.014849245 0.0147756245 0.022742778 0.024695855
0001a0 4f 24 ed 3c 9e 4a d6 3c ca 7a ae 3c 49 d7 d6 bc
       0.028947977 0.026158627 0.021298785 -0.026225703
0001b0 c4 81 9c 3c c3 3e 31 3d c7 16 a5 bc fb 87 1e 3b
       0.019104846 0.043272745 -0.020152463 0.0024189937
0001c0 dc 09 1a 3c 28 e6 b7 bc dd 4f bc 3c 57 1c c2 3c
       0.009401765 -0.022448614 0.0229873 0.023695154
0001d0 ae d4 41 3c f2 70 df 3c f3 83 b4 3c 17 07 2b bb
       0.011830492 0.027275536 0.022035575 -0.0026096755
0001e0 9d 45 c7 bc 29 9c 2b bc c2 a3 31 bd fa 38 1a 3d
       -0.024325186 -0.010474243 -0.043369062 0.037651993
0001f0 b1 72 08 bd 13 b5 0f 3d b6 ba 1d 3d a3 23 b6 3c
       -0.033312503 0.035084795 0.03850814 0.02223379
000200 e4 10 f7 bc 68 23 5d 3a 65 b1 2e 3d c6 c0 8f 3c
       -0.030159421 0.0008435757 0.042649645 0.017547976
000210 c5 c9 aa 3c c0 6e af 3c 47 a8 de 3c dc 6d 1b bc
       0.020848164 0.021415114 0.02717985 -0.009486642
000220 00 4b 2c bc 19 61 f1 3b 38 12 dc bc 0c c3 45 3d
       -0.010515928 0.0073663113 -0.026864156 0.048281714
000230 63 6f 0d bd db 12 e1 3c 9c c0 ac bb 36 cb 14 bd
       -0.034530055 0.027474811 -0.0052719843 -0.03632661
000240 c4 83 73 bb ce 35 ff 3c af c7 44 39 6b 69 a6 bc
       -0.0037157396 0.031153586 0.00018766405 -0.02031394
000250 50 bf 2f bc 1e 1d ed 3b 52 33 4e 3c 63 aa f5 3c
       -0.010726765 0.007236137 0.012585478 0.029988473
000260 e2 69 b4 bc 38 e9 af 3c c0 0e ee 3c 61 64 9b bc
       -0.022023145 0.021473512 0.029059768 -0.018968763
000270 c7 07 a8 bc 7a cc 1a bd 21 6c 33 3b e6 7a 9f 3c
       -0.020511521 -0.03779266 0.0027377682 0.019467782
000280 47 a9 13 3c a8 d9 e3 bc 8e 03 05 bc 6e 03 b0 3c
       0.009012527 -0.027813748 -0.008118523 0.02148601
000290 b0 16 38 bd 47 10 8f 3c 39 16 bd bc 47 35 c4 3c
       -0.04494351 0.017463816 -0.023081886 0.023951186
0002a0 64 9c ec 3c 2c df 1d 3d da 88 3e 3c 79 0e 43 3c
       0.028883167 0.03854291 0.011629308 0.011905306
0002b0 ae d1 ae bc 29 55 09 3c 36 33 f8 3c fa b7 23 3d
       -0.021340217 0.00838212 0.030297857 0.039970376
0002c0 c2 45 04 bd 8d 8e 96 3c b0 e9 7f bc 5e af ac 3c
       -0.03229309 0.01837852 -0.01561968 0.021079715
0002d0 25 32 28 bd 38 34 22 3d 5a d4 11 3d 6d c3 dd 3c
       -0.041063447 0.03960058 0.035602905 0.027070725
0002e0 10 96 7a 3c 65 18 82 bc 69 57 77 3b 8f ec 3b bd
       0.015294567 -0.015880773 0.003774131 -0.045879897
0002f0 14 20 06 3d 33 13 99 bb 89 8c aa bb 14 8b 48 3c
       0.032745436 -0.004671478 -0.0052047414 0.01224019
000300 ca 38 69 bc 0a 82 a0 bc 95 99 f5 bb d5 7e 25 bb
       -0.014234731 -0.019593257 -0.007495115 -0.00252526
000310 6c b9 37 bc b7 2a ff 3c 7c b1 34 bd 46 36 c4 bb
       -0.011213642 0.031148298 -0.044114575 -0.005987915
000320 95 31 dc bc 70 6b a3 bc 53 13 94 bc e2 06 3d bc
       -0.026879111 -0.019948691 -0.01807562 -0.0115372855
000330 8a a4 57 3b 24 be b0 bc 02 54 2a bb bd 17 72 3c
       0.003290447 -0.021575041 -0.0025990014 0.014776167
000340 0b a8 0b bc 81 5d 35 bc 62 de c4 bc 3f eb 01 bd
       -0.008523951 -0.011069656 -0.024031822 -0.03171849
000350 b5 8e ac bc 48 ca 31 bc db c8 b5 3c c9 18 8e bc
       -0.021064142 -0.01085145 0.022190502 -0.017345803
000360 69 b0 bb 3c 86 1c bf bb 86 e1 f4 ba 54 17 a2 bb
       0.022911267 -0.0058322577 -0.0018682934 -0.0049466286
000370 e2 de 07 bd e5 c8 a3 3c 7f fa f3 bb a7 e2 98 bc
       -0.033171542 0.019993255 -0.007445633 -0.018662764
000380 46 8b f0 3b 18 29 2a 3d bf 83 1c 3a a4 af a5 3b
       0.0073408214 0.041543096 0.00059705594 0.0050563384
000390 40 14 9c 3b d0 1f 75 3c ac c2 89 bc 00 ec 3b 3c
       0.004763156 0.014961198 -0.01681646 0.011469841
0003a0 65 4d b6 bc 2a 29 a5 3b 9d df 5a bd 64 cf 1a bd
       -0.022253701 0.0050403075 -0.05343591 -0.03779544
0003b0 9d ff 27 bd 15 09 e2 3c d0 4f 49 3c fb d3 d3 3c
       -0.041015256 0.027592221 0.012287095 0.025857916
0003c0 a7 a2 ac 3c 69 94 a8 3c b5 56 8e ba 89 38 e2 bb
       0.021073652 0.02057858 -0.0010859581 -0.006903712
0003d0 4f a4 b8 3c 9e 99 80 bc 9a e8 c3 3c ea c4 6d 3c
       0.022539286 -0.01569825 0.023914624 0.01451228
0003e0 c1 97 9e 3c d4 10 d2 bc af cd c4 3c 4a fd ee 3c
       0.019359471 -0.02564279 0.024023859 0.029173512
0003f0 cc e2 e6 bc 7a 39 3a bd 78 98 06 3d 0f 64 1a 3d
       -0.028184317 -0.04546497 0.03286025 0.03769308

chara_net.RNN.weight_ih_l0 f4 [200, 203]
000000 2b 7f 65 bd 6e 47 b9 bc 66 12 7b 3d 97 1f 0b 3d
       -0.05602948 -0.022617068 0.061296843 0.033965673
000010 ff 53 1c bd 58 f1 22 bd 84 24 6e bd 3f db 89 bd
       -0.038166042 -0.039780945 -0.058140293 -0.06731271
000020 82 10 28 3d 54 f8 0b ba b8 6a 4a bd 84 aa 26 bd
       0.041031368 -0.0005339433 -0.04941818 -0.04068996
000030 7c 44 1c 3d d7 35 7f bd 9c 42 98 bd ff e9 04 3d
       0.03815125 -0.062307205 -0.0743458 0.03244972
000040 55 1f 2f 3d 95 b8 92 3a 7e 7a 6b bd 68 73 17 3d
       0.04275449 0.0011193926 -0.057489865 0.036975294
000050 d4 cc ac 3c 53 0d 57 bd 04 41 44 3d 0e 55 2f 3d
       0.021093763 -0.05250294 0.047913566 0.042805724
000060 86 45 74 bd d2 c6 30 3d b0 44 46 bd 9a 12 83 bd
       -0.059636615 0.04315836 -0.04840535 -0.06400032
000070 81 ca 3c 3d 8f 60 08 bc d2 f4 66 3d 44 cf 71 bd
       0.04609156 -0.008323803 0.056385823 -0.059035555
000080 b6 f6 3c 3b 1c 68 88 bc dd f0 b7 bb 05 48 8d bd
       0.0028833575 -0.016651206 -0.00561343 -0.06898502
000090 4c d1 9d 3c a2 25 50 3d 6a f1 67 3d ab 73 94 bc
       0.01926484 0.05081714 0.056626715 -0.018121561
0000a0 ed c0 39 bd cf f4 1b 3d f1 ab dd 3b 85 02 bb bc
       -0.045350004 0.038075265 0.006764882 -0.02282835
0000b0 fe db 63 3c 40 3e 21 3d 83 1a 71 3d 49 1a b6 bc
       0.013907431 0.039366007 0.058863174 -0.02222933
0000c0 2f 6e 10 3d 28 e0 ac bb 71 d1 33 bb fb 2b 4b 3b
       0.03526133 -0.005275745 -0.002743807 0.0031001556
0000d0 06 45 ec 3c 0b 28 52 bc c2 5e dc 3c 0c 28 3c bd
       0.028841507 -0.01282693 0.026900653 -0.04593663
0000e0 9a 8c 77 3d 2b da b8 bc 3d 96 84 bd 28 6d 90 3d
       0.060436822 -0.022564968 -0.06473968 0.0705207
0000f0 20 87 46 3d 33 36 3b 3d 07 ae bb bc e6 ea 24 3d
       0.04846871 0.045705985 -0.022910131 0.04026308
000100 43 87 33 bd 05 63 04 bc 0f 93 bd bc a5 1e 59 3d
       -0.043830168 -0.008080249 -0.023141412 0.05300774
000110 78 66 77 bd 05 87 11 3c b1 0c d9 bc 4b d1 42 bd
       -0.060400456 0.008882289 -0.02649531 -0.04756288
000120 e0 e5 d3 3c 14 69 89 3d 31 4d 48 3c 6b 49 1e 3d
       0.025866449 0.06709495 0.012225435 0.038644236
000130 e1 b0 8a bd 46 84 9a b9 bb 52 c7 3c b5 cd 2d bd
       -0.06772018 -0.0002947172 0.024331441 -0.042432506
000140 16 9e f5 3b 76 20 21 3d 64 91 33 bd 97 ec 24 3d
       0.007495652 0.039337598 -0.043839827 0.040264692
000150 a1 81 99 3c 7e b1 95 3d 4f 95 15 bb 97 8f ef 3c
       0.01873857 0.073092446 -0.002282459 0.029243274
000160 6f 1b 45 bd 32 80 32 3c 09 27 4a 3d 4f b1 69 3d
       -0.048121866 0.010894822 0.049353633 0.05705386
000170 f0 34 8b bc e9 4b 9a bd 7c ee 8f bd 4a b8 67 3b
       -0.016993016 -0.0753401 -0.07027909 0.0035357648
000180 85 de 8d 3d 99 a8 1d bd 23 55 09 3c 0b 3b a6 bc
       0.06927208 -0.038490865 0.008382115 -0.020291826
000190 24 60 84 bd 8d 24 79 3d 60 d5 8f bc 72 a2 79 3d
       -0.0646365 0.060825873 -0.0175578 0.060945936
0001a0 b1 d7 70 bd 36 4c 67 3c 0a a4 45 bd e5 5e 6e 3d
       -0.05879945 0.014117291 -0.048252143 0.058195967
0001b0 13 e4 65 3d 25 d1 5b 3d a7 41 5a bd 17 f5 88 bb
       0.05612571 0.053666253 -0.053285267 -0.0041796076
0001c0 89 7b 18 bd 0c e6 b5 3c b2 97 82 bd 13 97 88 bd
       -0.037227187 0.022204421 -0.0637659 -0.0666944
0001d0 87 1a 6b 3d 0b ca fe 3c 8e fd 50 bd 3b 91 54 bd
       0.057398345 0.031102201 -0.05102306 -0.051896315
0001e0 68 27 a0 bc fe d6 86 bd 5c 71 26 bd 86 ed 72 3d
       -0.01955004 -0.06583975 -0.04063545 0.05930855
0001f0 36 dc 72 bd e6 bd 28 3d 8e f7 23 bd ce 7d 42 3d
       -0.05929204 0.041196726 -0.04003101 0.047483258
000200 af 8d 58 3d ff 9a 71 bd e4 74 54 bd 75 58 8b 3d
       0.052869495 -0.058985706 -0.051869288 0.06803981
000210 1b 21 89 bc d6 66 58 3d d5 93 46 3d dc 66 58 bd
       -0.016739419 0.052832447 0.048480827 -0.05283247
000220 45 c1 1b bd e2 51 0d 3d 9c 6f 82 3d 8a 45 16 3d
       -0.038026113 0.034501918 0.06368944 0.03668741
000230 78 58 73 bd 99 2e d9 bb 2b 63 9e 3d c1 cc 2b 3a
       -0.059410542 -0.0066278693 0.077337585 0.0006553643
000240 fd 98 36 bd 24 cc 34 3c 2b a4 a3 3b 64 fb 59 3d
       -0.044579495 0.011034999 0.0049939356 0.05321826
000250 0b 3d e4 bc 9b f4 ca bc ce 25 37 bc f0 28 57 3d
       -0.027861139 -0.02477484 -0.011178447 0.052529275
000260 dd c4 e2 bc 40 e9 0c 3c 0a d0 4e bd 5e 78 0f bd
       -0.027681762 0.008600533 -0.05049137 -0.0350269
000270 6b fd 39 bd 2e 5f ba bc 62 cd 4f bd aa 78 62 bc
       -0.045407694 -0.022750463 -0.050732978 -0.013822714
000280 ab 20 45 3d df 22 9c bd 53 35 8f bd ef 67 38 3d
       0.048126858 -0.07623839 -0.06992593 0.045020994
000290 90 e3 eb 3c ab fa b2 bc 4e a9 00 bd d9 c8 85 bd
       0.028795034 -0.021848043 -0.03141146 -0.06532449
0002a0 ca f5 ac bc be b1 14 bd c5 06 01 3d d4 9f 86 3d
       -0.021113295 -0.03630232 0.031500597 0.065734535
0002b0 cc 8b 65 bd 46 38 2b 3d 0b 76 36 3c 57 2b 82 3d
       -0.056041524 0.041801713 0.011136542 0.06355923
0002c0 7a 4c 21 3d 2f 73 a0 bc 09 09 96 3a 20 a7 6c 3d
       0.039379574 -0.019586174 0.0011446784 0.05777657
0002d0 b8 74 7c bd 61 37 8d 3c 52 e9 69 bd 5c 08 38 3d
       -0.06163475 0.01723832 -0.057107277 0.044929847
0002e0 99 78 c4 bb 10 da 17 bd b2 04 97 bc c6 43 18 bd
       -0.0059958217 -0.037073195 -0.018434856 -0.03717401
0002f0 f7 f1 5d 3d 4a e1 71 bb 48 19 74 3b e2 db 7f bd
       0.054185834 -0.0036907964 0.0037246514 -0.062465556
000300 88 a4 04 3d 67 34 07 bd 52 bc 7f 3c 42 93 dc 3c
       0.03238347 -0.03300896 0.015608864 0.026925687
000310 87 b0 91 3c ea 85 74 3c 6b e1 5b bd 12 3f 8d bd
       0.01778437 0.014924506 -0.053681772 -0.06896795
000320 ac 07 a0 3c 74 11 1d bd ff 30 9e 3c 69 48 2c 3d
       0.019534908 -0.038346723 0.019310473 0.042061243
000330 38 25 9a 3b 5c ea 4a bd 50 72 2c bd 60 5e 2a bd
       0.004704144 -0.04953991 -0.042101204 -0.04159391
000340 24 26 62 bc 49 bc 47 bd 26 db 58 bd 74 db 53 bd
       -0.013803039 -0.048763547 -0.05294337 -0.05172296
000350 f6 75 7b 3b c4 7f 55 bd 0e fa e0 39 e7 ff 87 3d
       0.003836987 -0.0521238 0.00042910915 0.066406064
000360 da 35 49 3d fc 9b 8a bc 42 0c e6 bc e4 a1 3e bd
       0.049123622 -0.016920082 -0.028082017 -0.04654111
000370 77 16 53 3d 90 16 fe bc de fa 8b 3d ec 7c 97 3d
       0.051535096 -0.031016618 0.068349585 0.07396874
000380 17 c0 60 3c c2 bd 6a bd 6b 84 95 bc 0d fc e2 bc
       0.013717673 -0.057309873 -0.018251618 -0.027708078
000390 cd 4c 52 3d 49 7f 51 3d 53 3a 8b bd b3 87 3a bd
       0.051342774 0.05114678 -0.06798234 -0.04553957
0003a0 d0 83 16 bd c9 58 3b bd f0 27 4d 3c 53 84 f7 3c
       -0.0367468 -0.04573897 0.012521729 0.030214464
0003b0 f7 3c 3e bd 6f 3e 5f bd c5 27 74 3d fd c0 53 bd
       -0.04644486 -0.0545029 0.05960824 -0.05169772
0003c0 4a b7 e9 bc 54 ac a4 3c eb d2 0f bd 9b bb 1b bd
       -0.028529782 0.020101704 -0.035113256 -0.03802071
0003d0 ad 40 3b bc c9 95 fb bb 6a 01 97 bc d6 7a 1c bd
       -0.011428994 -0.007677768 -0.018433291 -0.038203083
0003e0 05 6f 49 bd 6e 89 50 bc 90 81 bd bc 4d a2 e5 bc
       -0.049178142 -0.012728078 -0.02313307 -0.028031493
0003f0 6e c6 e2 3c 37 10 09 3d 81 42 04 bd a7 32 69 bb
       0.02768251 0.03346273 -0.032289986 -0.003558317

chara_net.RNN.weight_hh_l0 f4 [200, 200]
000000 22 26 9f 3c a4 dc d3 3c d2 cd 6c 3d 18 4e 2d 3d
       0.019427363 0.025862046 0.057813473 0.042310804
000010 f3 75 75 bd 8b 40 9d 3c 7e 55 80 bd 70 2f 9f 3c
       -0.05992694 0.019195816 -0.06266306 0.0194318
000020 ba 86 4b 3d 3a 90 0b 3d fa 41 f8 bc 76 4a 09 bd
       0.049689032 0.034073092 -0.030304898 -0.033518277
000030 52 3a 6a bd 51 42 59 3d ff 4e 63 3d b6 0b 8a 3c
       -0.057184525 0.05304176 0.05549526 0.016851287
000040 51 55 02 bd 5a 34 de bc b3 6b 81 3d fe 36 d0 bc
       -0.031819645 -0.027124573 0.0631937 -0.025416847
000050 cf 41 50 3d 6d 76 ea bc a6 e2 5b bd 04 f6 4a bd
       0.05084401 -0.028620923 -0.053682946 -0.049551025
000060 72 14 32 3d 64 60 1a bd c7 4e 1a 3d d0 6a 88 3c
       0.04347653 -0.03768958 0.037672784 0.016652495
000070 4e f8 57 bc 0d a2 0d 3d 78 a3 11 3d 58 9e 02 bd
       -0.013181759 0.03457837 0.035556287 -0.03188929
000080 db c7 8f 3d 05 2c b5 3c 00 be a7 3b 52 8c d6 3b
       0.07020541 0.022115717 0.0051190853 0.006547489
000090 a0 79 0b bd d7 69 7b bd ed 3d b7 3a 83 f6 e8 3c
       -0.034051538 -0.061380234 0.0013980247 0.028437858
0000a0 a9 6b a4 bd 58 f7 28 3d 08 34 87 3c 96 3d 4f 3d
       -0.08028347 0.04125151 0.016504303 0.050595842
0000b0 47 7d f2 3c eb 5b 42 3d 1e d3 3a 3d dc 7a 07 bc
       0.029600753 0.04745094 0.045611493 -0.008269038
0000c0 be 06 b4 3c e6 80 a7 b9 38 12 c5 bb 29 ed 8f bd
       0.021975871 -0.0003194876 -0.0060141347 -0.070276566
0000d0 8e 40 6a 3d 41 d7 e7 bc cd 8f 0e 3d 1e 81 1c 3d
       0.05719047 -0.028300883 0.034805108 0.038209073
0000e0 7f b6 38 bd 3e 73 7c 3d 98 ec c5 3c d1 28 59 3d
       -0.045095917 0.06163334 0.024160668 0.05301744
0000f0 46 62 90 3d a1 30 bc bc dc 27 ed 3b da 07 8d bc
       0.07049994 -0.022972407 0.0072374176 -0.017215658
000100 e7 95 0b 3d ca b8 a6 3b 2a eb a8 3c 4a 34 28 3c
       0.034078505 0.0050879465 0.020619947 0.010266373
000110 ed cb 76 bd c1 1d 1f 3d de ec b1 3c 16 c2 2d 3d
       -0.060253073 0.038846735 0.021719392 0.042421423
000120 0f a6 84 3d 13 b3 5e bc 0b 87 a3 3d f1 34 13 3d
       0.06476986 -0.013592499 0.07984742 0.03593916
000130 d1 e7 60 3d 6b 38 eb bc bf d8 7c 3d c6 b0 6b bd
       0.054908577 -0.028713426 0.061730143 -0.05754163
000140 6a 2d a5 3c dc 5c 8b bd ee f9 46 bc 38 98 87 bd
       0.020163257 -0.06804821 -0.012144549 -0.0662083
000150 67 07 87 3c f5 cc 6d bd 13 e1 2f bd 9f 3f 77 3d
       0.016483022 -0.05805679 -0.042939257 0.06036341
000160 7e 3d 4c 3d ba 2e c8 3c 34 c0 39 3d 91 72 d1 bc
       0.04986333 0.024436343 0.045349315 -0.025567325
000170 39 15 da bb 07 a4 6d 3d ce a0 70 3d 79 2f 87 3b
       -0.006655362 0.058017757 0.058747105 0.004125532
000180 b3 3f 98 3c 89 00 77 bd e4 ab a2 bd 5f 2b 82 3c
       0.018585062 -0.060303245 -0.07942942 0.015889822
000190 3d 11 81 bc 86 02 93 3d f8 35 16 bd eb e6 a9 bc
       -0.01575529 0.07178216 -0.036672562 -0.020739993
0001a0 c4 1e 34 3d b1 37 75 3d 69 4f 7a 3d 7a 86 bd bc
       0.043974653 0.059867565 0.061110888 -0.023135412
0001b0 80 0c 68 3d d7 a7 bb ba 71 1b dc 3c b2 27 07 3c
       0.056652546 -0.0014316988 0.026868554 0.00824921
0001c0 e5 16 90 3a b4 f9 14 bb f2 b8 5c bd 19 90 17 3d
       0.0010993151 -0.0022731842 -0.053887315 0.037002657
0001d0 3c 29 5e 3d 81 4c fd 3a dc 43 c4 3a 97 e5 c9 3c
       0.054238543 0.0019325168 0.0014973837 0.02464561
0001e0 f1 cc 1e bd 32 3a e5 3b 53 1b ae 3c 6c 4e 02 bd
       -0.038769666 0.006995463 0.021253264 -0.03181307
0001f0 96 13 2e bd d2 66 bd 38 4d 39 45 3d c6 2f 36 3c
       -0.042499147 9.031374e-05 0.04815035 0.0111197885
000200 49 81 04 bd 32 89 05 3d 2a 1c 0e bd d5 e2 85 3d
       -0.03234986 0.032601543 -0.034694828 0.065374054
000210 1c fe f0 3c ec 04 9e bb 52 47 2b bd 34 a3 79 3d
       0.029418044 -0.004822364 -0.041816063 0.06094666
000220 0b 90 d5 bb 86 07 6f 3c 4b 0d 3b 3d 13 1b 22 bd
       -0.0065174154 0.014589196 0.045666974 -0.0395766
000230 a5 75 b1 bc 63 ac 71 3d 0e f8 6e bd 3e 10 9f 3c
       -0.021662543 0.05900229 -0.058342032 0.019416925
000240 f6 31 82 bd f1 a2 a4 bc 5f 1c 66 bd 58 38 2d bd
       -0.063571855 -0.020097228 -0.0561794 -0.04229006
000250 37 34 66 3c b0 f7 29 bd 42 be 1a bd 75 0b ed 3c
       0.014050535 -0.04149598 -0.0377791 0.028936127
000260 80 9a 86 bd 2e 16 46 3d 4a cf 32 bd 3f ed c7 3c
       -0.06572437 0.048360996 -0.043654718 0.02440512
000270 f7 e8 d2 bb 14 0e b9 bc 66 6c e1 bb b6 af a8 bc
       -0.006436463 -0.02258972 -0.006879377 -0.020591598
000280 eb e1 00 bb 5c 67 39 bd 49 c1 f0 bc 8b af 46 bc
       -0.0019665908 -0.045264587 -0.02938904 -0.012126814
000290 fb 4e 67 bd bf c6 3e 3d b1 eb 06 bd 09 9c 7a 3d
       -0.056471806 0.046576258 -0.032939617 0.061183963
0002a0 87 d0 28 3d ac 70 62 3d ff cf 27 3d b3 f6 73 bd
       0.041214492 0.055283234 0.040969845 -0.059561443
0002b0 9e 02 0b bd 90 7a 76 3d 7e fd c4 bc 3d 55 6c bd
       -0.033938043 0.06017548 -0.024046656 -0.057698477
0002c0 af a1 85 3d 09 c1 2a bd 42 f2 ec 3c 4f 9b 1c 3d
       0.06524979 -0.041688 0.028924111 0.03823405
0002d0 89 82 00 bd b1 17 62 3d 7a a0 41 bd 1c d1 2f 3d
       -0.031374488 0.055198375 -0.047272183 0.04292403
0002e0 ef d7 44 bb 99 e8 82 bd dd 14 98 bc b4 f6 84 bd
       -0.0030035933 -0.06392021 -0.018564636 -0.064923674
0002f0 53 08 3f 3c b6 61 28 bd 3e e1 aa bd 97 ae 50 bd
       0.0116596995 -0.04110881 -0.08343743 -0.05094775
000300 e1 89 98 3c 7b aa 2a 3d 41 56 17 bd 61 b0 8c bd
       0.018620433 0.04166649 -0.036947493 -0.06869579
000310 12 f8 42 bd 2d e1 92 bd 67 40 94 bd 5c e9 07 bd
       -0.04759986 -0.07171855 -0.07238846 -0.033181533
000320 7a 3e 04 bd 17 9a a0 3c 90 23 62 3d ee 70 86 3d
       -0.032286145 0.019604726 0.055209696 0.065645084
000330 01 51 61 3d 3b a0 9e bc ce 79 84 3d ac 85 41 3d
       0.055008892 -0.019363513 0.06468545 0.04724662
000340 b5 61 e1 3c ef 51 0d 3c 70 e5 92 bd 6b 24 73 bd
       0.02751241 0.0086254915 -0.07172668 -0.059360903
000350 24 0a 75 3c 6c d2 97 bc 3e 6d 64 bd 71 ea 7d bb
       0.014956031 -0.018532954 -0.055768244 -0.0038744474
000360 ae 77 5d 3d 4b 65 8c bd 95 48 a8 3c e9 1b 42 bd
       0.054069214 -0.068552576 0.020542422 -0.0473899
000370 57 f9 ad 3c d5 2a 33 3d 65 8f 68 bc 87 dc d1 3c
       0.021237059 0.04374202 -0.014194344 0.025617851
000380 40 8d 4d bd a0 8b 6c 3d f8 c1 38 bc 45 e5 5f 3d
       -0.050183535 0.057750344 -0.0112767145 0.054662008
000390 64 da 2d 3d 5e 6d 6e 3d 99 81 1a 3d c8 d9 5e bd
       0.0424446 0.05820977 0.03772125 -0.05440691
0003a0 2c 95 7c 3c 14 cd 87 3d 7c 74 85 bd e3 64 8c 3d
       0.015416425 0.066309124 -0.06516358 0.0685518
0003b0 ed 04 8a bd 7d 6e 50 bd d2 ce 81 bd 1c 02 2b 3d
       -0.06739221 -0.05088662 -0.06338276 0.04175006
0003c0 1a d6 f9 b9 a7 73 82 3d f1 1e db 3a 6e 20 27 bd
       -0.000476525 0.06369715 0.0016717595 -0.04080241
0003d0 9a e5 2f 3d 05 f5 41 3a f7 f2 19 3d 92 16 84 bd
       0.042943574 0.00073988765 0.037585225 -0.064496174
0003e0 7e 93 48 3d 55 6c b4 bb d6 1e 45 bd 90 55 4c 3d
       0.048968785 -0.0055060782 -0.04812511 0.049886286
0003f0 c2 e6 17 bd 4e ed bb 3c 56 bf 8b bd 4e df e5 3c
       -0.037085302 0.022940304 -0.06823604 0.028060582

chara_net.RNN.bias_ih_l0 f4 [200]
000000 1c 16 ed bc 7a b9 60 3d ac 13 11 bd b3 61 53 bd
       -0.028941207 0.054864384 -0.03541915 -0.051606845
000010 c8 b3 ac 3c 68 7d 6d 3d 26 fd 8a bd 27 9e d7 bb
       0.02108182 0.057980925 -0.067865655 -0.0065801325
000020 8e f8 88 bd 39 f8 0c 3c e5 bd 25 3c a3 9d 0f bc
       -0.06688033 0.008604103 0.010116075 -0.008765611
000030 f7 66 5b ba 33 31 86 bc 9d 40 13 bc 90 fe 15 3d
       -0.000836953 -0.016380882 -0.008987573 0.036619723
000040 8a da 6a bd 86 29 8e bd cc a9 ae 3c eb d5 85 3d
       -0.05733732 -0.06941514 0.0213212 0.06534942
000050 46 91 36 bd 78 3d 18 3d 47 06 14 3c 19 db e5 3c
       -0.044572137 0.037167996 0.0090347 0.028058575
000060 06 48 8d bd d1 92 d2 bc c0 2a 33 bd 88 b3 72 3d
       -0.06898503 -0.025704773 -0.04374194 0.059253246
000070 b8 f1 ec bb 66 b6 e1 bc cf 2f 71 3d 8f 77 20 3d
       -0.0072309636 -0.027552795 0.058883484 0.03917652
000080 60 5d d7 3c 06 97 73 bd 41 2c 56 bd c5 79 6e bd
       0.026289642 -0.0594702 -0.052288298 -0.058221597
000090 cc 80 db 3c 45 9b d7 3b 2c 8f 7e bd a6 78 cb bc
       0.026794814 0.006579789 -0.062148258 -0.024837803
0000a0 74 13 39 3c 15 ef 87 bd ba 02 8c bd 3d ec 6d bb
       0.011296142 -0.06637398 -0.068364576 -0.003630414
0000b0 53 1a 18 bc 40 82 39 bd 4d 77 b1 bc 1b 22 16 3b
       -0.00928362 -0.04529023 -0.021663332 0.0022908512
0000c0 97 d0 82 bd 91 f5 45 bd 88 59 03 3c 80 bc 50 3d
       -0.063874416 -0.048329893 0.008016951 0.050961018
0000d0 c3 c1 62 3d 27 60 8f 3c ce f7 d0 ba 53 a0 94 bc
       0.055360567 0.017501904 -0.0015942992 -0.018142855
0000e0 97 3b 1c bd fd e9 7e bc 1e 4e 96 3c 12 c8 8a 3d
       -0.038142767 -0.015558717 0.018347796 0.06776442
0000f0 58 44 37 bd 8a b4 7b 3d 7f ea 17 3b 9b d9 0f 3d
       -0.044742912 0.061451472 0.0023180542 0.035119634
000100 01 57 43 3d 50 fb 17 bc a8 ad af bc 24 08 77 bd
       0.047690395 -0.009276226 -0.02144511 -0.060310498
000110 8b 88 5b 3d 53 39 81 3d 5b 2a a6 3c a1 a7 80 bc
       0.053597014 0.06309762 0.020283869 -0.015704932
000120 63 2d 87 3d 97 2a 04 3b 09 f0 1e ba 17 56 28 3d
       0.06600454 0.0020166987 -0.00060629897 0.041097727
000130 e4 45 40 bd 0f 94 65 3d e2 c3 80 3c 14 f4 0b bc
       -0.046941653 0.056049403 0.015718404 -0.0085420795
000140 04 31 4d bd 02 95 11 3c 5a 48 dc 3c 63 db 64 3d
       -0.050095573 0.008885624 0.026889969 0.055873286
000150 01 66 f2 bc ae a1 85 3d df d8 44 bd 01 5f bf 3a
       -0.029589655 0.065249786 -0.048058387 0.0014600457
000160 95 fb ea 3c 95 28 ed bc 42 cc 85 3c 96 3e 1f bd
       0.028684417 -0.028950015 0.01633275 -0.038878046
000170 80 7c b1 bc 7e c7 90 3c 5a dd 5e 3d 35 5c 29 3d
       -0.021665812 0.01767325 0.054410316 0.0413477
000180 2e 30 99 bc 6b 52 67 3c 66 ea 8e 3d 79 39 9a bc
       -0.018699732 0.014118771 0.06978302 -0.018826233
000190 45 fd fa 3c 94 d7 16 bd f2 79 11 bd d1 eb 1f bc
       0.030638346 -0.036826685 -0.035516687 -0.009760813
0001a0 55 c5 b8 bb b4 d4 82 bd c5 93 8f bd 84 f9 38 bd
       -0.005638758 -0.06388226 -0.07010607 -0.04515983
0001b0 52 bc 9d 3c af d8 47 bd dc 2a 6a bc c6 3c 8b bd
       0.019254837 -0.04879063 -0.014292445 -0.06798701
0001c0 37 3a 56 bd f9 21 b0 bb a9 e4 82 bc 1e 5a d7 bc
       -0.05230161 -0.0053751436 -0.015978174 -0.026288088
0001d0 7e 03 86 bc 25 29 a5 bc 1c 89 84 3d 69 26 05 bc
       -0.016359087 -0.02016122 0.06471464 -0.0081268335
0001e0 3c 5c 19 bd 52 ff 24 3d 42 cd 00 3d 08 66 ed 3c
       -0.037441477 0.040282555 0.03144575 0.028979316
0001f0 5c a8 23 bd 67 4a 9d bc ee af bb bc aa 09 8b 3d
       -0.039955482 -0.019200517 -0.022911038 0.06788953
000200 c1 43 be bc c8 69 07 bd cc 78 1d bc ce 3d 17 3c
       -0.023225667 -0.033059865 -0.00961132 0.009231044
000210 0d b7 39 bd 3e 1f 0e 3d 23 16 6b 3d 11 2d 2c bd
       -0.045340586 0.034697764 0.057394158 -0.042035166
000220 89 c0 38 3d b6 3f 6e bd 84 6f e1 3c ea 57 31 3d
       0.04510549 -0.05816623 0.027518995 0.043296732
000230 bd 16 98 3c cb 8e 1d 3c f3 12 06 3c 8f c3 23 bd
       0.01856553 0.009616564 0.008183229 -0.03998142
000240 c5 73 a3 ba f6 a8 60 bd 94 97 d5 3c 38 5b b5 3c
       -0.0012470415 -0.054848634 0.026073255 0.022138223
000250 5c ed 88 3a ef 5e 4f 3d 10 c2 73 bd cf 70 d8 bc
       0.0010446715 0.050627645 -0.059511244 -0.026420979
000260 9d ad 33 bc 76 19 6c bd 0c 62 59 bd 69 37 c1 3c
       -0.010966686 -0.05764147 -0.05307202 0.023585992
000270 5d 10 58 3c ee 30 40 bd 01 b7 1e 3d 6b 96 f4 3c
       0.013187495 -0.046921663 0.038748745 0.029856881
000280 65 dd 66 3d 32 ac 76 bd 45 9f be 3a e1 98 34 bc
       0.056363482 -0.060222812 0.0014543316 -0.011022777
000290 eb 29 87 3d a2 04 7f 3c 60 42 51 3d 91 e5 7a 3d
       0.06599792 0.015565069 0.05108869 0.061254088
0002a0 f6 18 b2 3c cc e8 89 bd af 73 72 3d 16 56 0c bd
       0.021740418 -0.067338556 0.059192356 -0.034261785
0002b0 8b f3 53 bd bd 8d 90 bd 9a 32 dc 3b 85 c7 80 bd
       -0.051745933 -0.070582844 0.0067198994 -0.06288055
0002c0 e1 19 b6 3c 59 c6 44 3d 23 8c 16 bd 09 11 a6 bb
       0.022229137 0.04804072 -0.03675474 -0.0050679487
0002d0 44 85 dc 3c cc d5 31 bc c0 a9 81 3d f8 75 a5 ba
       0.026919015 -0.010854196 0.06331205 -0.0012623658
0002e0 09 95 51 3d 5b f1 22 3d 05 2c 15 3d f1 de f1 3b
       0.05116752 0.039780956 0.036418933 0.007381313
0002f0 f8 34 19 bd 03 a2 90 3d ac 2a ac 3c b3 ca 8a bb
       -0.03740403 0.07062151 0.021016441 -0.0042355894
000300 1a 7e 81 bd 4d d9 06 3d 33 ac 0f bc b1 f6 81 bd
       -0.0632288 0.032922078 -0.008769083 -0.06345881
000310 21 5d d8 3c 75 7e b4 3c 5f 20 96 3d b1 31 f2 bc
       0.026411595 0.022032956 0.07330393 -0.02956471

chara_net.RNN.bias_hh_l0 f4 [200]
000000 fc fe 80 3d b6 b2 a6 bc cb c6 72 bd cb 2b 9c 3c
       0.062986344 -0.020348888 -0.059271615 0.01906385
000010 ee c9 8a bc 0a 2a 43 bd 95 c7 02 3d 09 77 b5 3c
       -0.01694199 -0.047647513 0.031928618 0.022151487
000020 c4 bf 24 bb b2 40 7d 3d 68 78 0b 3d 99 8d 18 3b
       -0.0025138715 0.061829276 0.034050375 0.0023277758
000030 48 cd 5d 3d b3 7a 9a bc ae ca dd 3b 0e 60 05 bb
       0.05415085 -0.018857336 0.006768546 -0.0020351443
000040 2f ee 81 3d f4 24 68 bd f8 8d 85 bd cb d5 9e 3c
       0.06344258 -0.056675866 -0.06521219 0.019389054
000050 74 71 89 bc fe f5 81 3d 69 ac bc 3c b1 83 4c bc
       -0.016777731 0.063457474 0.02303143 -0.01248257
000060 56 3b 75 bd cf 13 1b bb 3a 9f 55 bd 84 96 00 bd
       -0.05987104 -0.002366293 -0.052153803 -0.031393543
000070 64 a7 83 3d 39 94 cd bc 73 7f 77 3d 69 f2 8b bd
       0.064284116 -0.025095092 0.06042428 -0.068333454
000080 45 fb 2a 3d 0e ce 64 3c bd 0c e2 bc 15 32 06 bd
       0.041743536 0.013965143 -0.027593965 -0.032762606
000090 09 a3 28 bd 52 4f 33 bd ef 75 37 3d ec af 37 bd
       -0.041171107 -0.043776818 0.044790205 -0.044845507
0000a0 b7 03 8c 3d 0f e9 cf bc 57 cb 87 bd 10 ee 45 3d
       0.06836646 -0.025379686 -0.06630581 0.048322737
0000b0 f2 f7 76 3d 4a a8 f2 bc 12 45 82 bb af aa 64 3d
       0.060295053 -0.029621262 -0.003975519 0.05582684
0000c0 e9 eb 37 bd 47 63 83 3a 3c c4 6d 3c b2 8e 38 3d
       -0.044902716 0.0010024094 0.014512118 0.04505796
0000d0 9a e7 74 3d e7 a0 50 3c 29 b4 19 3c 08 76 41 3c
       0.059791185 0.012733675 0.009381332 0.011807926
0000e0 bd 6e 9f bc f2 2a 51 3a 72 71 b1 bc f9 0b 4c 3d
       -0.019461984 0.00079791166 -0.02166054 0.049816106
0000f0 91 a2 8a 3d 10 67 cc bb 78 72 89 bc b1 44 e1 bb
       0.06769288 -0.006237872 -0.016778216 -0.0068746437
000100 25 82 2d 3c 91 50 00 3d 06 0b 86 3d 24 7e 55 bd
       0.010590111 0.031326834 0.06545071 -0.05212225
000110 55 97 8e bd 4a 71 3f 3d 29 3d 4f 3d 4e bf f3 bc
       -0.06962458 0.0467389 0.050595436 -0.029754307
000120 15 f0 87 3d c0 bd 8e bc ce 9b 20 bd 0c 7e 33 3c
       0.06637589 -0.017424464 -0.039211087 0.010955345
000130 6f 87 e8 bc 24 49 6d bd 98 68 87 bd c3 74 aa 3b
       -0.028384892 -0.05793108 -0.066117465 0.0052019074
000140 8c 43 51 3d 4e 77 f1 bc 11 6b 1f 3c 66 e4 6e 3d
       0.05108981 -0.029475834 0.009730116 0.058323286
000150 0c 2d 84 3d 37 69 85 bd 71 56 45 bd 96 95 87 bc
       0.064539045 -0.06514209 -0.04817814 -0.01655082
000160 85 1c 8c 3c 51 b3 8c bb 72 5c 46 bd cd d8 84 3d
       0.017103443 -0.004293837 -0.048428006 0.06486664
000170 3d 42 90 3d bf 69 56 bd 9c d0 1a 3d 24 0f 69 3c
       0.07043884 -0.05234694 0.0377966 0.014224801
000180 ac 7a d1 3b a6 e8 de bb eb 2b 89 3d 06 a7 62 3c
       0.0063927975 -0.006802636 0.0669783 0.013833767
000190 73 56 55 3d 5d 1c 75 bc 2a 75 2f 3d 47 48 5b bd
       0.052084398 -0.014960376 0.042836346 -0.053535726
0001a0 a1 db 24 3b b8 32 88 3d ee c6 14 3d 0f 3f 66 bd
       0.0025155323 0.06650299 0.036322527 -0.05621248
0001b0 45 dd 67 3d d1 a2 c0 bc ff 4f 4f 3d 97 5e 29 bd
       0.056607503 -0.023515137 0.0506134 -0.041349974
0001c0 87 ca 35 bd 6e 02 c7 bc 6d f2 80 3d d4 be 06 3d
       -0.0443826 -0.02429315 0.06296239 0.03289683
0001d0 71 c9 06 bd 58 2a 21 3d 42 7c 07 bd 91 a4 b2 bc
       -0.032906953 0.039347023 -0.033077486 -0.021806987
0001e0 8a a1 07 bd e1 55 7a bc 57 1c bf bc e1 5b 7c bd
       -0.03311304 -0.015279264 -0.023328943 -0.06161106
0001f0 ea 60 36 3d 65 03 4f bd b9 6c 53 3d cb cf 80 bd
       0.04452602 -0.050540347 0.051617358 -0.06289633
000200 fd c8 62 bd 46 ee 93 bc b8 60 b2 3c c0 42 8b 3d
       -0.05536746 -0.018057954 0.021774635 0.06799841
000210 24 1b 57 bb 47 05 a2 bc 08 17 ab bc 51 0c 81 3c
       -0.0032822574 -0.019777907 -0.020885006 0.015752943
000220 69 d4 8e 3d f5 45 51 bd ec d0 89 3b 45 a1 8d 3d
       0.06974108 -0.051092107 0.0042058136 0.06915525
000230 9f 1f 64 bc 39 dd 5c 3c 4d ab 0a 3b 51 43 42 bd
       -0.013923555 0.013480478 0.0021159232 -0.04742748
000240 fd d5 dc ba fa 04 1d bd a9 07 90 3d 51 23 b4 bc
       -0.0016848441 -0.038334824 0.07032711 -0.021989496
000250 c6 53 cb b9 c6 47 f9 bc fa b8 f9 bc 78 4c 28 bc
       -0.00038781593 -0.030429732 -0.030483712 -0.010272138
000260 6a 31 25 3d 3d 98 fd 3c bd 89 09 3d da a9 d4 bc
       0.040330328 0.030956382 0.033578623 -0.025959898
000270 aa 43 df 3c b6 ea 63 bc 99 4b 12 3d ac ae 98 3c
       0.027253944 -0.01391094 0.035716627 0.018637978
000280 29 31 45 bb 00 96 c6 bc c4 20 03 3d 36 b2 18 bb
       -0.0030089116 -0.024241447 0.03201367 -0.0023299581
000290 61 6c 28 3d 2a 15 58 3d db e2 50 3c 96 58 89 bd
       0.041118983 0.05275456 0.012749399 -0.067063496
0002a0 cf d5 90 3d ae 26 bb bc 35 45 18 3b 6a dc 51 3b
       0.07072031 -0.022845592 0.002323461 0.0032022246
0002b0 ed 6e 06 bc 2f 5f a7 bb 18 62 87 bc 50 26 6a 3d
       -0.008205158 -0.0051077823 -0.016526267 0.057165444
0002c0 bf ca 2f bb 89 5e 0a bd cb b7 b6 bc cd a2 2c bd
       -0.0026823727 -0.033781562 -0.022304436 -0.042147446
0002d0 f1 72 33 bd 89 25 89 bc 9f 95 ff 3c cf 39 2d 3c
       -0.04381079 -0.016741531 0.031199275 0.010572865
0002e0 15 e4 05 3d aa 64 ff 3c f8 5b 0b bd 21 46 80 3c
       0.03268822 0.03117593 -0.034023255 0.01565844
0002f0 e3 34 67 bc cb ab 39 bd a2 bd 66 bd 93 bc 2b 3d
       -0.01411173 -0.04532985 -0.05633319 0.041927885
000300 3f 56 8a 3c 99 cb 67 bd 55 94 0d 3d 12 01 2b bc
       0.016886828 -0.05659065 0.03456529 -0.010437267
000310 83 af bf bc bb bc 7f 3c 09 e1 78 bd 13 48 3c bd
       -0.02339912 0.015608962 -0.060761485 -0.045967173

ment_net.fc1.weight f4 [128, 400]
000000 b9 85 76 bb a7 d4 9a 3c bb 35 10 3d b5 a9 dc bc
       -0.0037616326 0.018900229 0.03520749 -0.026936391
000010 a2 61 50 3d 26 a2 37 3d ae ae bd 3b 2f 9e 27 bd
       0.05087436 0.04483237 0.0057886457 -0.04092234
000020 a5 91 63 3a 8a c4 66 bc c0 c3 f0 3c 97 a8 0a 3d
       0.00086810655 -0.0140849445 0.029390216 0.033852186
000030 dc 34 49 3d 2e 5c e8 3b e3 8e bd bc 50 7d 07 3c
       0.049122676 0.007091067 -0.023139423 0.008269623
000040 50 52 8d 3c e4 d7 ac 3c 14 34 fd bb e1 88 21 3d
       0.017251164 0.021099038 -0.0077271555 0.03943718
000050 26 06 24 3d ed 29 39 bd 8b de 4c 3c b7 a2 1f 3d
       0.040044926 -0.045206 0.01250423 0.038973536
000060 26 29 86 3c 8e 0f 27 3c 74 b0 d5 3c af 2d 7a 3c
       0.016377043 0.01019658 0.026085116 0.015269681
000070 c5 e4 6b bc 6c a4 1b 3d c3 6b e1 bc 7c c3 8a bc
       -0.014397805 0.0379986 -0.027517205 -0.016938917
000080 46 71 dc bc e0 f5 06 3d aa f2 47 bd 55 8d 1e bd
       -0.026909482 0.03294933 -0.048815407 -0.038709003
000090 f5 ec 4c 3d 3f cf d4 bc 87 cd 36 3d a9 68 4c 3b
       0.050030667 -0.025977729 0.0446296 0.0031190312
0000a0 7d 09 63 bc fa 6b 50 3d 7f a8 18 bc 7f 9e a0 3c
       -0.013857243 0.050884224 -0.009317516 0.019606827
0000b0 7e f2 ec bc b2 74 2d bd 96 e6 05 bd 8b cd 48 bd
       -0.028924223 -0.042347617 -0.032690607 -0.049024146
0000c0 af da fd bc 5c f9 38 3d 01 15 19 3d 19 ef 70 bc
       -0.030988066 0.045159683 0.037373547 -0.014705443
0000d0 9e e1 31 bd d3 75 12 3d 87 6d 94 3c 18 77 bf bb
       -0.043428056 0.035756897 0.018118633 -0.0058430545
0000e0 b3 72 d7 bc 07 b3 fa bc 34 0f 3e 3c 4d 30 1a 3d
       -0.02629981 -0.030602945 0.011600304 0.03764372
0000f0 7d ed c3 bc cc 5e cf bc b6 8e 26 bd 42 6d 21 3d
       -0.023916954 -0.025313757 -0.040663444 0.039410837
000100 05 0f 00 3c dc d6 08 bd 2c 46 b9 b9 d4 d2 2f 3d
       0.007816081 -0.03340803 -0.00035338232 0.04292567
000110 38 3c 02 bd 8a 41 af bb d3 8f 96 3c 2b 48 35 3d
       -0.03179571 -0.005348389 0.018379128 0.044258278
000120 0f 43 16 3c c3 ab d4 3c 38 e5 25 bd d5 82 1d bd
       0.009171261 0.025960809 -0.040501803 -0.03845485
000130 d4 07 1a 3d 06 bc 46 bd a9 cf 99 3c d1 8d f6 bc
       0.03760512 -0.048519157 0.018775778 -0.03009692
000140 5c 18 f2 3b 50 34 1f 3d 60 e8 3b 3d 3a 1f f3 3c
       0.007388158 0.03886825 0.045875907 0.029677976
000150 09 60 61 3c 89 30 f7 bc d7 e4 dd 3c 6e d3 4f 3a
       0.013755807 -0.03017451 0.027086658 0.0007927929
000160 bb 53 32 3d 40 e7 d6 3c 85 f7 2b bd c9 06 27 3d
       0.043536883 0.026233315 -0.0419841 0.040777955
000170 4e 83 25 3d cf 8c fe 3c fa 1a 47 3c e9 17 38 bd
       0.040408425 0.031073002 0.012152428 -0.044944678
000180 ac 42 2c bc b4 b9 91 3b 44 17 9b bc f7 1a 3e bd
       -0.010513943 0.0044471864 -0.018931992 -0.046412434
000190 2b 4c 79 3c 3d 48 57 3d a8 0e 4f bc 16 78 9b bb
       0.015215914 0.052559126 -0.012637772 -0.00474454
0001a0 96 5b ce bc 08 7a 48 3d 56 87 13 3d 51 72 50 3d
       -0.025190156 0.048944503 0.03601774 0.05089027
0001b0 93 4e 4c bc 24 31 bf bc 37 b1 38 3d fd 30 4f bb
       -0.012469905 -0.023338862 0.04509088 -0.0031614893
0001c0 05 93 f4 bc 46 c9 b3 bc c7 75 7f bc ad da 0b 3d
       -0.02985526 -0.02194656 -0.015592045 0.034144092
0001d0 1b 9e 24 bc f9 15 55 3d 50 0e 81 3c 33 69 1f bd
       -0.010047461 0.052022908 0.015753895 -0.038918685
0001e0 94 0a b4 3b e6 41 4e 3d f7 28 ca 3c 1c 39 a9 bc
       0.005494425 0.050355814 0.024677737 -0.020657115
0001f0 2f 5e 1e 3d b8 3a 2c 3c 86 1d cd bc 29 0a 12 bd
       0.03866404 0.0105120465 -0.025038492 -0.03565422
000200 16 fb 03 bd 36 45 24 3c fe 92 2a bd 0e 24 3d 3d
       -0.032221876 0.010026267 -0.04164409 0.046176963
000210 6a 3b 0b bd cd 68 32 3b 75 e5 3a bd 7d 1c 57 bb
       -0.03399221 0.002722311 -0.045628984 -0.0032823377
000220 4f 5d 38 3d 98 6b 6b 3c 38 2d b7 3c 79 b4 12 bd
       0.04501086 0.014368914 0.02236043 -0.035816643
000230 c8 fc ee 3c 6e e8 21 3d ac 63 85 bc c5 84 32 3d
       0.02917327 0.039528303 -0.016282879 0.04358365
000240 a0 26 51 bd 13 46 f0 3c 88 99 a9 bc 15 78 0f 3d
       -0.051062226 0.029330289 -0.020703092 0.03502663
000250 71 b3 2e bd db da e6 3b 8e 33 7f bc f5 03 46 bc
       -0.042651597 0.0070451326 -0.015576256 -0.012085904
000260 1a f0 03 3d b6 f7 c0 3c 70 5b 1d 3d 28 89 19 3d
       0.0322114 0.023555618 0.03841728 0.037484318
000270 6b f2 27 bd 74 da 01 3d 43 4c 2a bc e0 93 50 3a
       -0.041002672 0.031702474 -0.010394159 0.00079566054
000280 82 5c 78 3c 10 67 b0 bc a8 b3 36 bd 53 d4 00 3d
       0.015158774 -0.021533519 -0.044604927 0.03145249
000290 8f dd 4a bd 0a 26 99 bb e2 b5 e0 bb ca 07 fd ba
       -0.0495277 -0.004673724 -0.0068576196 -0.001930469
0002a0 42 be ae bc fd 4d 21 3d 27 db 95 bc 3b 70 2a bd
       -0.021330956 0.039381016 -0.018292977 -0.041610938
0002b0 0f b4 91 bc 46 11 14 3c 4d 3b e4 3b 5c 3e 3f 3d
       -0.017786054 0.009037321 0.006965077 0.04669033
0002c0 19 33 cc bc 77 6b e4 bc ed 42 34 bd 95 7f 5d bd
       -0.024926709 -0.027883274 -0.044009138 -0.05407675
0002d0 fb 2d c2 3c ab 1a ee bb 77 b0 0c bc e3 1e ec 3c
       0.023703566 -0.0072663627 -0.008586994 0.028823322
0002e0 26 ab 4b bd 17 75 05 bd 51 23 61 bb de 98 e6 bb
       -0.049723767 -0.03258237 -0.0034353326 -0.007037266
0002f0 44 04 00 bd 0e 18 18 3d ce 93 a2 bc 33 c0 30 bd
       -0.031254068 0.037132315 -0.01984587 -0.043152045
000300 2b 96 3b 3d d5 f1 ea bb 67 8d 17 bd b4 6e 01 3a
       0.04579751 -0.007169942 -0.037000086 0.00049374555
000310 ad 3d 6b bc eb 15 3f bd cc 88 29 3d 48 c7 d6 bc
       -0.014357966 -0.046651762 0.041390225 -0.026218072
000320 2c bd 37 bd 1f 5d 47 bc 78 5f 31 3a 95 c6 7d bc
       -0.044858143 -0.012168198 0.000676624 -0.01548924
000330 8c 8b 0e 3d 45 59 79 3c a2 b8 00 3c 44 69 c3 bc
       0.03480105 0.015219037 0.00785652 -0.023853905
000340 a4 7a d9 bc 5c 62 55 3c c3 c2 e4 3c 85 fb 0c 3d
       -0.026547737 0.013023939 0.0279249 0.034419555
000350 02 6a 3e bc c5 90 8c 3c 74 d9 c6 3c 3f 90 46 3d
       -0.011621954 0.017158875 0.024273612 0.048477408
000360 94 c5 51 3c 2e 73 35 bd b4 a4 f0 bb bd f9 90 bc
       0.012803454 -0.044299297 -0.007343853 -0.01769721
000370 17 7b 8b 3c 9f 92 5f bc 92 ae 32 3d a4 05 13 bc
       0.017026467 -0.013645797 0.043623514 -0.008973513
000380 95 16 69 bc 11 fb de 3b 37 43 72 bc 29 51 0f 3d
       -0.014226575 0.006804832 -0.014786533 0.03498951
000390 b4 e9 4e 3d c9 dd 35 bc 9f 81 15 bd 44 7f c3 bc
       0.050515845 -0.011100241 -0.03650057 -0.023864396
0003a0 bc f7 3f 3d 7d 09 20 bc b3 0f 08 3c ef dd de bc
       0.046867117 -0.009767887 0.008304524 -0.027205436
0003b0 a1 24 02 bd f4 3e af 3c b8 89 e5 bb a3 85 d7 3c
       -0.031773213 0.021392323 -0.0070049427 0.02630884
0003c0 f4 de f0 3c 7b dc 66 bb 9f 94 22 3d be 5a 1f bb
       0.029403187 -0.0035226631 0.039692517 -0.0024315561
0003d0 f1 4f b6 bb a5 74 4e bd 36 01 2b bd 3f a0 24 bd
       -0.005563729 -0.05040421 -0.0417492 -0.040191885
0003e0 7a bb 9b 3c 6a 58 ed 3b 38 38 44 bd fc f9 56 3d
       0.019010294 0.007243206 -0.047905177 0.052484497
0003f0 08 b4 0b bd 04 e2 54 bc 1d f8 f4 3c d6 b5 94 bb
       -0.034107238 -0.012993339 0.029903466 -0.004538278

ment_net.fc1.bias f4 [128]
000000 c3 02 5f 3c 4d 45 83 bc 31 a5 24 bd bc 22 7f bc
       0.013611498 -0.016024256 -0.0401966 -0.015572246
000010 d0 8e 75 3c 2d e5 9b bc be 28 25 bd a5 60 b2 3c
       0.014987662 -0.019030178 -0.040322058 0.0217746
000020 0c 9d cf bc 49 9d e8 bc 27 2f f8 3c 7d ef 38 3d
       -0.02534344 -0.028395312 0.030295921 0.04515027
000030 c7 07 56 3b 66 3c 2c bc 87 33 ea ba f8 dd 87 3c
       0.0032658444 -0.010512447 -0.001786814 0.016585335
000040 5c 82 e3 bc f0 03 14 bd af 70 c7 bc 33 11 30 3d
       -0.027772121 -0.036136568 -0.024345724 0.042985152
000050 d8 9b 72 3c 81 03 38 3b 52 ed 13 3d 24 84 51 bc
       0.014807664 0.002807826 0.036115 -0.012787852
000060 c6 81 e8 3c f0 fb 41 bd 5c 8a 42 bd f6 42 00 3d
       0.028382193 -0.047359407 -0.04749523 0.03131386
000070 45 ff 2f 3d c9 40 08 3d 1b f9 cd 3c 84 4f 91 bb
       0.042968053 0.03326491 0.025143197 -0.004434528
000080 8a e6 11 3d 39 4d 3c 3d a6 8a 2e bd 18 98 cf bc
       0.03562025 0.045972083 -0.042612694 -0.025341079
000090 43 0c 9c 3c 12 01 28 3c 36 f2 fc 3b c4 b7 ae bb
       0.019048816 0.010254161 0.0077193035 -0.005331965
0000a0 9d 04 34 bc cc b2 25 bc e4 69 9b 3c 1d 16 c2 3c
       -0.010987428 -0.010113429 0.018971391 0.023692185
0000b0 d4 b8 ce 3c 92 6d ae 3b 1e 59 ca 3c 1a 3e 79 bc
       0.025234617 0.0053231204 0.024700698 -0.01521256
0000c0 b7 d8 47 bc bd a3 e8 3c 4d b3 d4 3c 3e 44 c4 bb
       -0.012197665 0.028398389 0.025964404 -0.0059895804
0000d0 bb 34 05 3d a8 8e 43 3d 9d 45 81 bb 94 bf 5f 3b
       0.03252099 0.04774347 -0.003945066 0.003414129
0000e0 90 dc 37 bd fa ed 34 bd 41 46 54 3c 02 8c b2 3c
       -0.04488808 -0.044172265 0.012956203 0.021795277
0000f0 31 1c d7 3c ef 5e 43 bd ce c2 d7 bc 4f c5 27 bd
       0.02625856 -0.047697958 -0.026338007 -0.040959653
000100 43 e8 23 3c e7 02 35 bc 94 d8 9d bc 5b 84 ab bc
       0.010004106 -0.011048055 -0.019268312 -0.020937135
000110 8f 89 29 bd a4 7f 1c bd 04 b7 21 bd a2 3d 26 bd
       -0.04139095 -0.038207665 -0.039481178 -0.04058612
000120 89 45 2f bd c7 6c 69 3c 40 c1 d9 ba 79 52 1f bd
       -0.042790923 0.014247126 -0.0016613379 -0.03889701
000130 d2 47 b5 bb 13 37 dd bc ef 35 3c bd eb 48 3f 3d
       -0.0055322433 -0.0270038 -0.045949873 0.0467004
000140 c3 b2 24 bd 9a 11 ff 3c 60 83 89 3c 16 a9 c0 3c
       -0.040209543 0.031136323 0.016786277 0.023518126
000150 78 92 71 bb 3f 4b 09 3d 95 91 0f 3d 31 82 29 bd
       -0.0036860984 0.033519026 0.035050947 -0.041383926
000160 bb 43 56 3c e3 6c 2e bc 4b 12 78 bc 2f 0d 05 bd
       0.013077672 -0.010646078 -0.01514108 -0.032483276
000170 09 8f 38 3d 3e c2 ac 39 b0 21 13 3d 6c c2 6b 3b
       0.045058284 0.00032951118 0.0359208 0.0035974039
000180 c4 df 0b 3d 7a d0 b3 bc da 1f 4b bc 1c 9c fb 3c
       0.034148946 -0.021949995 -0.012397731 0.030714087
000190 66 c1 21 3c 65 67 01 bd 49 ba 03 3d 05 29 87 3c
       0.00987277 -0.031592745 0.032160077 0.016499052
0001a0 87 76 22 bd a2 4d 05 bd 3f 59 01 3c d9 19 79 bc
       -0.039663818 -0.03254474 0.007894813 -0.0152039165
0001b0 ed a6 3a 3d e1 b9 39 bd f8 48 a3 bc c6 8e 87 3c
       0.04556935 -0.045343284 -0.019932255 0.016547572
0001c0 b9 a6 6f bb e8 9c 09 bc ed a5 91 3c 97 07 21 bd
       -0.003656788 -0.008399226 0.017779315 -0.03931388
0001d0 97 0a 85 3c fd c8 00 bd d8 a4 15 bc 1b 26 4d bc
       0.016240401 -0.031441677 -0.00913354 -0.012521292
0001e0 3b 93 69 3c 54 17 c5 3c a1 be 0a bc 20 7c f0 ba
       0.014256294 0.024058975 -0.008468301 -0.0018347539
0001f0 3b 66 b3 3b 0c 80 7e bc 5a b3 42 bb e2 fe 81 bb
       0.0054748333 -0.015533458 -0.0029708953 -0.003967152
