models/SortingHat_6.pt (torch, 539326 bytes, 9 tensors)

statembed_net.fc1.weight f4 [1, 768]
0.018052103 -0.016740827 0.012891301 -0.021950563 -0.02866854 0.0028943866 0.045721933 -0.0041954312
-0.022171391 -0.023835655 0.005027597 -0.040333252 0.0313033 -0.012164925 -0.015890582 0.0032642602
0.025108283 -0.0096156085 0.008657605 0.019389125 -0.010195449 -0.011050339 -0.0067846077 0.042900015
0.022069013 0.016300369 -0.009500308 0.042267326 -0.042075563 -0.040586203 0.032232065 0.00412851
0.03208363 0.012545954 0.018590817 0.04681568 0.026092036 -0.025886545 -0.029342458 0.0017373393
-0.028160207 0.0011569046 -0.017001659 -0.03901568 0.0040114713 -0.049377274 0.019082911 -0.045483664
-0.045745138 0.023698993 -0.01759926 -0.008354606 0.005179009 -0.008296992 -0.03899725 0.0413324
-0.039829273 -0.03208442 -0.032795493 0.027160112 0.011654375 -0.0050288187 0.015850862 -0.015979307
-0.0025588996 -0.0065236706 0.039574027 -0.0071042115 -0.0034940394 0.012466815 -0.033508327 0.0024020304
-0.007529807 -0.0060172183 -0.022938298 0.032340858 0.013953774 -0.021877864 0.030210156 0.026466861
-0.042714145 -0.028491039 -0.00885997 -0.035034053 0.036729768 0.0017772397 -0.0124058025 -0.007029481
-0.024105847 0.0076176524 -0.028550757 -0.02718399 -0.011916681 0.010779739 0.01617593 -0.026940253
-0.023131968 0.004337145 -0.018690411 0.015049361 -0.025232438 -0.015183557 -0.044946656 -0.020327358
0.025005206 0.018200248 -0.01673449 0.035834618 -0.012090795 0.037669186 -0.036101483 0.008022393
-0.004440278 -0.0054791085 0.011682251 -0.035575192 0.029909408 0.020549286 0.014458118 -0.0026505997
0.013492947 -0.036396943 -0.033376765 0.0237738 -0.014966811 0.009832458 0.020486131 -0.0045856466
-0.025729658 0.010765052 0.024639651 0.03971163 -0.01394143 0.027916268 0.01312905 -0.01620276
-0.022890428 -0.008825216 0.02956322 -0.01983428 -0.02968985 -0.0017254428 -0.0018502276 -0.010098702
0.0017421033 -0.0056161387 -0.0066956445 0.03008871 -0.041062094 -0.032836642 -0.014700686 0.0042225407
-0.013539543 0.018721474 -0.013831685 0.015546739 0.0146373315 -0.028009152 -0.020107284 0.011742466
0.0023119524 -0.023458159 0.008791647 -0.030084355 0.03584854 -0.0037678592 0.023454735 0.044237524
0.0027544855 0.016944434 0.010618925 -0.038431205 0.02100094 0.009629732 0.006376986 0.012143075
-0.03264277 0.039168093 -0.001315345 -0.02831663 -0.023425914 -0.018202089 -0.037677094 -0.031689294
0.03498676 -0.026823519 -0.0016282098 -0.0020700633 0.02919179 0.0085943695 -0.010011782 0.009157855
-0.0138888825 -0.012538253 -0.010619354 -0.011008073 0.012863365 -0.026361985 -0.00571406 0.022854758
-0.0153577225 -0.022548277 -0.019176032 -0.009097377 0.024446255 0.033365384 0.033516925 -0.011759115
-0.02382801 0.037227735 -0.044871658 0.037759293 -0.013202318 0.0032910246 -0.022813963 0.010871759
-0.029352836 -0.03152491 0.03359179 0.019279348 0.03005947 -0.033858307 -0.03321081 -0.014995969
-0.027993318 -0.004820244 -0.0068926644 0.0004570655 -0.03379739 -0.009308104 0.0063683093 -0.002932321
0.0071767033 0.008145205 -0.015243344 0.016291793 -0.044470236 -0.0062994543 -0.034822784 0.02313111
-0.039565124 0.006058985 -0.008858969 -0.0097362725 0.039196998 0.0022748508 -0.029858619 -0.009112128
0.027993891 -0.0050839414 -0.035892572 0.020846842 0.037789114 -0.0066425246 0.03789686 -0.03448076
00000000: 01e2 933c 0f24 89bc 0936 533c abd1 b3bc
00000010: 49da eabc c0af 3d3b ec46 3b3d d479 89bb
00000020: c7a0 b5bc fe42 c3bc 8abe a43b 7b34 25bd
00000030: e437 003d 654f 47bc f72c 82bc 33ed 553b
00000040: e3af cd3c c98a 1dbc a1d8 0d3c f1d5 9e3c
00000050: d00a 27bc 7b0c 35bc 6a51 debb edb7 2f3d
00000060: 13ca b43c 5a88 853c 2ea7 1bbc 8120 2d3d
00000070: 6d57 2cbd b83d 26bd c505 043d 7448 873b
00000080: 206a 033d 8c8d 4d3c c54b 983c ccc1 3f3d
00000090: f7be d53c 0510 d4bc 985f f0bc 6fb7 e33a
000000a0: 3cb0 e6bc 47a3 973a 1047 8bbc e8ce 1fbd
000000b0: a972 833b d33f 4abd c453 9c3c 144d 3abd
000000c0: 415f 3bbd 6424 c23c 532c 90bc c2e1 08bc
000000d0: adb4 a93b 1bf0 07bc 95bb 1fbd 2a4c 293d
000000e0: 0524 23bd f46a 03bd 9154 06bd e27e de3c
000000f0: fef1 3e3c cac8 a4bb abd9 813c 09e7 82bc
00000100: 36b3 27bb 84c4 d5bb 6018 223d 72ca e8bb
00000110: 41fc 64bb 9d41 4c3c 0740 09bd 626b 1d3b
00000120: 99bc f6bb 162c c5bb 19e9 bbbc d977 043d
00000130: 5f9e 643c 3539 b3bc 4a7b f73c 08d1 d83c
00000140: 07f5 2ebd 0a66 e9bc 6829 11bc de7f 0fbd
00000150: f471 163d 45f2 e83a b541 4bbc 9057 e6bb
00000160: a079 c5bc 809d f93b 47e3 e9bc f6b0 debc
00000170: 2f3e 43bc 819d 303c 6283 843c ceb1 dcbc
00000180: 417f bdbc 9c1e 8e3b a21c 99bc 9891 763c
00000190: 42b4 cebc 74c4 78bc fc19 38bd 8f85 a6bc
000001a0: b8d7 cc3c b018 953c c516 89bc 52c7 123d
000001b0: 7818 46bc 014b 1a3d 26df 13bd 5b70 033c
000001c0: c07f 91bb 188a b3bb e966 3f3c 4bb7 11bd
000001d0: 9304 f53c fa56 a83c bee1 6c3c afb5 2dbb
000001e0: 8611 5d3c f614 15bd 13b6 08bd 46c1 c23c
000001f0: 5b37 75bc 5118 213c 88d2 a73c 3143 96bb
00000200: 01c7 d2bc e75f 303c 18d9 c93c aaa8 223d
00000210: 986a 64bc a8b0 e43c 3a1b 573c a7bb 84bc
00000220: b584 bbbc a497 10bc 912e f23c 807b a2bc
00000230: 2138 f3bc 4128 e2ba 5683 f2ba 0775 25bc
00000240: 4957 e43a 9607 b8bb 2367 dbbb 997c f63c
00000250: ba30 28bd b77f 06bd 25db 70bc 3d5d 8a3b
00000260: f6d4 5dbc c75d 993c 4b9e 62bc c0b7 7e3c
00000270: 6bd1 6f3c 7373 e5bc 08b8 a4bc 7963 403c
00000280: 2084 173b 532b c0bc d70a 103c 7773 f6bc
00000290: ebd5 123d 30ee 76bb 2524 c03c 6832 353d
000002a0: 9984 343b 0ecf 8a3c 00fb 2d3c 0a6a 1dbd
000002b0: 2a0a ac3c 06c6 1d3c 09f6 d03b bff3 463c
000002c0: 6db4 05bd b96e 203d a867 acba 47f8 e7bc
000002d0: b4e7 bfbc 8c1c 95bc 4c53 1abd a2cc 01bd
000002e0: 474e 0f3d ffbc dbbc a869 d5ba e6a9 07bb
000002f0: 9f23 ef3c 66cf 0c3c 7508 24bc d40a 163c
00000300: 328e 63bc 3f6d 4dbc cdfc 2dbc 345b 34bc
00000310: ddc0 523c 17f5 d7bc 023d bbbb e739 bb3c
00000320: f59e 7bbc 2ab7 b8bc 0e17 9dbc 2a0d 15bc
00000330: 8343 c83c 24aa 083d 0b49 093d 4ea9 40bc
00000340: f532 c3bc 1c7c 183d 58cb 37bd 7da9 1a3d
00000350: 894e 58bc 3bae 573b 59e4 babc 761f 323c
00000360: 5c75 f0bc 4420 01bd 8b97 093d b9ef 9d3c
00000370: 473f f63c 02af 0abd 0f08 08bd a7b1 75bc
00000380: 3e52 e5bc 23f3 9dbb dcdb e1bb 4ba2 ef39
00000390: 226f 0abd 0581 18bc 40ad d03b 2f2c 40bb
000003a0: 8d2a eb3b 7773 053c 38bf 79bc 5e76 853c
000003b0: 6c26 36bd a76b cebb 56a2 0ebd 747d bd3c
000003c0: 0a0f 22bd 738a c63b 3625 11bc e384 1fbc
000003d0: 088d 203d aa15 153b 109a f4bc 094b 15bc
000003e0: 7253 e53c 3197 a6bb 1704 13bd ffc6 aa3c
000003f0: c2c8 1a3d 89a9 d9bb bd39 1b3d b33b 0dbd

chara_net.RNN.weight_ih_l0 f4 [200, 203]
-0.053771663 0.007912637 0.019002115 -0.008691193 -0.033526972 0.020863404 0.03571583 -0.024252571
0.030466644 -0.06561647 -0.059340913 -0.020323267 -0.03151935 -0.04126586 0.06259419 -0.041908205
-0.041003387 -0.066618085 -0.046910033 0.032967098 0.031295083 0.054109734 -0.010162901 -0.00095533486
-0.035599995 0.0030847641 0.011759929 -0.03832917 0.030427748 -0.007535538 0.062072974 0.025638208
0.046236124 -0.040724874 0.06037687 -0.033534154 -0.06888791 -0.038845908 -0.030517247 0.037665803
-0.044668417 0.05164159 -0.07690705 -0.06378483 -0.05163696 -0.07357799 -0.019661434 0.0091929315
-0.00983687 0.031228336 -0.047207996 -0.03896504 -0.06604492 -0.039895587 0.012127664 0.03866992
-0.019894565 0.013683064 0.023931706 0.030536722 0.055372972 0.0027248464 -0.056860328 -0.053211838
-0.045442343 0.008981948 -0.061874654 0.044706956 -0.010179466 -0.06289012 0.02393678 -0.06519958
-0.008741962 -0.036939185 -0.008401101 -0.012349565 0.04006902 0.05537403 0.058870915 -0.05804748
0.03397311 0.04169645 -0.07483932 -0.06778552 0.0116219865 -0.02254814 0.04761568 -0.0005158238
0.017039059 0.037364352 0.0026134225 -0.026552737 -0.030582692 -0.0007502984 -0.024155797 -0.042037643
-0.014206817 -0.017397588 -0.02365176 -0.057564504 -0.0048897504 0.03981215 -0.059707925 0.061734352
-0.00082843227 -0.023112448 -0.025309026 -0.04383451 0.032777496 8.4623534e-05 0.05531042 0.026747853
-0.071520425 -0.063569926 -0.020894766 0.008025234 -0.07420217 -0.030752005 0.03505197 -0.05057156
0.06522494 0.011703855 0.004184325 -0.0494867 0.026133565 0.05323641 0.046016145 -0.03814262
-0.060799852 -0.0289695 -0.06024281 -0.048487928 -0.058560196 -0.0007265417 0.012074001 0.013298591
-0.028582823 0.015053228 0.056887336 0.04156508 -0.060742572 0.030405851 0.02206691 0.0070125638
0.04281847 -0.03024016 0.031402115 0.027238723 -0.02675781 0.045868617 0.066109255 -0.015206907
0.04080946 -0.0727467 -0.06045368 0.049449272 0.0150561845 -0.00095510983 -0.04755851 -0.0565242
-0.027521346 -0.021145402 0.026251804 0.0119093 0.020448448 -0.04210648 -0.057326917 -0.04590828
-0.06748697 -0.057538535 0.0075920075 -0.022411363 -0.0104122255 -0.005759504 -0.02988477 -0.05065083
0.056367822 -0.02096444 -0.042445004 0.06797951 0.0039904085 0.053737238 0.009005678 0.052633416
0.039628122 -0.026812619 -0.028466737 0.05535593 -0.012127519 -0.064647354 -0.04370584 -0.0065086475
0.045587506 0.052857548 -0.020870615 0.06033387 0.01217412 -0.0017048315 0.0011011573 -0.05554501
0.04552829 0.031076608 0.0567882 0.0071984436 -0.020228498 -0.047287673 -0.060287256 -0.0155198295
-0.061495125 0.035905384 -0.07044085 0.06391552 0.0058871754 0.061366607 -0.050369337 0.051342353
0.0020330092 -0.014688686 -0.03995386 -0.05751193 0.035938486 -0.060780723 0.05660227 -0.04835834
0.04859746 -0.060541518 0.067434885 -0.06495518 0.006052589 0.064043514 -4.1235147e-05 0.061710097
-0.03224596 0.04416541 -0.006020134 -0.023579145 -0.02793337 0.027618226 -0.049863648 0.0019087086
-0.016831651 -0.011264386 -0.016124796 0.022163343 -0.029976822 0.061039027 0.012224643 0.0282733
0.051871654 -0.046526764 -0.024361232 -0.044382792 -0.00031573907 0.067336865 -0.021764923 0.026211005
00000000: ad3f 5cbd 01a4 013c 53aa 9b3c 8165 0ebc
00000010: 9453 09bd bbe9 aa3c c34a 123d 54ad c6bc
00000020: 2f95 f93c ee61 86bd 750f 73bd fb7c a6bc
00000030: 6f1a 01bd 6406 29bd 6231 803d f0a7 2bbd
00000040: 2bf3 27bd 106f 88bd bc24 40bd 8208 073d
00000050: 462f 003d 2ba2 5d3d 4c82 26bc 706f 7aba
00000060: 4dd1 11bd c129 4a3b b8ac 403c 0cff 1cbd
00000070: 9d43 f93c adec f6bb 3b40 7e3d 3807 d23c
00000080: 1762 3d3d 20cf 26bd bd4d 773d 1c5b 09bd
00000090: 1b15 8dbd e31c 1fbd 4eff f9bc 7547 1a3d
000000a0: 3bf6 36bd 2286 533d 7281 9dbd 9fa1 82bd
000000b0: 4781 53bd 0fb0 96bd 0411 a1bc f39d 163c
000000c0: d32a 21bc 91d2 ff3c 2c5d 41bd ce99 1fbd
000000d0: 8f42 87bd 8e69 23bd 1cb3 463c 5a64 1e3d
000000e0: edf9 a2bc ee2e 603c 6d0c c43c 2628 fa3c
000000f0: c5ce 623d 5693 323b 60e6 68bd a8f4 59bd
00000100: c021 3abd 0529 133c 4770 7dbd a41e 373d
00000110: c6c7 26bc 89cc 80bd 1117 c43c 5b87 85bd
00000120: 723a 0fbc 8b4d 17bd c6a4 09bc d455 4abc
00000130: 6a1f 243d e1cf 623d a122 713d 32c3 6dbd
00000140: 6327 0b3d e6c9 2a3d 5b45 99bd 22d3 8abd
00000150: 256a 3e3c e0b6 b8bc a908 433d 5938 07ba
00000160: 7f95 8b3c 5d0b 193d f445 2b3b 2085 d9bc
00000170: 8e88 fabc acaf 44ba 61e2 c5bc aa2f 2cbd
00000180: b6c3 68bc 6385 8ebc 56c1 c1bc c2c8 6bbd
00000190: 333a a0bb 1112 233d 4c90 74bd 29dd 7c3d
000001a0: 262b 59ba 5156 bdbc e054 cfbc d18b 33bd
000001b0: b241 063d ea77 b138 2e8d 623d 501e db3c
000001c0: 4d79 92bd f330 82bd 802b abbc 457c 033c
000001d0: 4ff7 97bd a1eb fbbc a892 0f3d 2024 4fbd
000001e0: a794 853d 87c1 3f3c aa1c 893b 91b2 4abd
000001f0: 0f16 d63c 6c0e 5a3d 6d7b 3c3d 703b 1cbd
00000200: 4409 79bd 7251 edbc 2ac1 76bd 479b 46bd
00000210: d1dc 6fbd 6375 3eba 08d2 453c 55e2 593c
00000220: 8626 eabc d0a1 763c b202 693d 2540 2a3d
00000230: 34cd 78bd b115 f93c aac5 b43c a6c9 e53b
00000240: 6c62 2f3d 36ba f7bc 819f 003d be23 df3c
00000250: 3233 dbbc bbe0 3b3d 4a64 873d 6426 79bc
00000260: d227 273d 39fc 94bd 479e 77bd 528b 4a3d
00000270: 37ae 763c 5660 7aba b6cc 42bd eb85 67bd
00000280: 7274 e1bc 1f39 adbc 060e d73c 3a1f 433c
00000290: 8183 a73c d877 2cbd a1cf 6abd 520a 3cbd
000002a0: 9c36 8abd 87ad 6bbd 60c6 f83b 0998 b7bc
000002b0: 0a98 2abc 39ba bcbb e8d0 f4bc 3f77 4fbd
000002c0: f2e1 663d 9ebd abbc d0da 2dbd d738 8b3d
000002d0: f9c1 823b 941b 5c3d 8d8c 133c 2396 573d
000002e0: 1951 223d 23a6 dbbc 1333 e9bc e6bc 623d
000002f0: 80b2 46bc d565 84bd e504 33bd 7e46 d5bb
00000300: f7b9 3a3d 2881 583d daf8 aabc a620 773d
00000310: f675 473c a774 dfba b554 903a 2a83 63bd
00000320: df7b 3a3d 5f94 fe3c be9a 683d ece0 eb3b
00000330: 3cb6 a5bc b8b0 41bd c5ef 76bd e246 7ebc
00000340: 50e2 7bbd 8611 133d 4b43 90bd 24e6 823d
00000350: 35e9 c03b 8d5b 7b3d 1450 4ebd 5c4c 523d
00000360: 3c3c 053b d0a8 70bc a9a6 23bd a191 6bbd
00000370: 3c34 133d 35f5 78bd c8d7 673d 6513 46bd
00000380: 210e 473d 62fa 77bd 4d1b 8a3d 3907 85bd
00000390: cc54 c63b 3f29 833d e7f3 2cb8 bac3 7c3d
000003a0: 5714 04bd cae6 343d 8b44 c5bb 0d29 c1bc
000003b0: 86d4 e4bc 9e3f e23c d33d 4cbd a22d fa3a
000003c0: 88e2 89bc 428e 38bc 2618 84bc e68f b53c
000003d0: f491 f5bc 0f04 7a3d de49 483c 689d e73c
000003e0: 5f77 543d d992 3ebd 3591 c7bc bbca 35bd
000003f0: c889 a5b9 e9e7 893d 5a4c b2bc 76b8 d63c

chara_net.RNN.weight_hh_l0 f4 [200, 200]
0.017109243 0.022256637 0.06051075 -0.017895706 0.072708935 0.05097671 -0.06473898 -0.06627741
-0.00012775809 0.07451452 -0.037860826 0.051717315 -0.05227205 0.04085383 -0.07262187 0.014495413
-0.024281077 -0.07121599 0.043693822 0.06568669 0.03773666 0.060859855 0.028890168 0.027121957
0.027656062 -0.018045241 0.024515372 0.0300998 0.03164859 0.06449078 0.046883803 -0.023847582
-0.05932924 -0.048099957 -0.058008254 0.016529335 0.055989183 -0.017078454 0.012828943 0.023181958
0.04433973 -0.035228312 0.06154031 0.066959284 0.02265764 0.03160221 -0.049315065 0.05623846
0.06231657 -0.05856856 -0.024856204 0.014095285 0.06988679 -0.0030783121 0.006807466 -0.030994838
-0.0024080907 0.008609528 0.06897413 0.0061230105 -0.065437585 -0.04867113 -0.014817779 -0.023380248
-0.006378633 0.044379555 -0.034609884 0.012977271 0.0027979764 -0.0021004132 0.035500295 -0.03145557
-0.016969081 0.0011977098 0.052500375 -0.071576916 0.04395711 -0.0064486125 0.021807676 -0.072674274
-0.06710479 -0.011701969 -0.03553089 0.008114507 0.03270457 -0.0430509 0.06020966 -0.04104193
0.040982947 -0.01385139 0.0132289585 0.026750708 -0.062419806 0.0671327 -0.03780267 0.059903413
0.036389817 0.043217026 -0.02255717 -0.012310694 -0.059887376 0.06479525 -0.015011048 -0.06491857
-0.021964706 -0.032184962 0.07267361 -0.031037675 0.0069399136 0.030712474 -0.049893845 0.003441139
0.054527234 -0.052131426 0.044299945 0.005970464 -0.05682583 0.053976886 0.014833217 0.005491254
0.018792123 0.015813366 0.03264996 -0.026807617 0.040969197 0.035582997 -0.0586604 0.038382396
-0.051206253 0.026440872 -0.023021694 -0.01630097 -0.05523189 0.010448372 0.044722486 0.037441798
-0.012471746 0.012646993 -0.00033410566 0.026560541 0.036828898 -0.060276795 -0.0113913445 -0.016810626
0.0022117505 -0.054625586 -0.030285066 -0.013288885 -0.05117402 -0.06527169 -0.026441636 0.058579043
0.019174026 0.03987206 0.017863194 -0.00036762533 0.046918597 0.034614913 0.0039322902 0.05073907
0.018698426 0.012016194 0.027997175 0.047598522 0.0015157884 0.028540228 -0.023267549 -0.046971045
0.038791507 0.017370557 -0.023085866 -0.03422574 -0.011310584 0.016728228 0.056083396 0.024077512
-0.05256034 0.04960742 -0.06121132 0.0011983252 0.0009034477 -0.0355753 -0.022527397 0.024804037
0.011456277 0.002018612 -0.027162882 0.031125372 -0.019798933 -0.05765538 -0.04216862 -0.042673487
0.040992472 -0.03797752 -0.06435015 -0.028810043 0.065296195 0.025844142 -0.041429836 0.0467201
0.04698106 0.03296884 -0.061672166 0.04232578 0.05629299 0.024615277 -0.006994405 0.050973773
-0.02679725 0.07019541 0.0133724585 -0.011032058 0.04507596 0.028729996 0.008078159 -0.040116973
-0.025180617 -0.029524496 0.029631885 0.055897154 -0.032585133 0.009416214 0.02176149 0.07336251
-0.055421896 -0.045178507 -0.049207427 0.04030784 -0.013906811 -0.013144482 -0.012995 0.060739193
-0.00659134 -0.06576818 0.055965394 -0.035404745 0.012257555 0.01375157 0.07323777 -0.03222239
0.055898577 0.046357892 -0.04194742 -0.028577808 0.07042129 0.06089942 -0.020812634 0.049689278
-0.011049841 -0.009054009 -0.025842248 -0.007508999 0.05023381 0.0081632035 0.036748517 0.03858341
00000000: af28 8c3c 8d53 b63c 1fda 773d 049a 92bc
00000010: 6ce8 943d f4cc 503d df95 84bd 73bc 87bd
00000020: cdf6 05b9 129b 983d f413 1bbd 89d5 533d
00000030: 381b 56bd 5856 273d c6ba 94bd 2b7e 6d3c
00000040: 1ce9 c6bc b0d9 91bd 4bf8 323d be86 863d
00000050: c291 1a3d 2f48 793d 13ab ec3c de2e de3c
00000060: f78e e23c 9dd3 93bc 76d4 c83c db93 f63c
00000070: f4a1 013d be13 843d 3b09 403d 015c c3bc
00000080: 3803 73bd 7604 45bd 109a 6dbd 8768 873c
00000090: ea54 653d 1de8 8bbc 7d30 523c 17e8 bd3c
000000a0: 949d 353d 904b 10bd b111 7c3d f321 893d
000000b0: 849c b93c 5271 013d 98fe 49bd 4d5a 663d
000000c0: a93f 7f3d 96e5 6fbd 3d9f cbbc e9ef 663c
000000d0: ce20 8f3d 82bd 49bb 2a11 df3b e3e8 fdbc
000000e0: 0fd1 1dbb fa0e 0d3c 4f42 8d3d 89a3 c83b
000000f0: 2404 86bd 615b 47bd 45c6 72bc ef87 bfbc
00000100: da03 d1bb 56c7 353d 18c3 0dbd 9f9e 543c
00000110: 415e 373b 16a7 09bb c268 113d 8ed7 00bd
00000120: be02 8bbc 79fc 9c3a a20a 573d eb96 92bd
00000130: 5f0c 343d e24e d3bb 03a6 b23c 40d6 94bd
00000140: 3c6e 89bd 9eb9 3fbc d788 11bd b6f2 043c
00000150: 3af5 053d 2456 30bd 689e 763d 951b 28bd
00000160: bcdd 273d f1f0 62bc 46be 583c 4d24 db3c
00000170: e9ab 7fbd de7c 893d f9d6 1abd 485d 753d
00000180: 7d0d 153d 5604 313d d0c9 b8bc cbb2 49bc
00000190: 774c 75bd 5fb3 843d e6f0 75bc 07f4 84bd
000001a0: 54ef b3bc 61d4 03bd e7d5 943d b942 febc
000001b0: 3768 e33b ba98 fb3c 7d5d 4cbd bb84 613b
000001c0: f357 5f3d c387 55bd dc73 353d e2a3 c33b
000001d0: 34c2 68bd de16 5d3d 0507 733c faef b33b
000001e0: f0f1 993c 088b 813c f7bb 053d a69b dbbc
000001f0: 51cf 273d 7abf 113d e345 70bd dc36 1d3d
00000200: a6bd 51bd 879a d83c fe97 bcbc 9d89 85bc
00000210: d63a 62bd a62f 2b3c ed2e 373d 925c 193d
00000220: 4b56 4cbc 5535 4f3c e72a afb9 7e95 d93c
00000230: e6d9 163d cde4 76bd c3a2 3abc 70b6 89bc
00000240: 04f3 103b 14bf 5fbd 6318 f8bc a0b9 59bc
00000250: d99b 51bd 2aad 85bd 219c d8bc 94f0 6f3d
00000260: d912 9d3c e350 233d d555 923c d6bd c0b9
00000270: b72d 403d 5ec8 0d3d 71da 803b c5d3 4f3d
00000280: 712d 993c 92df 443c 555a e53c abf6 423d
00000290: 6bad c63a 32cd e93c 969b bebc b664 40bd
000002a0: d8e3 1e3d b34c 8e3c 921e bdbc 4a30 0cbd
000002b0: 0750 39bc a309 893c b4b7 653d 343e c53c
000002c0: 8349 57bd 2631 4b3d b9b8 7abd 1f11 9d3a
000002d0: 59d5 6c3a 68b7 11bd 608b b8bc d631 cb3c
000002e0: 1cb3 3b3c b14a 043b b184 debc a3fa fe3c
000002f0: 5f31 a2bc 0c28 6cbd 01b9 2cbd 65ca 2ebd
00000300: b9e7 273d 518e 1bbd 03ca 83bd 0a03 ecbc
00000310: 03ba 853d 18b7 d33c 55b2 29bd 935d 3f3d
00000320: 366f 403d 560a 073d f49b 7cbd cc5d 2d3d
00000330: 7a93 663d faa5 c93c 5231 e5bb e0c9 503d
00000340: e885 dbbc 9cc2 8f3d 2818 5b3c cebf 34bc
00000350: 92a1 383d 2b5b eb3c 415a 043c b251 24bd
00000360: 9547 cebc 5bdd f1bc 91be f23c 6af4 643d
00000370: fd77 05bd 7746 1a3c 2745 b23c 153f 963d
00000380: 1202 63bd 190d 39bd ba8d 49bd d519 253d
00000390: 65d9 63bc f45b 57bc fbe8 54bc a9c9 783d
000003a0: 2bfc d7bb 78b1 86bd f83b 653d 9104 11bd
000003b0: e9d3 483c 444e 613c affd 953d a0fb 03bd
000003c0: e8f5 643d c6e1 3d3d 0fd1 2bbd 021c eabc
000003d0: 0a39 903d ac71 793d 427f aabc fc86 4b3d
000003e0: 640a 35bc 4457 14bc 1fb3 d3bc 0d0e f6bb
000003f0: f8c1 4d3d f5be 053c 9d85 163d a309 1e3d

chara_net.RNN.bias_ih_l0 f4 [200]
-0.044723302 0.06659484 -0.0079367915 0.055646237 0.03494751 -0.017175982 -0.035290286 0.01706029
-0.031674385 -0.029448222 -0.016796146 0.044374708 0.0091263605 -0.054897282 -0.027412556 -0.05382353
-0.01818619 0.06294039 -0.00168729 -0.043587305 0.01125864 -0.06869333 0.048623636 -0.06211179
-0.056137178 0.05488077 0.025393605 -0.056918655 0.057514235 -0.033522874 0.025148032 -0.02399538
-0.06883089 -0.017806526 0.04343768 0.052388463 0.015477162 0.03771281 0.009631936 0.050736297
0.03871081 0.051438168 -0.013988684 0.033836346 -0.010860766 0.052874524 0.00010072574 0.02803203
-0.006318587 0.0071946103 -0.009854413 0.039490674 0.037482463 0.024938148 -0.069237575 0.012507868
0.061885104 0.07476991 0.05361201 0.004813914 -0.01781357 0.044102654 0.02395733 -0.041063827
0.035917986 -0.005243432 0.05843853 0.048628736 0.053737286 -0.0019086497 -0.041741915 0.015992615
-0.03724573 0.06807749 -0.061506264 -0.015424093 0.006374201 -0.061847225 0.049050983 0.060511563
-0.02820343 -0.039458163 0.014310384 2.4736146e-05 -0.02072335 0.00752891 0.012869021 -0.051276676
0.010806262 -0.037703592 -0.024227474 -0.04161002 0.025002865 -0.047722522 -0.022336517 -0.048723325
-0.06769639 0.057082113 0.022924233 -0.008590924 0.038463864 0.05952226 -0.06311162 -0.037122335
0.041137617 0.048787177 -0.0024785285 0.03531107 0.03436368 0.04480973 0.001500594 0.020569036
0.057660636 -0.026333557 -0.028298572 -0.037370056 -0.02396018 -0.038199686 0.023964997 0.056675
-0.07213649 0.013806221 0.0037899916 0.025464691 -0.04595282 0.028586056 0.033474572 -0.05143242
0.06564894 0.019757379 0.02456317 0.034919616 0.051518008 -8.291918e-05 -0.05108419 -0.021036314
-0.06717615 0.042733777 -0.069942646 0.04553609 -0.059423685 0.06365167 0.006090835 -0.0082095275
0.009665211 0.019455591 0.055848826 -0.06410226 0.05778355 -0.05728602 0.0604595 0.060619134
-0.045444123 0.039363246 0.05151132 0.052029632 0.037402503 0.046498727 0.07056505 -0.0054757935
-0.056002013 0.06412872 -0.067455046 0.044417176 0.0642117 -0.06495365 -0.057296667 0.022365676
0.045491356 -0.061554484 0.052195374 -0.03238786 0.058514364 0.04353699 -0.009689056 -0.057273198
-0.0075983987 -0.008747875 0.031672347 0.040529896 -0.050368465 -0.050780043 0.0034583348 -0.0017519438
0.026092662 0.05044542 0.020244166 0.02226661 0.002151246 0.060920283 0.00052217586 0.037982572
0.042985998 0.009430576 -0.012941239 -0.04464767 0.054136418 -0.005422882 -0.06959228 -0.067318685
00000000: c82f 37bd e062 883d 5109 02bc 4fed 633d
00000010: 1f25 0f3d a5b4 8cbc 8c8c 10bd 05c2 8b3c
00000020: 00bd 01bd 663d f1bc 1298 89bc 41c2 353d
00000030: bb86 153c f9db 60bd 4c90 e0bc 1076 5cbd
00000040: 34fb 94bc e4e6 803d 0f28 ddba 9a88 32bd
00000050: 2976 383c 17af 8cbd 9429 473d ef68 7ebd
00000060: 19f0 65bd a9ca 603d 4006 d03c 8923 69bd
00000070: 0c94 6b3d 484f 09bd 3f03 ce3c f691 c4bc
00000080: 36f7 8cbd fede 91bc b5eb 313d 4995 563d
00000090: ec93 7d3c bf78 1a3d 45cf 1d3c ddd0 4f3d
000000a0: 3a8f 1e3d d4b0 523d cb30 65bc fb97 0a3d
000000b0: 5bf1 31bc f592 583d b83c d338 6ea3 e53c
000000c0: 260c cfbb c4c0 eb3b 6774 21bc f9c0 213d
000000d0: 3687 193d 164b cc3c 6ecc 8dbd cded 4c3c
000000e0: 3c7b 7d3d f720 993d 4498 5b3d 0abe 9d3b
000000f0: c4ed 91bc fca4 343d 2a42 c43c 8b32 28bd
00000100: bd1e 133d 18d1 abbb 3d5d 6f3d ed2e 473d
00000110: a11b 5c3d a82b faba 92f9 2abd f202 833c
00000120: fb8e 18bd 366c 8b3d feed 7bbd 56b5 7cbc
00000130: acde d03b 8453 7dbd afe9 483d f9da 773d
00000140: e10a e7bc e29e 21bd 1a76 6a3c 7880 cf37
00000150: 04c4 a9bc 13b5 f63b 96d8 523c 7e07 52bd
00000160: bf0c 313c 156f 1abd b278 c6bc 456f 2abd
00000170: cfd2 cc3c b178 43bd 12fb b6bc 1c92 47bd
00000180: 68a4 8abd efce 693d 9acb bb3c f2c0 0cbc
00000190: 498c 1d3d 9dcd 733d aa40 81bd 970d 18bd
000001a0: eb7f 283d 10d5 473d cf6e 22bb 57a2 103d
000001b0: eec0 0c3d 688a 373d 94af c43a 6580 a83c
000001c0: 8f2d 6c3d 79b9 d7bc 68d2 e7bc 5811 19bd
000001d0: 2448 c4bc 4677 1cbd 3e52 c43c 0b24 683d
000001e0: 4cbc 93bd 7d33 623c 8261 783b 549b d03c
000001f0: 0639 3cbd 4e2d ea3c a21c 093d cdaa 52bd
00000200: f472 863d 3ada a13c b338 c93c df07 0f3d
00000210: 8c04 533d e5e4 adb8 a83d 51bd 5954 acbc
00000220: a693 89bd 9d09 2f3d 173e 8fbd 0d84 3a3d
00000230: 4066 73bd cf5b 823d a195 c73b 4181 06bc
00000240: d55a 1e3c 5561 9f3c bdc1 643d 0c48 83bd
00000250: 72ae 6c3d bfa4 6abd 61a4 773d c54b 783d
00000260: 9e23 3abd 5b3b 213d 89fd 523d 061d 553d
00000270: 5e33 193d 7375 3e3d 6984 903d 496e b3bb
00000280: 5e62 65bd eb55 833d df25 8abd c9ee 353d
00000290: 6c81 833d 6b06 85bd e9af 6abd 3938 b73c
000002a0: 2555 3a3d 8e20 7cbd d1ca 553d 22a9 04bd
000002b0: c2ac 6f3d d853 323d d9be 1ebc 4d97 6abd
000002c0: fdfb f8bb 3f53 0fbc ddba 013d ad02 263d
000002d0: 2a4f 4ebd bcfe 4fbd 3ba5 623b 7ba1 e5ba
000002e0: 47c0 d53c db9f 4e3d 18d7 a53c 7768 b63c
000002f0: ebfb 0c3b 8c87 793d a1e2 083a 9d93 1b3d
00000300: 1612 303d b482 1a3c 7e07 54bc 7ae0 36bd
00000310: 26be 5d3d 6eb2 b1bb 6686 8ebd 61de 89bd

chara_net.RNN.bias_hh_l0 f4 [200]
0.013755792 -0.044569753 0.057414692 -0.02517872 -0.049132682 -0.070496954 0.042033017 -0.035032015
-0.045063652 0.0012427099 -0.0091009755 0.011524642 0.041285254 -0.041752364 0.039717775 -0.056496162
-0.05765664 -0.003258608 0.017418498 -0.054028634 -0.065415815 -0.009958034 0.0017160214 -0.02553263
-0.043632217 0.059270836 0.020638876 0.004491076 -0.008647796 0.06203867 0.008468258 -0.048519332
-0.059602283 -0.053592708 -0.021443082 0.052385148 0.0117499875 -0.025747165 -0.0070370245 -0.04716717
0.056476045 0.018151136 0.040970337 0.007874091 0.057699237 -0.044135313 -0.03204477 0.03717025
0.06966824 0.04617418 0.027056552 -0.01783701 0.035001397 0.045349963 -0.023361925 -0.03040475
0.021535864 0.07007312 0.002188433 0.0073339962 -0.029806314 -0.005076418 0.0069946265 0.020051137
0.020983448 0.06659605 0.05665087 -0.028607553 0.0088174585 0.03817476 -0.00092771207 0.024076499
0.022494482 0.060208067 -0.06877231 0.004598775 0.06358579 -0.056208152 -0.029389909 -0.025370153
0.05718615 0.053523697 0.022186324 -0.06833404 -0.06287567 -0.02492442 -0.014342494 0.0076689096
-0.06882222 0.0072501213 0.04240527 -0.034529857 0.050556194 -0.068378724 0.0593759 -0.033302203
-0.06125741 -0.058412142 0.045681182 -0.040773083 0.06138177 0.035181314 -0.0332817 0.017316153
0.0028505141 0.05784209 -0.01580901 -0.040865827 -0.06968125 -0.025688015 0.0027609854 0.058837697
-0.03806801 -0.04789501 0.03994436 0.043521542 0.02911003 -0.01960502 0.044258542 -0.030870792
-0.009171209 0.024859803 0.023976007 0.042318176 0.0103987185 -0.0624568 -0.0026634226 -0.06599433
6.1536964e-05 -0.002899573 -0.051849432 0.051896613 -0.0014065203 0.043502495 0.00903371 -0.014429218
0.032182805 0.053070564 -0.052328732 0.061607637 -0.06205474 0.04939083 -0.0024046018 0.011349822
-0.04710181 -0.017671898 -0.013877846 0.019522486 0.01571327 0.061796352 0.042406257 0.07116559
-0.0021137889 0.039881855 0.03493618 0.0655131 0.0136019755 0.011253813 0.051381662 0.034375407
0.0013539587 -0.034212813 0.0590773 -0.014646928 0.020300483 -0.006908705 0.013870309 0.030956795
0.0058004702 -0.051856164 -0.032135837 -0.0045420146 0.04053971 0.066536166 0.03572032 -0.043849956
-0.048730176 0.061883874 0.06592661 0.05783141 -0.055988595 0.00086442794 -0.0040108687 0.040412113
0.016540667 0.058256157 -0.043843344 0.033535026 0.07115058 0.05344569 -0.06843419 0.016047759
0.07279983 0.06208246 0.061897855 -0.01895918 0.06568239 -0.045334473 -0.051722646 -0.03204699
00000000: f95f 613c c68e 36bd ab2b 6b3d 9a43 cebc
00000010: 5a3f 49bd b560 90bd d02a 2c3d bb7d 0fbd
00000020: aa94 38bd 6de2 a23a 421c 15bc dad1 3c3c
00000030: ba1a 293d 8704 2bbd 1baf 223d 8568 67bd
00000040: 5e29 6cbd 5f8e 55bb 3db1 8e3c 214d 5dbd
00000050: baf8 85bd 0627 23bc 20ec e03a ce29 d1bc
00000060: b2b7 32bd fac5 723d dc12 a93c e029 933b
00000070: 7caf 0dbc 431c 7e3d 73be 0a3c 35bc 46bd
00000080: 8621 74bd 0784 5bbd 67a9 afbc cf91 563d
00000090: 0583 403c b8eb d2bc d796 e6bb 5d32 41bd
000000a0: 6d53 673d b1b1 943c 83d0 273d 5502 013c
000000b0: 0956 6c3d 3bc7 34bd 6041 03bd d53f 183d
000000c0: 39ae 8e3d 2321 3d3d b4a5 dd3c ec1e 92bc
000000d0: a05d 0f3d e2c0 393d 8261 bfbc 6213 f9bc
000000e0: fb6b b03c 7f82 8f3d d06b 0f3b 0552 f03b
000000f0: 5f2c f4bc 1558 a6bb 2e33 e53b 4842 a43c
00000100: 7be5 ab3c 8363 883d be0a 683d 635a eabc
00000110: 1a77 103c 235d 1c3d b431 73ba 143c c53c
00000120: 5946 b83c bc9c 763d 7fd8 8cbd 52b1 963b
00000130: 4439 823d 853a 66bd 1bc3 f0bc 11d5 cfbc
00000140: 063c 6a3d aa3b 5b3d 18c0 b53c b8f2 8bbd
00000150: f6c4 80bd 4c2e ccbc c8fc 6abc 7a4b fb3b
00000160: aaf2 8cbd 6d92 ed3b 26b1 2d3d 2e6f 0dbd
00000170: 0314 4f3d 250a 8cbd 2534 733d e467 08bd
00000180: 0de9 7abd 9241 6fbd 311c 3b3d ad01 27bd
00000190: 736b 7b3d 481a 103d 6452 08bd 9bda 8d3c
000001a0: b1cf 3a3b d4eb 6c3d e681 81bc ed62 27bd
000001b0: 0bb5 8ebd ac6f d2bc a6f1 343b ccff 703d
000001c0: 34ed 1bbd 8f2d 44bd b29c 233d a543 323d
000001d0: 2878 ee3c b59a a0bc 7248 353d bee4 fcbc
000001e0: d742 16bc c9a6 cb3c 5569 c43c d355 2d3d
000001f0: 635f 2a3c b4d2 7fbd d18c 2ebb 0928 87bd
00000200: 680d 8138 c306 3ebb 1260 54bd 8b91 543d
00000210: fd5a b8ba ac2f 323d 2002 143c 8768 6cbc
00000220: 1ed2 033d 8560 593d a756 56bd 4a58 7c3d
00000230: 1c2d 7ebd 0a4e 4a3d 8696 1dbb 9bf4 393c
00000240: d4ed 40bd a8c4 90bc e85f 63bc 9fed 9f3c
00000250: 1eb9 803c 2c1e 7d3d 2fb2 2d3d 44bf 913d
00000260: 7e87 0abb 285b 233d 3d19 0f3d bb2b 863d
00000270: d2da 5e3c ea61 383c 9475 523d 3acd 0c3d
00000280: 5177 b13a bc22 0cbd 0afb 713d abf9 6fbc
00000290: 334d a63c 6b62 e2bb 4b40 633c 1b99 fd3c
000002a0: df11 be3b 2167 54bd dea0 03bd 2ed5 94bb
000002b0: f80c 263d 1d44 883d 784f 123d 039c 33bd
000002c0: 4b99 47bd f279 7d3d 8804 873d a1e0 6c3d
000002d0: 4c54 65bd c79a 623a 9b6d 83bb 2c87 253d
000002e0: 4b80 873c 029e 6e3d 1495 33bd 065c 093d
000002f0: 65b7 913d dee9 5a3d 3927 8cbd 9776 833c
00000300: 1418 953d 2d4a 7e3d 9b88 7d3d 4850 9bbc
00000310: 7d84 863d a4b0 39bd 20db 53bd b443 03bd

ment_net.fc1.weight f4 [128, 400]
-0.045978744 0.0069975536 -0.014941039 0.027585818 -0.021952791 -0.009891178 0.011374543 0.0028422708
-0.003346688 -0.04868224 0.0057492726 -0.035008337 -0.017961845 -0.037408244 0.04265142 0.014640152
0.02911477 0.04811237 -0.028630236 -0.039977375 0.03750179 0.051368028 0.009672755 -0.019876396
-0.0002010704 -0.008845482 0.002014838 0.026089307 0.036588453 0.038802847 0.023435395 -0.016391372
0.0033076364 -0.03621047 -0.022293713 0.011486257 -0.018054623 -0.040265754 0.018359857 0.039623782
-0.007831227 -0.040308923 0.007963487 -0.028331822 0.006219481 -0.017818183 0.012884404 0.03532957
-0.000117646065 0.0064780074 0.048123594 0.051467627 0.033932075 0.0079860445 -0.029843602 -0.0044700946
-0.005469365 -0.03090063 0.016382197 -0.004257165 0.041916613 0.05119448 0.01359268 0.010116704
-0.004202119 -0.011435771 0.02068906 -0.014382332 0.044381034 -0.026691932 0.018371982 -0.042528
-0.015285222 -0.010881934 -0.050056893 0.04474938 -0.0069677006 0.037581563 -0.00782157 0.0049588573
0.0053374735 0.015942743 0.00028567307 -0.03866186 0.013940556 0.013249134 0.036256935 0.045529764
0.034025557 -0.025741652 0.016617019 -0.041615136 0.0068190093 -0.015429822 0.008315852 -0.007730274
0.00191353 -0.036065646 0.044425614 0.03213276 0.00034872672 0.018681487 0.018523984 0.033530656
0.037348222 0.0055006673 0.03258757 -0.024705831 0.0034697857 -0.021965394 0.005709745 0.04089564
0.0018170623 -0.00546086 -0.0056681475 -0.012192629 -0.041981325 -0.0020824152 0.009271138 -0.0037321881
0.044045467 -0.006990681 0.0458903 -0.044871278 0.0026117514 -0.00043677335 -0.014192155 0.0014067385
-0.02748478 -0.00926632 0.023711275 0.038579382 0.035864323 0.012783055 -0.0004795483 -0.0009252286
0.027396733 0.038964797 -0.012795874 -0.042400513 0.043135557 -0.024969028 -0.018555911 -0.009909911
-0.0075134616 0.008384179 -0.018476322 -0.032319065 -0.015480616 -0.007236343 -0.01253806 -0.01702534
0.025173252 -0.029155 -0.0019903549 -0.047434583 0.0077961 0.03549081 -0.04433441 -0.012078242
-0.016841443 0.047076046 -0.014268401 -0.025823032 -0.047657788 -0.0026462749 0.006975467 0.037708957
0.020002557 -0.046952803 0.024572799 -0.015918676 0.017701253 0.011735322 0.029438164 0.016149037
0.03921075 0.0098018 0.023078611 -0.00984112 -0.0012485204 0.024726426 0.02219033 -0.042449087
0.023995716 0.012371768 0.009445915 -0.002120193 -0.016441094 0.043152746 -0.038455132 0.03408842
0.008471976 0.034923647 0.039573994 -0.0049442598 0.035413846 0.021409422 0.05047785 -0.043529317
0.0028788093 0.048214633 -0.029250262 -0.025564753 0.031485815 0.046150032 0.0007944393 0.04392643
0.03439536 -0.009047522 0.03930576 0.03624703 0.008769571 0.04232944 0.030338358 -0.052637786
-0.046763267 0.02464254 -0.011016202 0.00044075647 0.021027194 0.031365585 -0.010740687 -0.023260716
-0.04850934 -0.019059155 0.060959417 0.032863855 0.04014066 -0.022320036 0.04012977 0.007656305
0.02526807 -0.048617147 -0.009824695 -0.024364565 -0.017660055 0.02910574 0.034923557 -0.013929657
0.017396744 0.0028838473 -0.044441026 -0.046300024 -0.0475759 -0.013337963 -0.019215694 -0.03696833
-0.04271006 -0.0010207515 0.036762774 0.021256112 0.03319843 0.02681471 -0.027567225 0.02072814
00000000: 3554 3cbd bc4b e53b 42cb 74bc a7fb e13c
00000010: 57d6 b3bc 9c0e 22bc 4b5c 3a3c 6445 3a3b
00000020: 1c54 5bbb 0767 47bd 6564 bc3b e764 0fbd
00000030: b824 93bc 6339 19bd 41b3 2e3d 40dd 6f3c
00000040: 1982 ee3c 7a11 453d f589 eabc 51bf 23bd
00000050: 7a9b 193d 4867 523d 7a7a 1e3c d3d3 a2bc
00000060: 6dd6 52b9 a4ec 10bc 5f0b 043b 3eb9 d53c
00000070: c6dd 153d bcef 1e3d 96fb bf3c 3347 86bc
00000080: eec4 583b 6e51 14bd 4ea1 b6bc db30 3c3c
00000090: 4ae7 93bc b4ed 24bd 6967 963c 8c4c 223d
000000a0: 8c4e 00bc f81a 25bd 4979 023c 2318 e8bc
000000b0: cacc cb3b 70f7 91bc 1b19 533c bdb5 103d
000000c0: c0b8 f6b8 7745 d43b 3f1d 453d b8cf 523d
000000d0: 5cfc 0a3d e6d7 023c 927a f4bc df79 92bb
000000e0: 5c38 b3bb 5123 fdbc f533 863c b07f 8bbb
000000f0: c1b0 2b3d 4eb1 513d d5b3 5e3c 88c0 253c
00000100: eeb1 89bb 1a5d 3bbc 1b7c a93c dfa3 6bbc
00000110: e3c8 353d 0aa9 dabc d780 963c d731 2ebd
00000120: de6e 7abc 244a 32bc 7508 4dbd 204b 373d
00000130: 4f51 e4bb 20ef 193d 0b26 00bc e97d a23b
00000140: f9e5 ae3b 5b9a 823c 64c6 9539 e65b 1ebd
00000150: ee66 643c e512 593c 2782 143d 6b7d 3a3d
00000160: 625e 0b3d 28e0 d2bc 6a20 883c a274 2abd
00000170: ff71 df3b 5dcd 7cbc 363f 083c 3d4e fdbb
00000180: 6acf fa3a 92b9 13bd a2f7 353d a49d 033d
00000190: 4fd5 b639 eb09 993c 9cbf 973c 7157 093d
000001a0: 73fa 183d f13e b43b 8b7a 053d e263 cabc
000001b0: 5865 633b c5f0 b3bc d018 bb3b 3082 273d
000001c0: 7e2a ee3a 04f1 b2bb debb b9bb 98c3 47bc
000001d0: 9cf4 2bbd 2179 08bb f9e5 173c ba97 74bb
000001e0: 0569 343d 1512 e5bb 78f7 3b3d f2ca 37bd
000001f0: eb29 2b3b bafe e4b9 3686 68bc 5062 b83a
00000200: c327 e1bc c3d1 17bc 263e c23c 6a05 1e3d
00000210: 78e6 123d 0570 513c e26b fbb9 0a8b 72ba
00000220: 1d6f e03c 8d99 1f3d c9a5 51bc 29ac 2dbd
00000230: e9ae 303d d98b ccbc 9102 98bc 2e5d 22bc
00000240: 7c33 f6bb cc5d 093c a85b 97bc ff60 04bd
00000250: 69a2 7dbc d81e edbb 6f6c 4dbc ba78 8bbc
00000260: 2338 ce3c 77d6 eebc 9d70 02bb c44a 42bd
00000270: 6d76 ff3b d05e 113d 0098 35bd d2e3 45bc
00000280: 11f7 89bc d0d2 403d 03c6 69bc d38a d3bc
00000290: d034 43bd 206d 2dbb 7592 e43b b574 1a3d
000002a0: 67dc a33c 9551 40bd e54c c93c e267 82bc
000002b0: 3802 913c 8245 403c 4e28 f13c fc4a 843c
000002c0: 749b 203d bb97 203c 5b0f bd3c a63c 21bc
000002d0: 65a5 a3ba 138f ca3c 7fc8 b53c 18df 2dbd
000002e0: aa92 c43c f5b2 4a3c 0ac3 1a3c f0f2 0abb
000002f0: 79af 86bc efc0 303d 2183 1dbd 4da0 0b3d
00000300: 0bce 0a3c 190c 0f3d 5718 223d 7503 a2bb
00000310: 1c0e 113d d062 af3c ddc1 4e3d cc4b 32bd
00000320: 68aa 3c3b b57c 453d 3f9e efbc 2c6d d1bc
00000330: 45f7 003d d107 3d3d eb41 503a 33ec 333d
00000340: 26e2 0c3d 0f3c 14bc 14ff 203d c477 143d
00000350: 3fae 0f3c a361 2d3d 2688 f83c b89a 57bd
00000360: d78a 3fbd 27df c93c 4d7d 34bc 5515 e739
00000370: 3941 ac3c 3379 003d b5f9 2fbc 428d bebc
00000380: bbb1 46bd f221 9cbc 95b0 793d 409c 063d
00000390: 886a 243d 82d8 b6bc 1d5f 243d bee1 fa3b
000003a0: fcfe ce3c c622 47bd c2f7 20bc 3298 c7bc
000003b0: d2ab 90bc 296f ee3c 010c 0f3d 3739 64bc
000003c0: 9e83 8e3c eefe 3c3b cb07 36bd 18a5 3dbd
000003d0: f2de 42bd 7987 5abc 3b6a 9dbc 1b6c 17bd
000003e0: bef0 2ebd bdca 85ba 9094 163d 4c21 ae3c
000003f0: 14fb 073d 86aa db3c a9d4 e1bc 0fce a93c

ment_net.fc1.bias f4 [128]
-0.016983194 0.045976527 0.021599615 0.03559234 0.022642404 -0.02846018 -0.0053947154 -0.03031965
0.025949568 0.000822404 -0.0042543616 -0.011447866 -0.013848049 -0.029867789 0.023068875 0.013203468
0.03683981 0.007370818 0.04088869 0.055616543 -0.043272097 0.046565317 -0.011976407 0.023200545
0.013313763 0.033895414 -0.018464133 -0.0027629088 -0.022696327 -0.037902236 -0.009835875 0.022163099
0.014903715 0.039075717 0.008151217 0.03207217 0.03225734 0.020347575 -0.009589938 -0.020172212
-0.014140254 0.015406911 0.038004197 -0.02514327 0.045926064 -0.029014107 0.01213324 -0.0054023447
-0.022872733 0.0018133738 0.03229213 -0.025262294 -0.012855746 -0.012315448 -0.028799897 0.00989388
0.02531731 -0.03374848 -0.03602763 -0.030505853 0.002767117 -0.010484495 0.04715596 -0.020579955
-0.037314743 0.0069559715 0.0075223134 -0.03534936 -0.04850049 -0.037345596 -0.025944864 -0.007405156
0.001681228 -0.038609076 -0.014571924 -0.02904034 -0.001915364 -0.00082103565 -0.0043016924 0.0055858544
-0.035025347 0.043018635 0.04820689 -0.03977665 0.03483562 0.050567184 -0.04417549 0.031730924
0.007815109 0.01739517 -0.04537742 -0.006488177 -0.045145582 -0.040705603 0.017735114 0.01721625
0.0026132492 -0.020133479 0.043186855 -0.039377138 -0.038346574 0.03663487 0.010447916 0.016048884
-0.03707338 -0.02188042 -0.038809396 -0.024952777 -0.042046327 -0.026227366 0.011572917 0.032058306
-0.031124428 0.0155869005 0.019684356 -0.00018164412 0.037485138 0.049965493 0.0038933689 -0.04505225
-0.010067615 0.027959839 -0.032867383 -0.008230056 -0.0037918335 0.04386211 -0.026032208 0.039303027
00000000: 5720 8bbc e251 3c3d adf1 b03c 46c9 113d
00000010: 907c b93c 5325 e9bc 27c6 b0bb ea60 f8bc
00000020: 3094 d43c 9996 573a 2c68 8bbb d58f 3bbc
00000030: ede2 62bc 4bad f4bc f0fa bc3c 5c53 583c
00000040: 57e5 163d e786 f13b e67a 273d 2cce 633d
00000050: 153e 31bd 46bb 3e3d b138 44bc 120f be3c
00000060: f821 5a3c ebd5 0a3d 1842 97bc eb11 35bb
00000070: a6ed b9bc 603f 1bbd a626 21bc 638f b53c
00000080: b62e 743c dc0d 203d af8c 053c 1c5e 033d
00000090: 4620 043d f5af a63c 1e1f 1dbc 3240 a5bc
000000a0: 86ac 67bc 456d 7c3c 4aaa 1b3d 42f9 cdbc
000000b0: f81c 3c3d feae edbc 7fca 463c 2706 b1bb
000000c0: 995f bbbc baae ed3a c144 043d dff2 cebc
000000d0: e8a0 52bc bcc6 49bc c3ed ebbc f119 223c
000000e0: 3f66 cf3c d93b 0abd b591 13bd 69e7 f9bc
000000f0: 8558 353b 29c7 2bbc 9c26 413d 4b97 a8bc
00000100: 58d7 18bd ebee e33b bd7d f63b 7eca 10bd
00000110: 73a8 46bd b2f7 18bd 538a d4bc f3a6 f2bb
00000120: a75c dc3a 8d24 1ebd 14bf 6ebc 02e6 edbc
00000130: f30c fbba c53a 57ba 36f5 8cbb 8b09 b73b
00000140: bd76 0fbd 4f34 303d 9674 453d d7ec 22bd
00000150: ccaf 0e3d 891f 4f3d 5cf1 34bd 49f8 013d
00000160: f10a 003c 5180 8e3c acdd 39bd c69a d4bb
00000170: 93ea 38bd ebba 26bd 3b49 913c 1809 8d3c
00000180: 0c43 2b3b f7ee a4bc b3e4 303d ec49 21bd
00000190: 4c11 1dbd 720e 163d bc2d 2b3c f378 833c
000001a0: 42da 17bd 913e b3bc 9af6 1ebd c469 ccbc
000001b0: c538 2cbd c6da d6bc 559c 3d3c 924f 033d
000001c0: a8f8 febc 3360 7f3c 1641 a13c b977 3eb9
000001d0: 048a 193d 9ea8 4c3d e427 7f3b b588 38bd
000001e0: a3f2 24bc 080c e53c f39f 06bd 5bd7 06bc
000001f0: 6980 78bb c1a8 333d 7f41 d5bc 36fc 203d

ment_net.fc2.weight f4 [6, 128]
-0.06476328 -0.023447357 0.066022985 -0.060585 0.009291827 0.026868543 0.03484677 0.049847856
-0.011036438 -0.012557131 -0.016566083 -0.045798127 0.004865211 -0.0133214835 -0.06740605 0.03637118
-0.015865618 -0.081763014 0.028572002 -0.009134717 0.06941142 -0.006077648 0.06475678 -0.07542153
-0.07327513 -0.009272377 0.029823001 -0.05027823 -0.0077067222 -0.06677685 0.060362335 0.019867647
0.038763504 0.044172607 -0.0102375075 -0.023541648 -0.0071791336 0.010999444 -0.072710834 -0.047716025
0.062131867 -0.06076567 0.05688472 -0.0076592714 0.04540548 0.032236394 -0.018536935 0.028792877
-0.027230823 -0.026930915 -0.01048601 -0.07116632 0.04332328 -0.08529423 0.023167213 -0.049978387
0.07061675 -0.007864973 -0.032206148 -0.05171999 0.022226293 -0.09645679 0.07354621 0.06045496
0.03670511 -0.07204517 -0.04792069 -0.041796293 -0.011278768 0.072686926 0.08152771 -0.086467914
0.06557095 -0.0494849 -0.041694734 0.0038310592 -0.07325122 0.0042940197 0.052706182 0.0027902117
0.01018043 -0.08415369 0.06813861 -0.070406914 -0.060682967 0.052156057 -0.06440008 -0.07219116
-0.0125418175 0.060427077 0.037035543 0.055732902 -0.032858893 0.0060662664 -0.059270274 0.010241493
0.0014216132 0.05121009 -0.006224642 -0.09208957 -0.062341373 0.043107424 -0.08835881 -0.104605794
0.030152455 -0.025318583 -0.003466075 -0.0088850465 0.03353314 0.02057645 0.063024364 -0.077408545
-0.05525615 -0.036998577 -0.07371882 0.065666564 -0.07028739 -0.08253573 -0.057305336 0.005725679
0.047018275 0.07779144 0.004271474 0.07612616 -0.05398764 0.012510766 -0.07243745 0.054302875
-0.06972343 -0.06923839 -0.07599917 -0.058858726 0.016928669 0.049879 -0.040684186 -0.06703032
0.028747592 -0.08879571 0.044343416 -0.039429042 -0.08444847 -0.038462594 0.041450847 -0.0810654
0.079155244 0.018133532 0.07913269 -0.07366256 0.030576155 -0.018425213 0.033997104 -0.07264973
0.028162709 -0.059863333 -0.08550403 -0.024280243 -0.0042026765 -0.010195814 0.08722022 -0.06396459
0.02145501 -0.06757041 0.015991505 -0.026923181 -0.07622076 0.08601538 0.043437127 -0.08604058
0.06108024 -0.04566331 0.02729288 0.059739836 0.005657007 0.08544865 -0.047929246 -0.07352554
-0.055228755 0.07468505 -0.014428449 0.054854732 -0.076226056 -0.032871533 -0.07951608 0.06608721
0.07172609 -0.016088368 0.025794223 -0.028912008 0.07990863 0.07236971 -0.030459888 -0.027252225
-0.04110403 -0.04452173 0.0100500705 0.06198984 0.039062653 -0.021965576 0.014750048 0.06637069
-0.042438034 0.08285743 -0.08512392 -0.006186341 -0.029912503 0.07890939 -0.023070456 -0.020260017
0.036943235 0.070861466 0.07121127 -0.050471995 -0.0009847155 0.06128836 -0.03391348 0.035902645
-0.03772807 -0.06361508 0.081893906 0.037777405 -0.09518419 -0.09372596 -0.014596673 -0.07606709
0.035994142 -0.031410586 0.08123307 0.006702586 0.015585848 -0.07230751 0.051604223 0.021627415
-0.07696214 0.017255163 -0.050453965 -0.045264248 -0.022527693 -0.07352248 0.017089128 0.012235491
0.051337298 -0.015153542 0.04687219 0.0046144426 -0.03875995 0.022511244 -0.005454606 -0.039724406
0.007426097 -0.088697195 -0.043107115 -0.019524565 -0.057401806 -0.036124516 0.05339771 0.007989341
00000000: 9ca2 84bd ac14 c0bc 0f37 873d fa27 78bd
00000010: bf3c 183c 6b1b dc3c 7dbb 0e3d 442d 4c3d
00000020: 2dd2 34bc 6dbc 4dbc 98b5 87bc d196 3bbd
00000030: 596c 9f3b 5a42 5abc 2f0c 8abd f2f9 143d
00000040: 9df8 81bc 5e73 a7bd d50f ea3c c8a9 15bc
00000050: 9327 8e3d 0227 c7bb 349f 843d 9a76 9abd
00000060: 4511 96bd 2beb 17bc 5e4f f43c 8cf0 4dbd
00000070: ac88 fcbb 4dc2 88bd 7f3e 773d 7ac1 a23c
00000080: 7bc6 1e3d 56ee 343d 38bb 27bc 6ada c0bc
00000090: f03e ebbb 0337 343c 6be9 94bd e171 43bd
000000a0: fc7d 7e3d 6ce5 78bd f4ff 683d a0fa fabb
000000b0: 19fb 393d 4f0a 043d c5da 97bc 0adf eb3c
000000c0: 2d13 dfbc 399e dcbc 84cd 2bbc a6bf 91bd
000000d0: c073 313d beae aebd 2bc9 bd3c 23b6 4cbd
000000e0: 849f 903d 16dc 00bc 98ea 03bd 57d8 53bd
000000f0: ea13 b63c 238b c5bd 659f 963d 9f9f 773d
00000100: 1958 163d 6b8c 93bd 7c48 44bd 9732 2bbd
00000110: 95ca 38bc e2dc 943d 00f8 a63d 1716 b1bd
00000120: 104a 863d aeb0 4abd 19c8 2abd 8212 7b3b
00000130: bc04 96bd d9b4 8c3b 70e2 573d fcdb 363b
00000140: d1cb 263c c558 acbd 418c 8b3d 8031 90bd
00000150: b48e 78bd 97a1 553d 30e4 83bd f5d8 93bd
00000160: 327c 4dbc 6282 773d 95b2 173d 2f48 643d
00000170: 0c97 06bd 88c7 c63b 63c5 72bd efcb 273c
00000180: 6c55 ba3a acc1 513d 15f8 cbbb 7599 bcbd
00000190: ab59 7fbd 6991 303d 77f5 b4bd 903b d6bd
000001a0: 4802 f73c eb68 cfbc 1727 63bb 9692 11bc
000001b0: 0c5a 093d f18f a83c eb12 813d 5f88 9ebd
000001c0: 4654 62bd d28b 17bd e5f9 96bd 317c 863d
000001d0: d6f2 8fbd 7e08 a9bd 00b9 6abd 7a9e bb3b
000001e0: 3c96 403d 1e51 9f3d b9f7 8b3b 08e8 9b3d
000001f0: 2522 5dbd f5f9 4c3c 165a 94bd b16c 5e3d
00000200: 28cb 8ebd dbcc 8dbd 74a5 9bbd d915 71bd
00000210: fead 8a3c ec4d 4c3d 76a4 26bd 3147 89bd
00000220: 1280 eb3c 86da b5bd 71a1 353d 5980 21bd
00000230: 52f3 acbd f48a 1dbd 5dc8 293d 9e05 a6bd
00000240: 251c a23d c68c 943c 5210 a23d 65dc 96bd
00000250: d87a fa3c 79f0 96bc 8c40 0b3d 62c9 94bd
00000260: 7bb5 e63c 4133 75bd bd1c afbd 5ce7 c6bc
00000270: 9bb6 89bb 580c 27bc 84a0 b23d deff 82bd
00000280: 6bc2 af3c 5b62 8abd 9e00 833c 018e dcbc
00000290: a119 9cbd d528 b03d 21eb 313d 0b36 b0bd
000002a0: 462f 7a3d 7309 3bbd 5195 df3c c2b1 743d
000002b0: 6a5e b93b b4ff ae3d 7551 44bd 8f94 96bd
000002c0: 8c37 62bd 7af4 983d 4d65 6cbc 5baf 603d
000002d0: 681c 9cbd 4da4 06bd 54d9 a2bd bb58 873d
000002e0: 21e5 923d c1cb 83bc 684e d33c e0d8 ecbc
000002f0: 23a7 a33d 9236 943d 0487 f9bc 0f40 dfbc
00000300: b35c 28bd 6b5c 36bd 0da9 243c 0fe9 7d3d
00000310: 2900 203d 27f1 b3bc 2faa 713c 5bed 873d
00000320: 81d3 2dbd 28b1 a93d 7355 aebd cab6 cabb
00000330: 110b f5bc 3f9b a13d 41fe bcbc 56f8 a5bc
00000340: ca51 173d d11f 913d 37d7 913d b9bb 4ebd
00000350: 9211 81ba 8109 7b3d dce8 0abd a70e 133d
00000360: c088 1abd a048 82bd feb7 a73d 7bbc 1a3d
00000370: eeef c2bd 65f3 bfbd e226 6fbc 10c9 9bbd
00000380: 986e 133d 63a8 00bd 865d a63d 5ea1 db3b
00000390: c95b 7f3c f615 94bd f35e 533d fa2b b13c
000003a0: 549e 9dbd b35a 8d3c d1a8 4ebd 0167 39bd
000003b0: ff8b b8bc f492 96bd 80fe 8b3c 5e77 483c
000003c0: 0f47 523d 9046 78bc 0efd 3f3d c034 973b
000003d0: c1c2 1ebd 8069 b83c 8dbc b2bb 0fb6 22bd
000003e0: 9e56 f33b e0a6 b5bd 1691 30bd fbf1 9fbc
000003f0: 281e 6bbd 4df7 13bd 8fb7 5a3d bae5 023c

ment_net.fc2.bias f4 [6]
0.06512778 0.008748831 0.087360464 -0.06450132 0.00659128 -0.024673255
00000000: b761 853d 4257 0f3c 0bea b23d 4519 84bd
00000010: aafb d73b 911f cabc
