models/SortingHat_3.pt (torch, 539326 bytes, 9 tensors)

statembed_net.fc1.weight f4 [1, 768]
00000000: 331b f4bc ceb5 83bc 4dd6 d5bc 81f9 81bc
00000010: 077b f53c 6ad9 bd3c 9065 dcbb 9fda 8cbb
00000020: d941 8a3b 1e46 0cbd 3be2 40bc 29cb c6bc
00000030: 3802 fcbc d617 303d da26 e2bc 05c3 3fbc
00000040: f925 e03a 6860 87bc 53c2 423c fdcc f43c
00000050: 5700 a73b 6a75 bb3b 3d40 18bd 1b49 f73c
00000060: b261 0c3d cbc9 13bd 0918 fc3c 1810 fe3c
00000070: 9dd7 343c bf49 983c e9e5 1fbb 424b 113c
00000080: 1f0f f3bc 7bb2 e6bc 7eee 513d 4f5e 5b3d
00000090: 6d0e 15bc 6672 903c 557e 56bc 6411 fe3c
000000a0: 3562 ab3c 6a84 eb3c 4d5b 743a d37d 1ebd
000000b0: 28a8 893c 7f59 dcbc a10b 2d3d 72be 6fbc
000000c0: 389b bf3c 1750 92bc a305 ff3c 0bff 333d
000000d0: da13 423c c3f6 973c 3302 25bc 70bc 11bc
000000e0: 5865 2bbd 8793 7a3c b37c 393c e920 7f3c
000000f0: 7576 0bbd 0f7c b53c 6013 0b3d f379 4ebc
00000100: 4222 dfbc d5da 1f3c 764d 0e3d 19fb 673d
00000110: da82 0fbd 3347 d6bc 4523 02bd f50c 88bc
00000120: e010 41bb e6fe 2b3d 63f3 f1bc 4893 283d
00000130: e33c ba3c 1e44 b2bc 1fd2 833c 7073 ffbc
00000140: 2be8 41bd 6404 3a3d c927 5e3c cf80 403d
00000150: 7638 e2bb a827 05bc 2fba 36bd 8721 21bc
00000160: 4295 713b d38e 543d eb93 d13a e643 9db9
00000170: 2ca5 db3c aea1 0cbd 7610 393d 4361 87bc
00000180: 5252 dfbc d6ed 833c 8195 093d 53a7 233d
00000190: 239f b1bc 2416 3ebd f836 3ebd 4137 3b3d
000001a0: 9aec 35bb c28f 17bc f953 9cbb 2eaf 4d3d
000001b0: 2cfe b2bc c3a5 263c b575 623c a297 37bc
000001c0: 42e6 acbc 8b78 12bd 9c8a 9dbc 4c3d 38bd
000001d0: 5844 463d df5b d6bb 52d6 8f3c 791e 143d
000001e0: 78aa ea3b 010d 453b 42e7 15bd 6cd1 82bc
000001f0: 0bec 4e3c 0256 de3c 9507 b53c 8019 03bd
00000200: 2c3f 93bc fbba 29bd 3d1d f23c 2c1a db3c
00000210: b0ba fbbb c351 2bbd c74e d43c 20a0 a7bc
00000220: 37c8 83bb 29b0 29bd de05 883c f111 edbb
00000230: 7109 30bd deda d5bc 42d4 86bb 67b5 af3c
00000240: fd97 f93c 9f6a 16bc 3ef4 0dbd dd7b 3abc
00000250: 75f6 11bd 945a 4cbc 986c 083c 03b4 203b
00000260: 0519 c4bc 1032 85bc e825 2d3c 1f8d 143c
00000270: 3a87 abbc 2a16 5f3d 942e 953c 235d 523c
00000280: b467 9d3c 0e5b 5c3c a994 00bd a299 89bb
00000290: 9bb8 e0bc 5565 153d 9bbd 81bb 4efc 253d
000002a0: 4083 f03c 0b6b 2e3c fef4 f4bc 769f e5bc
000002b0: 3f73 b0bc 228f 783b ecc6 013d 8076 ff3c
000002c0: 6442 9a3c 104f 223d d70f c1bc 8461 d0bc
000002d0: dfaa b93a 1c2a 043d 855c 4cbc 0f88 cd3c
000002e0: b9a0 1cbd 5b5a b4bc 562c aebc 809b 2abd
000002f0: 0ead ecbc a7bf 04bd 2ea2 0b3d 8ae1 473d
00000300: 1e6e d5bc 5824 03bd 9526 103d d23c 21bc
00000310: 8d3a 27bd 2bc3 b33c b236 7dbc 6059 16bd
00000320: 3381 923c 7ea0 bfb9 2d7c 4a3d 53cf e03c
00000330: 42ba 36bd f323 5ebc 2ffe 2abc 5761 8c3b
00000340: 9f31 9b3b 788d 16bd d694 02bd d11d 9cbc
00000350: 96e3 a03b 6e85 68bc ae9f 25bd 570f 673c
00000360: 5115 4bbc 3bcb 433d 2c59 b43c 0b59 a03c
00000370: b727 3e3c 8f0d 003c 999d cdbb be3c b5bc
00000380: 64aa 0ebd dbc4 2b3d d423 13bd 22c0 febc
00000390: ee11 debc f861 3f3d de6c 29bd b894 58bc
000003a0: b8a0 283d 3126 4ebc bbd2 b4bb 00ca 66bd
000003b0: 9fe9 31bd 942f 92bc 0c5a 8eb9 8839 9a3c
000003c0: 861c 863c fa76 cdbb 67a5 ac3c 1d27 f93c
000003d0: fcd1 1e3d 3dbe 583d be6f 78bc 5dab 143c
000003e0: c4f9 6b3c 337b e2bc 0ea2 7e3a be8f d53a
000003f0: 53aa 223d ba14 2dbd 0c19 9b3c ac45 cabc
-0.029798126 -0.016077902 -0.026103163 -0.015866043 0.02996589 0.02317496 -0.0067259744 -0.0042985226
0.0042192754 -0.034246556 -0.011772688 -0.024266796 -0.030762777 0.04299148 -0.027606416 -0.011704211
0.001710116 -0.016525462 0.011887151 0.029882902 0.005096476 0.005720784 -0.037170637 0.030186227
0.034272857 -0.036081117 0.03077318 0.031013533 0.011037734 0.018589852 -0.0024398512 0.0088680405
-0.029670296 -0.028161278 0.051252834 0.053556737 -0.009097678 0.017632674 -0.013091643 0.031014152
0.020920852 0.028749663 0.0009321466 -0.038694214 0.016803816 -0.026898144 0.04224742 -0.014632808
0.023389444 -0.017860455 0.031130617 0.0439444 0.011845553 0.018550282 -0.010071325 -0.008895025
-0.041844696 0.015293962 0.0113212345 0.015571811 -0.034048516 0.022153882 0.033954024 -0.012602317
-0.027238015 0.0097567635 0.03474184 0.05663595 -0.0350369 -0.026156997 -0.031771917 -0.01660774
-0.0029459521 0.041991137 -0.029535001 0.041156083 0.022734111 -0.021760996 0.016091404 -0.031182975
-0.047340553 0.045414343 0.01355929 0.04699784 -0.0069037033 -0.008127131 -0.044611152 -0.009834654
0.0036862646 0.05189402 0.0015989518 -0.00029995962 0.026812159 -0.034333877 0.045181714 -0.01652587
-0.027260933 0.01610462 0.033589844 0.039954495 -0.021682328 -0.046407834 -0.04643914 0.04570699
-0.0027759434 -0.009250583 -0.0047707525 0.050215892 -0.021849714 0.010171357 0.013822009 -0.011205586
-0.02110589 -0.03575949 -0.019231133 -0.044980332 0.04840502 -0.0065417136 0.01755825 0.036161873
0.0071614347 0.0030067565 -0.036597498 -0.015969 0.012629519 0.027140621 0.022098342 -0.03200674
-0.017974459 -0.041438084 0.029554958 0.026745878 -0.007682167 -0.04182602 0.02591647 -0.020462096
-0.00402167 -0.041427765 0.01660436 -0.007234805 -0.042977754 -0.02610534 -0.0041146586 0.021448804
0.030467981 -0.009180694 -0.034656756 -0.01138207 -0.03563543 -0.012472767 0.008326672 0.0024521358
-0.023937711 -0.016259223 0.01056812 0.009066849 -0.020938504 0.054464497 0.018210687 0.012839588
0.019214489 0.0134494435 -0.031391773 -0.0041992227 -0.027431777 0.03647359 -0.0039593703 0.04052382
0.02935946 0.010645638 -0.029901978 -0.028030138 -0.021539329 0.003792711 0.031683847 0.031184435
0.018830486 0.03962618 -0.023567123 -0.025437124 0.0014165303 0.03226672 -0.01247323 0.025089292
-0.038239215 -0.022015741 -0.021261375 -0.041652203 -0.028891113 -0.032409336 0.034090213 0.048799075
-0.026053485 -0.032017082 0.035193045 -0.009841161 -0.040827323 0.02194365 -0.015454935 -0.03670633
0.017883873 -0.00036549935 0.04943483 0.02744261 -0.044611223 -0.013558376 -0.010436579 0.0042840648
0.00473614 -0.03675601 -0.031880222 -0.019057186 0.004909943 -0.014191968 -0.040435486 0.014102778
-0.012395219 0.047801238 0.022015177 0.019573709 0.011606148 0.007815733 -0.0062748906 -0.02212369
-0.034830466 0.041935783 -0.03592284 -0.031097475 -0.027108159 0.04672429 -0.04136359 -0.013219051
0.0411689 -0.012582348 -0.005518285 -0.056344986 -0.04343569 -0.017844953 -0.0002715144 0.018826261
0.016371023 -0.0062702866 0.021074964 0.030414158 0.038774475 0.0529158 -0.01516336 0.009074059
0.0144028105 -0.027646637 0.0009713479 0.0016293449 0.039713215 -0.042256095 0.018932842 -0.024691425

chara_net.RNN.weight_ih_l0 f4 [200, 203]
00000000: 0eef 313d f085 d0bb 672b 8ebc c73a d63c
00000010: 15ac 583d f65a 90bd d7e7 d23c bc1d 763d
00000020: b100 06bd 5dff 803d 41dc c4bc 1e17 383b
00000030: a189 7fbd 6ff2 873d 40c3 7e3d 6315 cfbc
00000040: c848 26bd 9c15 8d3d 4ee3 43bd 949b 26bc
00000050: 95fe 673d 78cd 70bb 6eac 47bd be2d 173d
00000060: 92db 91bd 632c ffbc 100d 523d 1d81 473c
00000070: 15fd cfbc 64b4 83bc ce4b 62bd 8025 9b3b
00000080: 75f9 563d dab2 7c3c 750d 54bc 2c71 85bd
00000090: 17fd 0fbc 7208 263d 7eeb 55bd cfea 663d
000000a0: 15c9 023d 0258 4e3d 8c3c 89bd a08a 44bd
000000b0: d4b2 4e3d 6034 79bd 5ff9 403d 6e83 8c3d
000000c0: 4b37 13bd d22c 0f3d d4c3 83bd 3f04 debc
000000d0: 20fa 023b 36f4 23bd 48e4 a23c 85f2 893d
000000e0: f14a 39bd d7d1 cf3c f877 2dbd 647e 45bd
000000f0: 1201 a6bb 76e0 493d 4228 e13c 2e47 2e3d
00000100: 0f5d 44bd 39a6 02bc 32f4 98bd 866c c9bc
00000110: 4409 753d f72b 8a3d c25c 2f3c cff8 3a3d
00000120: 5e9a 63bd d3f5 d7bc 21a2 c2bb fde8 603b
00000130: 3815 6bbd 780b 213d fb6f 7cbc 34c3 093d
00000140: b68c 4ebd 1cec 883d ef65 8abd b08d f0bc
00000150: 0081 abbc ed49 2abb acd5 0dbc 9f6c 2f3d
00000160: 5e16 5cbd f052 903d 8f77 683d d461 573d
00000170: bce4 173b 5abd 5abd 9b50 1a3c b2fa 30bd
00000180: fe6e 91bd 1d8a 41bd 3771 f4bc 120a 3cbd
00000190: 3acd 483d 05a4 04bc 0d19 91bd 0538 cd3c
000001a0: 2e14 3bbd e3a5 dfbb 97e4 983c 86e2 37bd
000001b0: 99f5 9a3b 3532 84bd a14a 333d 715b a33c
000001c0: ded2 733d a7d3 323d 5c84 113b 464c 98bd
000001d0: 6148 4bbd 3d87 153d 9459 1b3d 7cd1 523c
000001e0: fdf1 a1bd b78c c1bb 468a 563d a59e 123c
000001f0: 883c 643c f4a4 22bd e59c 8e3c e6fa 8fbd
00000200: 0afc 1dbd da2b 933b 57ca e63b 8074 7bba
00000210: 5fc3 a6bc b5ea d6bc f98b f13c d4c4 803d
00000220: a2a0 86bb 39d0 5f3d da30 6e3d 831f 573d
00000230: ec54 86bd 3d1a ef3c f13e 82bd 4301 663d
00000240: 6f8b 8b3d b6db 51bd 25c5 953b e4df 46bc
00000250: c204 863d 8a3a f4bb 75ed bd3c ec79 11bd
00000260: 2b8f 123d 3a42 e23c a94c 303d af05 8d3c
00000270: 844d 95bc 250c f63b 120f d23a b527 343c
00000280: 264b 933b 924f 27bd 74ef c33c d141 c1bc
00000290: f5a9 1fbd 7b8d 053c 1aa0 89bd 3581 6dbd
000002a0: 598b 903c d8ec 8d3d c047 723d b9bb 2c3d
000002b0: a4ae 693d a5d7 3c3d c181 5a3d df14 183d
000002c0: aed8 7cbd 377b 803d 3cd3 c63c 2d74 103b
000002d0: d7a0 72bd d021 89bd 04d4 1f3c e448 81bd
000002e0: 68ab 383c 55aa 313d 2c16 21bd c16b 43bd
000002f0: 1d25 d4bc 9c8c 2a3d 7bdb 853b 06f1 a63c
00000300: 5a1c afbc c081 a63a 474c da3c 27b7 763d
00000310: 938b d13c a996 2bbd 82f3 44bd aa25 f23b
00000320: 99ea 5abc c36e 813d 4344 5d3d f42a f63c
00000330: 8bd8 523b 6bd2 80bd 81e8 873d fd16 7ebd
00000340: 42bf 5cbd d479 59bc 18a6 743d 991c c9bc
00000350: abfb 983b 5654 d63c ef67 0dbd 1928 653d
00000360: 17ca 00bd c735 5ebd f6da 5bbd e524 f4bb
00000370: afdc 023d 45e4 92bc 283e 8a3d 954a 60bd
00000380: 559e 61bd 3c3f 3b3d e53a 46bc 422b 85bc
00000390: 39d6 813c 89de 48bd b931 ca3b 6e1a 873c
000003a0: beaf febc 21dd 35bd 9e9f 87bd efb4 74bd
000003b0: e8c8 4c3d cde6 f7ba 7a86 833a 0e64 4b3d
000003c0: b498 543b 8794 3b3d 63e5 853d 152f 283c
000003d0: 1852 8d3d 0f17 3e3d 5b73 13bc 85ad 113d
000003e0: 9317 01bd e4dd 6abc 701c 4dbc 004d 443d
000003f0: ef39 e3bc ffcc 43bd 9702 b53c b448 543d
0.04344087 -0.006363623 -0.01735468 0.026151074 0.052898485 -0.070485994 0.025745315 0.06008695
-0.032715503 0.06298707 -0.024030806 0.002808995 -0.062387113 0.066380374 0.062197924 -0.025278753
-0.040596753 0.06888887 -0.047824197 -0.010168929 0.056639273 -0.0036743563 -0.048748426 0.036908858
-0.07121958 -0.031149095 0.05128199 0.012176779 -0.025389234 -0.016077228 -0.055248074 0.004734695
0.052483995 0.015423501 -0.0129426615 -0.065157264 -0.008788369 0.040535398 -0.052226536 0.056376275
0.031930048 0.0503769 -0.067010015 -0.047983766 0.050463513 -0.060840964 0.04711282 0.06861006
-0.035941403 0.034954853 -0.064338356 -0.027101634 0.0019985512 -0.04002782 0.019884244 0.0673571
-0.045237485 0.025368614 -0.04235074 -0.04821624 -0.0050660456 0.04928633 0.027485017 0.04254835
-0.04794031 -0.007974201 -0.074684516 -0.02458788 0.05982329 0.06746667 0.0107032675 0.04564744
-0.055567138 -0.026362335 -0.0059397374 0.003431856 -0.057393283 0.039317578 -0.015407558 0.033633426
-0.05042716 0.06685659 -0.067577235 -0.029364437 -0.020935535 -0.0025984005 -0.0086569 0.0428282
-0.05373227 0.07047069 0.056754645 0.05258353 0.0023177108 -0.053403236 0.009418632 -0.04320783
-0.07101248 -0.047250856 -0.029839141 -0.04590804 0.049023844 -0.008095746 -0.07084856 0.025051126
-0.04567354 -0.006825195 0.018663688 -0.044893764 0.0047289846 -0.06454889 0.043772344 0.019941064
0.05952727 0.04365888 0.0022204136 -0.07436423 -0.049629573 0.036505926 0.037927225 0.012867328
-0.07907484 -0.005906667 0.05237796 0.008948957 0.013930447 -0.039708093 0.017408798 -0.07030277
-0.03857044 0.0044913115 0.0070431638 -0.000959225 -0.020356832 -0.026234964 0.02948569 0.06287542
-0.0041085044 0.054641936 0.058152057 0.052520286 -0.06559166 0.029187316 -0.06359661 0.056153547
0.06813704 -0.051234923 0.0045706206 -0.012138341 0.06543876 -0.0074532675 0.023184517 -0.035516664
0.035781067 0.02761947 0.04304186 0.017214624 -0.018225439 0.007508772 0.001602622 0.010995795
0.0044950424 -0.04084737 0.023917891 -0.023590954 -0.038980443 0.008151407 -0.0671999 -0.05798455
0.017644571 0.0692994 0.059150457 0.042171214 0.057051316 0.046104092 0.0533464 0.03712928
-0.06173008 0.06273501 0.024270646 0.0022041902 -0.05923542 -0.06695902 0.009755138 -0.06312731
0.011271335 0.043375332 -0.039327785 -0.047710184 -0.025896603 0.041638 0.004085002 0.0203786
-0.021375824 0.0012703463 0.0266477 0.06023326 0.02557925 -0.041891728 -0.04808379 0.007389744
-0.0133615965 0.06319954 0.054020178 0.030049779 0.0032172527 -0.06290134 0.066361435 -0.062033642
-0.053893335 -0.013273675 0.05972871 -0.02454977 0.004668673 0.026163261 -0.034522947 0.055946443
-0.031442728 -0.054250505 -0.053675614 -0.0074506872 0.03194874 -0.017931113 0.067501366 -0.054758627
-0.055082638 0.045714602 -0.0120990025 -0.016255978 0.01584922 -0.04904035 0.006170478 0.016492095
-0.03108966 -0.044400338 -0.066222414 -0.059742864 0.049996287 -0.0018913388 0.0010034584 0.049655966
0.003243965 0.045795944 0.06537893 0.0102651315 0.06900424 0.04640871 -0.008999671 0.03556587
-0.031516623 -0.014335129 -0.012518987 0.047924995 -0.027737586 -0.04780292 0.022095961 0.051827148

chara_net.RNN.weight_hh_l0 f4 [200, 200]
00000000: 8f8e 93bc ee55 e93b 40f9 3f3d b300 9d3d
00000010: 362d 373d 4ac9 373d cd2c ee3c 3775 883d
00000020: 700c 503d 5c35 663d da0b 6cbd d271 773d
00000030: 6197 59bd d572 f5bc dad3 94bd 0cb4 423d
00000040: f99d 9dbc 8e48 48bd 031a 703d b503 6b3d
00000050: 17f9 b2bc 66f7 ff3c 8a2d 853d f0fd 893d
00000060: b956 203d bb4e 9dbd a90d 073d 1b05 f2bc
00000070: 48d6 a83c 749e 5fbd 493b b3bc 2956 5b3d
00000080: 33d0 11bd 95a0 eabc 3188 f73c 7c73 343d
00000090: cd6f 39bd 5257 9abd 6158 4bbc 4496 8c3d
000000a0: 5b9f 5f3d 8e71 86bd 6a1a 323d ae6b 4d3d
000000b0: 7de8 6d3d c520 323c 295b 273c f4e7 ff3b
000000c0: e30b 2fba 211c a43a c68e abbb f7b1 5ebd
000000d0: 41c0 55bd 65f0 4cbd b714 2d3d 02ab adbc
000000e0: 3595 b93c 9b89 44bd c5b9 b7bb a131 113d
000000f0: 990d 3a3d d24e 113d b0d8 593d 2cf4 403d
00000100: e1f4 323d bf14 17bd 8922 edbc 978f 94bd
00000110: e790 ab3c 4171 553d fac6 a5bc c14a 5c3d
00000120: c9aa b1bc 39cc d0bc f30f 663d 05ea e33c
00000130: d41e 003c 1494 723d bf0e 483d 0eef 89bc
00000140: 3e44 0b3d 7455 6e3c f14c 063d 2149 ba3c
00000150: c4fe 1a3d cd46 15bd 817e 2a3d 48d2 d23c
00000160: 7457 563d 7018 653d 1af2 303c 300e 84bd
00000170: f682 8dbd 2ef1 3d3b dae6 a1ba e2a1 d43c
00000180: 585c 5a3d 8b63 91bd 4218 9abc 665c 3a3d
00000190: 3e5c 203c 0ebd 113d 8ed7 c13c 85b3 bb3a
000001a0: 6a24 3fbd 5508 07bc 554f cfbc 8e69 28bd
000001b0: 8d7f 183d 50a6 fbbc 6795 4bbd 9696 313d
000001c0: 9b03 74ba 62de 42bd 88c2 61bd 3b8c 523d
000001d0: 6bb8 af3c 25fd 77bd 7c54 7abd 308e 33bd
000001e0: 3075 dcbb 0db6 16bc 3bd7 443d ecf8 ae3d
000001f0: 2513 2c3d e30a e9bc 79ee 8f3d fa3f fc3b
00000200: 74f4 61bc 4a00 863b b719 bf3c b392 bb3c
00000210: 454f 793c 7b6a 8fba 42e1 523d 05ef 02b9
00000220: 109c e8bc cbeb debc 8bd9 6abb 0326 bc3c
00000230: af4c 33bd 3e7a fe3c 4b87 74bc 1309 4ebd
00000240: 21ef 5a3d 79ae 97bc 8d57 50bd 23e6 cebb
00000250: 5bd1 4ebc 9569 613d f839 05bd 2730 85bd
00000260: 7354 8dbd cd05 003c 9908 8a3d e832 08bd
00000270: 3c94 4a3c 9c9f 6fbd 2d19 203d aa73 f1bc
00000280: d748 ffbb 3848 313d 16a8 be3c b3db b03c
00000290: 4c05 2c3d 151d 783c 48b5 223c da0c 34bd
000002a0: 6548 7abd 6351 05bd e875 26bc db59 183d
000002b0: a7f1 8abd 2314 ffbc 0090 1e3c 09dd b03c
000002c0: 912b 943c 9925 37bd 6ac3 e6bc 38de ddbc
000002d0: 99eb 2c3d f4d7 57bd 11fd 45bd 4649 713d
000002e0: 0d1f 18bd 3cf9 4abc 0d6a 043d 0d53 ae3c
000002f0: 1358 73bd 919f fd3c 68ef c83c aef2 023d
00000300: 7633 303d 656d 8c39 a948 a73c dd48 143d
00000310: a1b8 8c3b b4c4 0a3d a569 693d 312c 063d
00000320: 02ae 46bc d4d8 a43b a404 0bbd 042e 893d
00000330: a431 f5bc 80b1 ef39 a15d 503d 24b2 a53c
00000340: b7f7 8abd 3249 46bd baae 4b3d 418d 2d3b
00000350: a47c 2abc 113d 073d 4087 7abd f5a0 d6bb
00000360: 5980 34bd 1c26 ecbc bca6 d3bc bc0f 8c3d
00000370: 53e1 6ebd b51a cabc cf54 123d afc8 43bd
00000380: ccb2 9abc 9110 8bbd 52af 27bd 6924 8f3c
00000390: e8fd 3cbc 0412 cd3c 64ae a3ba d51b bdbc
000003a0: e926 68bd 8a11 42bd c0b4 7a3d 054b 8e3d
000003b0: c167 64bb 9a6d 24bc 2d9b 61bd cf70 2cbd
000003c0: e4fb 673d 8583 943c f382 b5bc 7d6b 65bc
000003d0: 89f4 9c3c a0cf 8dbd ac11 fd3c 6e41 42bd
000003e0: cc26 863c a3ed 83ba bd39 653d 0366 4d3d
000003f0: b511 87bd aebe bcbc 513e e33c 7022 fc3c
-0.018012313 0.0071208393 0.046868563 0.07666149 0.04472085 0.0448697 0.029074097 0.06662982
0.05079311 0.05620323 -0.05762849 0.060411282 -0.05312288 -0.029961983 -0.0726697 0.047534987
-0.019240366 -0.04889732 0.058618557 0.057376582 -0.02184729 0.031245898 0.065028265 0.06737888
0.039145205 -0.07681032 0.03297201 -0.02954345 0.02060999 -0.054594472 -0.021878855 0.053548966
-0.035598945 -0.028641025 0.030216308 0.044055447 -0.045272637 -0.07536186 -0.012411208 0.068645984
0.054595333 -0.065646276 0.04348222 0.05015152 0.058083046 0.010872071 0.010214605 0.0078096334
-0.00066774915 0.001252059 -0.005235526 -0.05436894 -0.0521853 -0.050033946 0.042256083 -0.021199707
0.022654155 -0.047982793 -0.0056068623 0.03544772 0.045423124 0.03547556 0.053185165 0.04710786
0.043690566 -0.03688502 -0.028947132 -0.0725395 0.020943118 0.05210996 -0.020236481 0.05378223
-0.021687882 -0.025488006 0.056167554 0.02782155 0.00781985 0.05922325 0.048842188 -0.016837623
0.034000628 0.014546741 0.03278822 0.022739949 0.03784062 -0.036444474 0.04162455 0.025735036
0.052329496 0.05593151 0.010799909 -0.064480186 -0.069097444 0.0028982866 -0.0012352124 0.025956098
0.053310722 -0.070990644 -0.018810395 0.045498274 0.009787617 0.035580687 0.023662355 0.0014320469
-0.046665587 -0.008241733 -0.025306383 -0.04111629 0.037231017 -0.030718952 -0.049703028 0.0433565
-0.00093083986 -0.047575362 -0.05511716 0.051403265 0.021450242 -0.06054415 -0.061115727 -0.043836772
-0.006727837 -0.009198678 0.048056822 0.08543572 0.042010445 -0.028447574 0.07027907 0.0076980563
-0.013791192 0.00408939 0.023327691 0.0228971 0.015216653 -0.0010941768 0.051484354 -0.00012486808
-0.028394729 -0.027212044 -0.0035835232 0.022967344 -0.043774303 0.031064149 -0.0149248345 -0.050301623
0.053450707 -0.018515812 -0.050864745 -0.0063140555 -0.012623156 0.05503233 -0.032525986 -0.06503325
-0.06900873 0.007813883 0.06739921 -0.033251673 0.012364443 -0.058501825 0.03908651 -0.029474098
-0.0077906656 0.043281764 0.023273509 0.021589136 0.04199724 0.015143652 0.009930916 -0.04395757
-0.061104197 -0.03254832 -0.010159947 0.037195068 -0.06784373 -0.031137532 0.009677887 0.021589773
0.01808718 -0.04471359 -0.028169353 -0.027083501 0.04221687 -0.052696183 -0.048337046 0.05890777
-0.037138987 -0.012388524 0.0323277 0.021279836 -0.059410166 0.030959876 0.02452822 0.03196972
0.043017827 0.00026784386 0.02042039 0.0362023 0.0042944704 0.033878997 0.056985516 0.032756988
-0.012126448 0.0050307307 -0.033939973 0.0669823 -0.029930897 0.0004571788 0.05087054 0.020226546
-0.06785529 -0.04840965 0.04972718 0.00264819 -0.010405693 0.03301722 -0.06116414 -0.0065499493
-0.044067714 -0.028826766 -0.025836341 0.068389386 -0.058320355 -0.024670938 0.03572541 -0.04779881
-0.018884085 -0.06790269 -0.040938683 0.017473416 -0.011535145 0.025033005 -0.0012487886 -0.02308456
-0.056677733 -0.047380008 0.061207533 0.069479026 -0.0034851881 -0.010035897 -0.055079628 -0.04209977
0.056636706 0.01812912 -0.022157168 -0.014002678 0.019159572 -0.06924367 0.030892216 -0.04742568
0.016375922 -0.0010065328 0.055963267 0.050146114 -0.06595174 -0.023040142 0.027739676 0.03077814

chara_net.RNN.bias_ih_l0 f4 [200]
00000000: bb02 5fbd 1cb8 fdbb e110 6a3d d178 093d
00000010: 3e72 0ebb 4bde e9bc f3b7 843d d11b 1f3d
00000020: 7c33 e63c 926c afbc 1fbb 61bc 0208 d3bc
00000030: ee98 9abc 7e55 58bd ce91 acbc b144 5bbd
00000040: 8928 7c3d e3c8 3f3d 6d3f b13b 3289 41bb
00000050: 0b88 303d 46fe 9b3a aca0 5d3d 218c 1f3c
00000060: a3f3 6ebd 6001 273d 40d2 283d 1364 893d
00000070: 2929 30bd d25c 87bd 74a2 a63c 3109 683c
00000080: df36 57bd b84e 0abc 4c96 e93a 6ea0 8ebd
00000090: 9c9e 333c 9fc7 91bd c371 7d3d 0a5c 733d
000000a0: 6bd4 f1bc e454 6a3d 0b6b 7a3d 3fe4 0dbd
000000b0: f885 2e3d dd93 a4bc 8ee8 293d c6eb 11bd
000000c0: a64c 0bbd 2f6e d7bc f398 0abd d090 09bc
000000d0: f90f 1e3d f4e0 42bd 5605 0cbd b5dc 2c3d
000000e0: 306e d5bc f801 3fbd d115 dbbc 774c 50bd
000000f0: bb61 793c 6514 83bd 7fd9 4e3d 5425 a7b9
00000100: 5569 82bd 00b0 95bc af26 7c3d d1df 69bd
00000110: 64e8 1b3d adf0 313d d7e9 0e3d 58b5 023d
00000120: 31a7 16bc 80ab 5b3d 55e4 343d 83d7 85bd
00000130: dc16 07bd 6662 09bd 0131 10bd 9fad 0e3b
00000140: 5f59 673b b048 75bc af9e 373d f711 5f3d
00000150: 29e0 363d a25e 25bd ca26 52bc 3b8e 82bd
00000160: af3f d3ba b4a4 9c3c 945e 7fbd 6bc3 92bc
00000170: a800 8a3c 0e57 183d 4520 ef3b 39f3 ee3c
00000180: a3b3 133d f6c0 c13c 20c9 14bd 3b60 be3b
00000190: 6dba 393d 5246 84bd 6016 443d 0215 00bd
000001a0: d84d 2b3d 9a9c 84bd 0a0a 1d3a 8408 bf3c
000001b0: 836e 503d ca83 8ebc 99d1 7ebd 375a 843d
000001c0: 8ed6 873d 6d64 ac3c 42eb 8c3c 613f 4c3d
000001d0: cf32 48bd 5ca4 cfbc 238f 48bd 3795 f7ba
000001e0: 9493 823d 49a8 9a3c f415 25bd ec7a 18bd
000001f0: f1c6 5dbd 9391 84bd 784a ff3c 22fa 5bbd
00000200: 575a 89bd b5f0 84bc 81f5 1bbc 169f 7d3d
00000210: 5f73 05bd c890 c43b bfa7 9d3c b483 48bd
00000220: 6732 c43c e1ea 88bc 7593 103d 8fab 6bbd
00000230: 837d 6cbc a5f1 8f3c a1b4 68bd 92a1 5fbd
00000240: 603a 3dbc 2229 2f3d a20a 923d 2832 933b
00000250: 5c8c 86bd 1df1 093d 86df b7bc 0156 a0bc
00000260: 05c3 9f3c 1523 76bd 7f7e 89bd e314 61bd
00000270: b125 73bd 5b21 06bd d3bf 86bd 69d2 873c
00000280: 7d8c 733d ecd3 843b b4fa 8cbd 57ce 4ebd
00000290: e4ee 8e3d 6ed3 7b3d a6ff 98bc 6f39 d93c
000002a0: 0ee2 d1bc c68c 09bc eb63 27bd 33b6 233d
000002b0: c926 bfbb 117a f83b ab27 efbc 7bf8 863d
000002c0: c58e b83c 21b7 5e3c 4806 babc f9c8 6abd
000002d0: 187f 1d3d a660 213d 2af2 6d3d 1c01 793c
000002e0: ff4a a5bc baa6 c8bc 89ef 02bd 30eb a93c
000002f0: 651f 433d 2347 a73c adc3 45bd 821b 6b3d
00000300: 0b89 8e3d ba69 00bd d357 e2bc 7ae6 22bd
00000310: 5da8 51bd ac23 fe3c 5aec 7abd 5f23 76bc
-0.054445963 -0.007742895 0.057145003 0.033562485 -0.0021735574 -0.02854838 0.06480398 0.038844887
0.028100722 -0.021414075 -0.013777523 -0.025760654 -0.01887175 -0.052815907 -0.021065619 -0.053532306
0.061562095 0.04682244 0.0054091723 -0.0029531238 0.04309849 0.0011901341 0.054108307 0.009737999
-0.05833782 0.040772796 0.041216135 0.06708541 -0.043008003 -0.06609501 0.020341136 0.014162348
-0.052542564 -0.00844162 0.0017821281 -0.06964193 0.010963108 -0.07118153 0.06187607 0.059413947
-0.029520234 0.057209864 0.06113724 -0.0346415 0.04260823 -0.020090038 0.041481547 -0.03562524
-0.034008645 -0.026297657 -0.03383727 -0.008396342 0.03858945 -0.047577813 -0.034184776 0.04220267
-0.026053518 -0.046632737 -0.026743801 -0.050854173 0.015221055 -0.06400374 0.05050039 -0.00031880534
-0.06367747 -0.0182724 0.06156033 -0.057098214 0.03806342 0.043442417 0.034890976 0.031911224
-0.009195135 0.053630352 0.044163067 -0.06535246 -0.032980785 -0.033541106 -0.035202984 0.0021770967
0.0035301072 -0.014970943 0.044829067 0.054460492 0.04464737 -0.040373452 -0.012826631 -0.063747846
-0.0016117002 0.019121505 -0.062346056 -0.017915448 0.016846016 0.037192397 0.007297548 0.029168712
0.036059987 0.023651581 -0.03632462 0.0058098114 0.045343805 -0.06458725 0.0478729 -0.031270035
0.041822284 -0.06475182 0.00059905706 0.02331949 0.050886642 -0.017396826 -0.062211607 0.064625196
0.0663272 0.02104398 0.017202023 0.04986513 -0.04887658 -0.025346927 -0.04896463 -0.0018889074
0.063758045 0.018879073 -0.04030414 -0.037226602 -0.054144803 -0.064730786 0.03116344 -0.053705342
-0.06706684 -0.01622806 -0.009518982 0.061919294 -0.03258073 0.0059987046 0.019245027 -0.048953727
0.023949815 -0.016713561 0.035296876 -0.057536658 -0.014434221 0.01757128 -0.056812886 -0.054597445
-0.011549562 0.042763837 0.07130934 0.004492063 -0.0656974 0.03367721 -0.022445451 -0.01957226
0.019502172 -0.06009205 -0.0671358 -0.05495156 -0.059362117 -0.032746654 -0.06579556 0.016579824
0.059460152 0.0040535834 -0.06883755 -0.05048975 0.069791585 0.061480932 -0.01867659 0.026516644
-0.025620487 -0.008395379 -0.040866774 0.03996868 -0.005833481 0.007582911 -0.02919372 0.06590363
0.022529015 0.013593466 -0.022708073 -0.05732057 0.038451284 0.03939881 0.058092274 0.015198018
-0.020177362 -0.024493564 -0.03196672 0.020742029 0.047637362 0.020419663 -0.048282314 0.05739928
0.069597326 -0.03135083 -0.027629768 -0.03977058 -0.051185954 0.031022869 -0.06126056 -0.015023082

chara_net.RNN.bias_hh_l0 f4 [200]
00000000: 2878 33bd 5eac 9fbc fe78 dc3c 6673 28bd
00000010: 3fac 303d 13fb 26bd 7baf 403b 9746 62bc
00000020: d63c ec3c f473 63bc 1f9f 643d f197 65bd
00000030: bb93 093d bfbb ec3c 4eb9 70bc 7f8b 2cbc
00000040: b9bf 283d 020b be3c 84fb 803d 9c23 843d
00000050: 7a67 45bd b576 853d 64b2 7abd 726d 56bd
00000060: 6645 39bd a4c6 143d 57b1 aebc 79d8 82bd
00000070: 3aef 94bc 9f5f 433d c408 823d 901a 49bc
00000080: a036 053c 20f9 883c 4cc6 513d e66d 3f3b
00000090: 2a1f c53c 34cf 6ebd 1b71 11bd c17e 003d
000000a0: 02ee 503c c22d 593d a625 80bc 8069 12bc
000000b0: f3a4 71bc 55af 303d 0f3a 1abd aa0b 96bc
000000c0: 14f9 773d 8167 7e3d a71b 5abd ff3d 6e3d
000000d0: 58bc e33c 0248 12bd be27 de3c 00df f83c
000000e0: dfb8 b3bc 17b8 8dbd b758 84bd f970 3e3d
000000f0: 801b 353d 5304 533d 6cdb f2bc e354 c53c
00000100: e622 6ebd cfc4 643c 5acb b33c 85ad 863d
00000110: 809e 053d a69f 7abd 27ef 57ba 8e6c ee3c
00000120: a8fc 653b 6346 09bc 8de0 3c3d 1baa 7fbc
00000130: 480b 7dbd 1adb 8fbd 608f 273d 9ebf 4ebd
00000140: 6f3a 8a3d 398c ae3c 19b7 e33c bc37 673d
00000150: fca4 dcbc 4399 343c e797 7cbd 0795 6e3d
00000160: 7145 54bd ad39 0cb8 957d 343d a383 76bd
00000170: 0645 f7bc 75bf 59bb 73e5 28bd f200 e43c
00000180: 6cd5 3d3d 026c 9c3c 7f3b 0d3d 4afa 04bd
00000190: 6cac 1bbc 75d0 0cbd 1bf7 423d 0803 b03b
000001a0: 6d80 883c ec22 333d 66de 0bbd 8680 d7bc
000001b0: 2b08 733c 736c 18bd e0d2 b8bc 33af 12bd
000001c0: d2d0 463d a3b9 0d3d 0081 ff3c 5b72 713d
000001d0: bcae 223a 2ea9 9dbb ba8c 58bd 8d88 0abc
000001e0: 249c 5a3d 9e84 963b a524 853d a425 883d
000001f0: a31f 2c3d 728e 293d daea 5b3c 6762 843d
00000200: c188 8fbd 9d65 80bd 485e 103a cce1 edbc
00000210: e678 403d f00d 4a3d 5c31 823b 32c3 533b
00000220: 5236 603d f590 74bd 4c0e 793c 3075 163b
00000230: 5af0 103d 82fd 5d3d 87a3 4ebd 71f1 1d3c
00000240: 7a7d 433d 68f6 6d3b 6298 53bd 09f9 b6bc
00000250: 11d1 323d c03f 94bd b058 433c c432 8c3d
00000260: 7207 7b3c 5fcc 0bbd be80 16bc e0fb 53bc
00000270: d4b3 dcbc c99e ad3c 41c9 89bc 5316 afbc
00000280: bcb6 f43c a360 5e3d c66a 8cbd f2e1 543d
00000290: d6f0 69bd 39b2 cf3c a303 f43c ef4d 823c
000002a0: fbfc 40bc 8f3a e73b 4f6a e0bb 0770 3cbd
000002b0: af98 75ba b39b 373b f2c1 62bd 7cc7 aabb
000002c0: 8ad7 5f3d c57f 2f3d e616 883d 2cf2 933c
000002d0: 811f 9b3c 9c5e 18bd c167 44bd b586 12bc
000002e0: f286 ac3c ad92 4f3d 0ac3 b03c 9995 91bd
000002f0: 4ea7 263d 378a 12bd 2e25 37bd 62d6 463d
00000300: d1e7 08bd ca91 123d 84e0 b1ba f8cb a83c
00000310: adbc d13c 51ec 4b3d 5c0a 913c e460 583c
-0.04381576 -0.01949137 0.026913162 -0.041125678 0.043133017 -0.040766787 0.002940147 -0.013810775
0.028837603 -0.013882626 0.055815812 -0.056053106 0.033588152 0.028898118 -0.014692618 -0.010531305
0.041198466 0.023198608 0.06297973 0.064521044 -0.048194386 0.06516782 -0.061205283 -0.05235047
-0.0452322 0.03632225 -0.021324797 -0.06388945 -0.018180478 0.047698613 0.06349328 -0.012274399
0.008130699 0.016720355 0.0512145 0.0029209792 0.024062712 -0.058303073 -0.035508256 0.031370882
0.012752058 0.053022154 -0.015642952 -0.008936286 -0.0147488 0.04313596 -0.037653025 -0.018316109
0.060540274 0.062110428 -0.053249028 0.058164593 0.02779977 -0.035713203 0.02711856 0.030379772
-0.02193874 -0.06919878 -0.064622335 0.046494458 0.04421568 0.051517796 -0.029645644 0.024088329
-0.05813875 0.013962938 0.021947552 0.06576065 0.03262186 -0.06118741 -0.00082372356 0.029104497
0.0035093222 -0.008378598 0.046112586 -0.015604521 -0.061778337 -0.07024212 0.040908217 -0.05047571
0.067494266 0.021307098 0.027797269 0.056449637 -0.02693414 0.011022869 -0.061668303 0.058247592
-0.051824037 -3.3432316e-05 0.044065077 -0.060184132 -0.03018428 -0.003322569 -0.041234445 0.027832482
0.046346113 0.01909447 0.034480568 -0.032465257 -0.009501558 -0.034378488 0.04759894 0.005371455
0.0166628 0.043734476 -0.034147643 -0.026306402 0.01483349 -0.0372128 -0.02256149 -0.035811614
0.04853899 0.034600865 0.031189442 0.05894695 0.0006205847 -0.0048114276 -0.052868582 -0.008455408
0.053371564 0.004593446 0.0650113 0.066478044 0.04202236 0.041395612 0.013422692 0.06464081
-0.070085056 -0.06269381 0.0005507213 -0.029038332 0.046990298 0.049329698 0.0039731693 0.003231239
0.054739304 -0.059708554 0.015201163 0.0022958033 0.035385467 0.054196842 -0.05044892 0.009640084
0.047727086 0.00363102 -0.051658995 -0.022335546 0.043656413 -0.07238722 0.011923 0.0684562
0.015321599 -0.03413045 -0.009185968 -0.01293847 -0.026941217 0.021193879 -0.016819598 -0.02137295
0.02987229 0.05429138 -0.06856303 0.05197329 -0.057114445 0.025353538 0.02978689 0.015906302
-0.011779065 0.0070565413 -0.0068486105 -0.046005275 -0.000936876 0.0028016388 -0.055360742 -0.0052117687
0.054648913 0.04284646 0.066449925 0.018059812 0.01893592 -0.0371996 -0.04795051 -0.0089432495
0.02106044 0.05067699 0.021577377 -0.071086116 0.040686898 -0.035776343 -0.04471319 0.048544295
-0.033424202 0.035783567 -0.0013570939 0.020605072 0.025602663 0.049785916 0.017705135 0.013206694

ment_net.fc1.weight f4 [128, 400]
00000000: d9e2 b2bc 8ee6 3e3d f8a0 edbb dcf3 6c3d
00000010: b7bc 083d 9ac9 19bd cf61 ff3a f9ee 7c3c
00000020: 7298 07bc 6991 1f3c b4f3 86bc 0622 0fbd
00000030: d98c adb8 010e cf3c eb7c 2f3b 929a 883b
00000040: c967 98bc 9f62 a73c 00b1 013c 6dec 49bc
00000050: 3ff0 e7bb 6a2e 243c 892c 043d 4c23 42bd
00000060: add8 0bbc 88d1 b2bc 0e14 203d 42ad 413d
00000070: 165d 2c3c 42db b5bb 646c 0a3d cffd a63c
00000080: 431d c3bc 4a92 02bd 6f63 813c 84f6 30bd
00000090: 3b49 62bc dc46 4fbd 0f46 133d 98eb 2d3d
000000a0: 067c 273c 6837 3b3c 469c 353d d45d 8e3c
000000b0: 4ec8 98bc 5d09 c6bc 1ee5 19bb 0052 863b
000000c0: 796c 473d 1c77 9dbc 8354 1b3d 3723 883c
000000d0: 37ac 18bd f941 3cbd 99e7 c9bb 40a2 ad3c
000000e0: b596 1ebd deb9 aabc 880d 473d 8054 0a3d
000000f0: 1d41 45bd e49e 263d 5ed1 043d 86b6 9439
00000100: 93dc e2ba 05c4 11bc 28a3 473d b68c 3e3d
00000110: a97a c13c d97e e4bc ca65 8d3c 8212 fcbc
00000120: cd60 2b3c 6d4d 7fbc 1860 20bd 54bb b63c
00000130: f883 b13c a697 a8bc 03cb f23b 772d 1abd
00000140: bdcc 22bd 02e6 213d 046c 2abd 3ec2 f5bc
00000150: b022 c3bb 6d5f c1ba bfdd ccbc 8a56 ccbc
00000160: 3e7b a0bc 0052 efbb 2b8b 11bd aeb5 a53c
00000170: 3128 a93a d8ba 25bd 3f10 dd3b e087 3c3b
00000180: d539 293d baf4 f43b 59c2 673c 5b99 d83b
00000190: 1698 523d 2978 93bc 82dd d1bb cf88 f5bc
000001a0: e6d2 09bd 8f75 50bb 72e4 be3c b8d1 2d3a
000001b0: 9f03 bc3b 345f b13c d31d 69bb 60db 9abb
000001c0: dbc4 88bc dae7 af3c e767 03bd bc70 423c
000001d0: ccd3 23bd 72ec 303d e785 9a39 f2ee 0f3b
000001e0: 3cdf 2d3d 26b1 05bd 01ea c4bc 9a46 0cbd
000001f0: fb24 35bc 3ed3 e4bc 0a7c 263b fedc dcbb
00000200: 2e57 39bd 5a3a 123d 70c5 d6bc e858 8a3c
00000210: bbf4 233d 8e01 8b3c d7e9 cabc 628e d83c
00000220: 1bf5 95bc 7e53 91bc e238 b6bc 1cf9 503d
00000230: 05bb 9cbc 1f17 0d3d 8b32 c8bc 5867 563c
00000240: f6a0 14bd df8c b43c b0ea 4f3d dcdd 493c
00000250: 9728 293d 6ac1 173d b5d7 b13c 8780 0b3d
00000260: a33b ca3b 24d8 b03c f195 143d c1b6 473c
00000270: 3ef8 593c 08e6 2bbc f1ce e83c bf01 b73c
00000280: 31ea 5cbc 5433 093d 9fd9 043c 3915 9abc
00000290: a84f 033d c08e 603d 9d76 853b d064 0dbc
000002a0: 59a6 3f3d 519b 013c 9bc6 c1bc d4a3 1bbc
000002b0: 0dc0 1b3d e0ce 003d b549 38bc 92ec f73c
000002c0: d343 193d 358c 57bd 1f08 19bd d224 1ebd
000002d0: 2919 42bc bc98 313d 7696 1ebd 7ded b8bc
000002e0: f40d 33bd b151 14bd 7097 1f3a ce03 e93c
000002f0: 6653 a33c 485b c4ba 6728 003d 8f90 b03c
00000300: a744 a83c fda3 7fbc 4dd9 84bc 576a 973c
00000310: e51b b33c 0f97 97bc a8db e1bc 59d0 18bd
00000320: d9c4 42bc b907 c83b 677b 22bd d74a 3b3d
00000330: 3fc5 a13c 2263 0fbd f0c1 133d 3df8 50bc
00000340: d975 f13c c06d d0bc d88f 973c f78c fbbc
00000350: e6ca acbc debf 55bc 3c55 b5bc 8f5b 54bb
00000360: 41f3 a2bc 2b74 803c a17d 003d 41fb de3c
00000370: b84c 17bd e3dd fd39 cdaf efbc 9fd0 663d
00000380: 43b1 713c dcf7 b63c dd94 c1bc b373 15bc
00000390: 8452 b63b 9ce2 aebc 1c4a b8bc 9127 8d3c
000003a0: ee94 d2bc c23d 49bc 553a 1b3c 797b acbc
000003b0: 76d0 00bd 22e2 263d b89f 19bd 8595 d43c
000003c0: 5b0e 3c3d a2cc f6bc 06a0 95bc caa7 393c
000003d0: 1274 32bd 97b5 ed3c de5a 933c 2e86 26bd
000003e0: 0ba7 fc3c 488c 073c 2ebc 093c 1880 f33b
000003f0: a369 933b c476 7f3b 8030 49bd de84 ec3c
-0.021836685 0.046606593 -0.007251855 0.05784975 0.033383097 -0.037545778 0.0019484105 0.015437835
-0.008276092 0.009739258 -0.016473629 -0.034944557 -8.275518e-05 0.025275232 0.0026777338 0.004168817
-0.018604176 0.020432768 0.007915735 -0.012324435 -0.0070782 0.010020832 0.032269035 -0.047396943
-0.008535546 -0.021828428 0.039081626 0.047284372 0.01052024 -0.005549819 0.033794776 0.020384697
-0.023817664 -0.031877793 0.015794484 -0.043203846 -0.013811405 -0.050604686 0.035955485 0.042461008
0.010222441 0.011426784 0.044338487 0.017378725 -0.0186502 -0.024174387 -0.0023482512 0.0040991306
0.048687432 -0.019221835 0.037922394 0.016618354 -0.037273612 -0.045961354 -0.006161642 0.02119553
-0.038717944 -0.020840582 0.04859689 0.03377199 -0.0481578 0.040678874 0.03242623 0.0002836475
-0.0017308168 -0.008896832 0.048739582 0.04652091 0.02361806 -0.027892517 0.01726045 -0.030770544
0.010460091 -0.015582425 -0.039154142 0.022306122 0.021669373 -0.020580124 0.007409455 -0.037641015
-0.039746035 0.039525993 -0.041606918 -0.029999848 -0.005955063 -0.001475317 -0.02500808 -0.024943609
-0.019590016 -0.0073034763 -0.03553311 0.020228233 0.0012905655 -0.04046139 0.0067463215 0.0028767511
0.04131492 0.0074754627 0.014145457 0.0066100783 0.05141457 -0.018001633 -0.0064045796 -0.029972462
-0.033648394 -0.0031808352 0.02330229 0.0006630677 0.0057377364 0.021651842 -0.0035570755 -0.0047258586
-0.01669543 0.02147286 -0.03208151 0.011867698 -0.039996907 0.04319424 0.00029472934 0.002196249
0.04244922 -0.032639645 -0.024037363 -0.03424702 -0.01105618 -0.02793276 0.0025403523 -0.0067402115
-0.045249157 0.03570018 -0.026217192 0.016888097 0.040028315 0.016968515 -0.024769707 0.02643508
-0.018305352 -0.017740007 -0.02224392 0.05101882 -0.019132147 0.034445878 -0.024438163 0.0130861625
-0.036286317 0.022039829 0.050760925 0.012320962 0.041298475 0.03704969 0.021709302 0.03405812
0.00617166 0.021587439 0.036275808 0.012189568 0.013303814 -0.010491855 0.02841899 0.0223397
-0.01348357 0.033496216 0.008108526 -0.018808948 0.032058388 0.054823637 0.0040729777 -0.008629993
0.0467895 0.0079105655 -0.023654273 -0.009499509 0.03802495 0.03144729 -0.011248042 0.030264173
0.037418198 -0.052623946 -0.03736126 -0.038609333 -0.011846819 0.04335855 -0.03871771 -0.02257418
-0.04371448 -0.03621072 0.00060879346 0.028444197 0.019937228 -0.0014980817 0.03128853 0.021553306
0.020540548 -0.015603063 -0.016216898 0.018483324 0.021863887 -0.018504648 -0.02757056 -0.03730807
-0.011887752 0.0061044362 -0.039668467 0.04572567 0.019747375 -0.03500665 0.036073625 -0.012754497
0.02947514 -0.025442958 0.018501207 -0.030706866 -0.021092843 -0.013046233 -0.02213537 -0.0032403206
-0.019891383 0.015680393 0.03136981 0.027219417 -0.0369384 0.0004842124 -0.029258633 0.0563513
0.014751735 0.022334985 -0.023630554 -0.009121823 0.005564036 -0.02134829 -0.022496276 0.01723078
-0.02570578 -0.012282791 0.009474357 -0.02105497 -0.031448804 0.040743 -0.037505835 0.025950203
0.045912128 -0.030126873 -0.018264782 0.011331508 -0.043567725 0.029017253 0.017987665 -0.040655307
0.030841371 0.008273192 0.008406682 0.0074310414 0.004498677 0.0038980702 -0.04911852 0.02887195

ment_net.fc1.bias f4 [128]
00000000: ed1f 38bd 666d 20bd 14e2 e438 5061 17bd
00000010: 4bc1 273d 00d2 2bbc f3f8 133c 371a 25bd
00000020: d93e 91bc 5c49 cebc 51d3 f6bc e4ec 2b3b
00000030: adc2 88bb 6ba4 22bc 73bf 35bd 16a2 4c3d
00000040: a4fe 38bd 95e5 823c 2d7b afbc 498e 413d
00000050: e8a6 573c 815a 19bc bf15 0ebd cd9a ac3b
00000060: 6f5b 103c 9409 f0bc 5765 ccbc 0a66 dabb
00000070: 82b6 ca3c bd6a 83bc d00e b53c 525d 0a3d
00000080: 0f31 2fbd 00ca 35bd c9d8 123d da67 ac3c
00000090: c76d 593b 1823 113d a22d e83c b4ee 1cbb
000000a0: ab68 80bb a2a1 26bc 2800 9bbb db0e 3d3d
000000b0: 3c7e 06bb a906 a93c 6b81 923c 5ecb 853c
000000c0: f19c a4bc de3c 1fbd 6700 54bc ee5c f3bb
000000d0: 4a33 343c a0c2 3a3d 7720 a13c 43a3 263d
000000e0: 4e55 16bd 7312 bfbc 3099 b9bc 3073 273d
000000f0: f2f3 d43c 1188 2ebc 61c3 183d 900a 84bc
00000100: a20f 42bd 4d00 27bd 0f1a 51bc b128 95bc
00000110: 47bf 6cbc 09cf 363d ddf2 803c 48ca c43c
00000120: 1267 12bd 5214 463d f1c5 b9bc 4821 ca3c
00000130: ff7f f03c 0e1f 923c eaeb 4e3d 322d 1dbd
00000140: 2c16 543d ba30 4ebc cf1c 49bd 4ace 913c
00000150: 7780 3dbd c888 0bbd 8e86 be3c b7d5 2d3d
00000160: 846a ee3c f280 83bc 282c 29bd 6a57 9e3c
00000170: 5cfb eb3a c9e1 473c 8ca3 4b3d ccc3 c8bb
00000180: b939 e93b 10fb 37bd aa17 69bc bf91 88bb
00000190: 61ed 05bd aaed 65bc 39d7 3a3d 7731 32bd
000001a0: d924 f23c 123c 203d 3090 a2bc 7bca d8bc
000001b0: 036b 9ebc ede1 8c3b 1ed4 65bc 81ad b13c
000001c0: a55a 073d 001e aabc 2fb2 4d3d 5cec 153d
000001d0: 846f e03c 159f b73c ff34 2c3d 8bbf 353d
000001e0: 9bf8 943c 0047 2abd 1144 d93c da5e 1d3c
000001f0: f798 16bd 7027 fdbc 35b9 033d adc2 03bd
-0.04495232 -0.03916683 0.000109139975 -0.03695804 0.040955823 -0.01048708 0.009031522 -0.040308204
-0.017730163 -0.025181465 -0.03013006 0.0026233727 -0.004173598 -0.009926896 -0.044372033 0.049959265
-0.04516472 0.015978614 -0.02142104 0.047254834 0.013162352 -0.009359957 -0.034688707 0.005267477
0.008810862 -0.029301442 -0.024950666 -0.006664996 0.02474523 -0.016042108 0.02210179 0.033780403
-0.042771395 -0.044382095 0.035851274 0.021045614 0.0033177005 0.03543386 0.028342072 -0.002394599
-0.0039187274 -0.010170372 -0.0047302432 0.046156745 -0.002052202 0.020633059 0.017883977 0.016332325
-0.020094367 -0.038876407 -0.012939549 -0.0074268496 0.010998556 0.045595765 0.0196688 0.040683042
-0.036702447 -0.023324227 -0.022656053 0.040881336 0.025995228 -0.010652558 0.037295703 -0.016118318
-0.04737819 -0.04077177 -0.0127625605 -0.01820788 -0.014449901 0.044631038 0.015740806 0.024022236
-0.035742827 0.048359223 -0.022677394 0.024674073 0.029357908 0.017837074 0.050517954 -0.03837318
0.051778957 -0.0125848595 -0.04909974 0.017798562 -0.04626509 -0.03406599 0.02325752 0.042440142
0.029103525 -0.016052697 -0.041301876 0.019328792 0.0018003988 0.0121998275 0.049716517 -0.0061268564
0.007117477 -0.044917166 -0.014226833 -0.004167765 -0.032697085 -0.014033714 0.04561541 -0.043504205
0.029558586 0.039119788 -0.019844145 -0.026463738 -0.019338137 0.0042993934 -0.014027623 0.021689178
0.03304543 -0.020766258 0.050218757 0.036602363 0.027396925 0.022414723 0.04204273 0.044372123
0.01818495 -0.041571617 0.026521714 0.009605134 -0.036766972 -0.030902594 0.03215905 -0.03216808

ment_net.fc2.weight f4 [6, 128]
00000000: 8801 b4bd cfa9 11bc 3dc9 0e3d eb7e 9abd
00000010: 7eb6 b4bd e113 a5bd c983 ec3c 3c25 4cbc
00000020: 859a 82bd 0515 dfbd 7925 abbd 3048 9bbd
00000030: 1e8b 033d 453c 383d 4014 60bd 075a b7bb
00000040: 63d7 d93c f75c b3bd 6889 0e3b 098f 91bd
00000050: 8899 24bd c4c6 96bd 9a10 dd3c 90d7 5ebc
00000060: 4f31 debd 292b 00bc fccf d8bc cfbf 5fbd
00000070: 1c47 06bd ee7f 0ebd 7622 29bc cfe6 5fbb
00000080: fa73 3bbd 3138 533d 5952 3c3d 812c dbbd
00000090: 34d7 43bd f183 9fbd 1d90 63bd 3b03 a9bd
000000a0: d6f3 413b 8a7f ba3c ffbc 833d 3a3f b8bc
000000b0: 12bf 4d3d b3eb 0d3c 9821 103d 2e05 783c
000000c0: 0a1e 3e3d 5a1d ebbd 91b1 1fbd eece a3bd
000000d0: 37de 9abc 0c51 48bc c25c 783d 6f88 823d
000000e0: 7696 abba eb80 713b 911a efbc 161e 8dba
000000f0: b4c5 b4bd dc0e 343d 5903 643d ca29 f33c
00000100: a203 02bc 2cff ee3c b1db a1bd 6d97 e83c
00000110: df4e 1bbd 96cd 1fbd cb07 5a3d 8c13 debd
00000120: 696a 4abd c709 afbc fa08 63bb 21ed 123d
00000130: 077d e6bd 5f0c a7bd 169f 67bd c940 783c
00000140: 4858 ebbd 6486 e7bd bf01 03bc bfbe 94bd
00000150: 8fe7 f9bc 035a 3f3c 5d96 bbbd 5824 833c
00000160: 0260 47bd 1b72 443d b2f1 00bd 76e1 553d
00000170: 4321 433c 9cc5 e93c a725 573d 4b9c 623c
00000180: bd3e 0ebd e33a 8cbd 383f a4bd 2150 28bd
00000190: d532 aabd 2836 603d f778 343b b3c2 81bd
000001a0: 4d74 7f3d dbb2 9ebd d284 8abd ed7e a13d
000001b0: 7073 c4bd 8390 5a3d 949f 66bd bfee d7bc
000001c0: 5552 35bc 1a4c 4a3d a853 463d 19fb 893c
000001d0: ca24 61bc d66e 23bd 9bf5 52bd 6326 0fbd
000001e0: debd a43c fe50 9c3b 7413 e3bd 0fc4 aeba
000001f0: 8f0e 1cbd f070 413d a253 883d 27fd 833d
00000200: f67a 1f3d 6f23 703a 7f04 46bc 1f76 74bc
00000210: 5202 a8bd 3562 b93d bf31 813c 3f33 243c
00000220: 8ab5 073d 0144 98bd 6b42 883d c635 7cbd
00000230: c547 4e3d eb32 703c 8369 a93d 5830 dfbb
00000240: 33f2 b03d cd49 6ebd 0a1e 14bc 942f 67bd
00000250: 8984 9b3d 1311 c9bd 0351 173d 2282 aabd
00000260: 5b0f 223d 5f20 48bd a391 a53d 29cb a3bc
00000270: 2298 6e3d 8c09 ddbb f8e4 0d3d 5959 af3c
00000280: 69e7 883a 5990 2dbc 3a40 003d 3178 783c
00000290: 14d4 683d 54a6 babd 5602 7dbc 55d9 68bd
000002a0: 4d04 83bd 0090 7b3d 0de7 423d 2982 b13d
000002b0: 18c5 143d e9fe 45bd 9099 823d cbd2 213d
000002c0: 8863 df3c c5cb 23bd c4c3 ca3c 58c6 88bc
000002d0: c740 49bc 535b 00bc 12fb 463d 50dd 89bc
000002e0: cf03 37bd 213a b43d 13c6 ad3c 1440 fdbc
000002f0: 617b f0bb 672a 5c3d 286f 383d 02c0 c93c
00000300: 0b4d 453d 9a67 ad3b 239e 58bd eb6b 2e3c
00000310: 8202 bc3d d093 ed3c 473d 64bc 73e1 3abd
00000320: 687a 893c 4a63 2b3d f2e9 26bc 2a43 a63d
00000330: 2e8a 7ebd fd5a 1bbd f9b1 25bb 1462 71bd
00000340: c0a2 693c 5cc7 aabd de3a 4d3d a8bf 90bd
00000350: 138d 3abc 9d2b 903d c4eb 533d 9000 023d
00000360: 1e8d b1bd 04ef b7bd f423 9ebc 3dde 9ebd
00000370: 7192 633d 9244 a93d efda dbbc 2cf1 653d
00000380: 0685 89bb 8c7b c5bd 1c45 6dbc ad0c 603c
00000390: 509e 323d a474 773d 2b76 053b 009b ae3d
000003a0: 6f61 b8bd 4d69 8dbd a1b1 163d e00b a03d
000003b0: 1a1d b8bd b035 05bd 2d16 6fbc 46a2 d9bd
000003c0: 65f4 4a3c 54ed 123d 2b53 92bd f2b5 bd3c
000003d0: 35d8 9abd e1cc 9d3c 9489 85bd d3db 663d
000003e0: a541 7bbd 29a9 b2bd 2274 9d3c ae93 ef3c
000003f0: f9a7 7fbd baf0 38bd f491 ee3c 7c94 e5bc
-0.087893546 -0.008890583 0.034859885 -0.07543739 -0.0882387 -0.08060432 0.028871434 -0.012460049
-0.063771285 -0.10892681 -0.08356757 -0.07582128 0.032115094 0.044979353 -0.054706812 -0.005595449
0.026591962 -0.08757966 0.002174938 -0.0710736 -0.04018548 -0.0736213 0.026985455 -0.013601199
-0.108492486 -0.00782279 -0.026466362 -0.054626282 -0.03278266 -0.034789972 -0.0103231575 -0.0034164672
-0.0457649 0.05156726 0.04597697 -0.10701848 -0.047812656 -0.07788838 -0.05555736 -0.08252569
0.00295948 0.022765893 0.064325325 -0.022491086 0.050231047 0.008662152 0.035188287 0.015137954
0.046415366 -0.11480208 -0.0389877 -0.07998453 -0.018904788 -0.012226354 0.060635336 0.06373679
-0.0013091106 0.0036850523 -0.029187473 -0.0010766413 -0.088267714 0.043959484 0.055667255 0.029683013
-0.007935436 0.02917441 -0.07903231 0.028392518 -0.037917014 -0.03901442 0.05323009 -0.10843572
-0.049417887 -0.021366967 -0.0034642802 0.035870675 -0.11254316 -0.081566565 -0.0565482 0.015152165
-0.11491448 -0.1130493 -0.007996022 -0.072629444 -0.030505924 0.011679175 -0.09159539 0.016008541
-0.048675545 0.047960382 -0.0314805 0.05221697 0.011909786 0.02853661 0.052526142 0.013831208
-0.0347278 -0.06847169 -0.080198705 -0.041092042 -0.08310477 0.054739147 0.002753792 -0.06335964
0.062366772 -0.07748958 -0.06763615 0.07885537 -0.095923305 0.053360473 -0.05630453 -0.02635896
-0.011066993 0.049388982 0.048419625 0.016843366 -0.013741681 -0.039900623 -0.05150376 -0.034948718
0.020110067 0.004770397 -0.11087695 -0.0013333576 -0.03809982 0.047226846 0.06656577 0.06444769
0.038935624 0.00091605535 -0.012086033 -0.01492074 -0.082035676 0.09051935 0.015770791 0.010021984
0.033132114 -0.07434846 0.06653293 -0.06157472 0.050361414 0.014660577 0.08272078 -0.006811183
0.08639946 -0.05817585 -0.009040365 -0.05644186 0.075936384 -0.0981771 0.036942493 -0.08325602
0.039565425 -0.048858996 0.080844186 -0.019994335 0.058250554 -0.006745523 0.03464219 0.021404909
0.0010444942 -0.010593497 0.03131125 0.015165375 0.05684288 -0.09113756 -0.015442451 -0.05684789
-0.06397305 0.061416626 0.04758363 0.08667404 0.036320776 -0.048338804 0.06376946 0.03950767
0.02726914 -0.03998925 0.024751551 -0.01669614 -0.0122835105 -0.007834273 0.048579283 -0.016829163
-0.044681367 0.0880015 0.021212613 -0.030914344 -0.0073389267 0.053751376 0.04502788 0.02462769
0.048169177 0.0052918913 -0.052885186 0.010645847 0.09180166 0.029001147 -0.013930625 -0.04562516
0.016782 0.041842736 -0.010187613 0.08118279 -0.062143497 -0.03792857 -0.0025283082 -0.058931425
0.014259994 -0.08338806 0.05010497 -0.070678055 -0.011386174 0.070395686 0.051738515 0.031738818
-0.08669494 -0.089811355 -0.019304253 -0.07757232 0.05555958 0.08265032 -0.026837794 0.056138203
-0.004196766 -0.09642705 -0.014481809 0.013674897 0.04360801 0.06041397 0.0020364623 0.08525658
-0.09002959 -0.0690485 0.036790494 0.07814765 -0.08989926 -0.032521904 -0.014592689 -0.10626654
0.01238737 0.035870865 -0.07144769 0.023158047 -0.075607695 0.019262733 -0.065203816 0.056361984
-0.0613419 -0.08723671 0.019220416 0.029245224 -0.06241605 -0.04515145 0.02912233 -0.028024904

ment_net.fc2.bias f4 [6]
00000000: d9ba 9cbc 4e36 8a3d fce4 2cbd 0727 383d
00000010: 2cd6 afbd 8ca5 8bbc
-0.019132065 0.06748639 -0.042210564 0.044959094 -0.08585772 -0.017046712
