models/SortingHat_4.pt (torch, 539326 bytes, 9 tensors)

statembed_net.fc1.weight f4 [1, 768]
00000000: 208e 033c 58b8 a0bc 7a3b 72bc 596d 913c
00000010: a79e 563b 19ed 33bc 8584 303c 03a7 543c
00000020: a151 43bb 65cc b43c 8fe4 463c fabb c4bb
00000030: fd66 f7b9 1719 0abc 4b74 14bc 99e0 c5bc
00000040: 7263 09bd b005 98bc 20d5 873c 72ac 51bd
00000050: cdab 11bd ba42 723a 80f2 ddbc 85d3 0abd
00000060: 3f8b 92bc 4f14 d53c 95a8 aabc 02eb cabc
00000070: 54e7 ee3b 6328 91bb ab86 c53c 0572 343c
00000080: f118 4fbc ab10 0e3d 5b78 17bd 8cd3 cfbc
00000090: 600d 9fbc 0d5a bb3c b231 c1bc fb07 a5bc
000000a0: 4bfc 283b 5aa9 11bd 3d4e 163c 4693 a7ba
000000b0: 616c 43bc 5af8 0e3d 2f8b 103c 15df 4e3d
000000c0: 642e 19bd 655b b03c c774 8d3a 043e 583b
000000d0: 1c21 283d 5092 cd3c d144 cebc cb5c 3bbd
000000e0: 4b1d 84bc 6ddd 233b d9e4 8dbb c9e0 1bbd
000000f0: b77f fd3b bc7b c8bc 3b34 d43c 8ba8 e03b
00000100: 5f0e 5c3d 2372 cf3c 589b 0c3d e303 9abc
00000110: 9948 c93c 9d73 47bc 54fa 4f3c a564 0cbd
00000120: 2e9b 033d bd8f f8bb ff28 7bbc 3244 52bc
00000130: bb9c f83c 2609 5ebc 0416 133d 1f35 1c3c
00000140: e601 963c cf56 14bd afad f239 c47f 4cbd
00000150: cf1f 10b9 7dca d0bb bea9 0e3a 6ce2 a83c
00000160: 6a13 c0bb 0cbe 80bc d6ab edbc a745 3e3d
00000170: 4291 14bc 6773 583c 24d4 1ebd 6045 65bc
00000180: 8ac2 36bd ae1e 26bd 5c1c dfb9 ca6e 2ebd
00000190: 12e4 12bd 6cbc 52bc 4bd0 1cbd 5e54 0e3c
000001a0: 3443 3bbb c5b8 a6bc f91b 083d 7047 63bc
000001b0: 7f8c b6bc 575c 19bd 8349 9ebc ebb0 333b
000001c0: 3d28 c1bc f3da 1a3d 6d1c 34bd 09de 313a
000001d0: cf92 e03c 93e4 fcbc 51f2 84bc da33 bf3c
000001e0: df9d 10bd f165 93bc 3733 0a3c 1ee1 b0bc
000001f0: ac5a 22bc b4f0 2fbb f5aa aabc 6b53 08bd
00000200: beb0 5d3c 008e 893c 9f2d 0fbc 0005 87bc
00000210: 8db7 393d 7729 183d 050d 303d d30f ee3c
00000220: 3f7b 8c3c 81fc 353d c5ca e93c d484 803c
00000230: 45cf 323a f586 3f3d fc42 033d d9bb 1c3c
00000240: 1d2b c2bc b631 36bd 4488 e63b bc4d cabc
00000250: b973 f8bc 45ab 23bd 90e5 fd3b f3f4 b3bc
00000260: b2a0 d53c bf14 9bbc 855f b1bb 1f94 aabc
00000270: 5060 3fbc 3745 2abd 1076 373d 9a95 d5bc
00000280: 7ed1 103b fd7c 5e3c f702 173d 33c6 3cbd
00000290: 1053 a0bc 90dd 72bc 881f c33c 9857 af3c
000002a0: 884d ef3c 62bb 663b 8d33 c23c 43a6 dbbc
000002b0: a21c a13b 075b 903c cd3c 193d 883f 19bd
000002c0: 7f48 8c3c 7436 86bc 59b2 50bd 49ae c23c
000002d0: a655 433c fb05 82bc 4b19 313c 0dbf e7bb
000002e0: dd18 2c3d 8f9e d23c e8b9 483c d2dd 923c
000002f0: 6352 963b 7d1c 82bc 2ef6 39bd 3e22 38bd
00000300: 9d4d 193d 90a6 90bc f977 aebb 37dc e9bb
00000310: 52b7 81bb 3b6d afbc f21f a5bc d041 abbb
00000320: 0f2f 9c3c 0815 f2bc f5b8 233d 57cc 933c
00000330: c47d 03bd c45f f43c eb3e 823c 46ad cfbc
00000340: cbc3 daba a664 803c 1fc5 06bc 1b83 96bc
00000350: d3c8 f43c 262d 1cbd d125 bd3c 1c9e 543c
00000360: 2471 b5bc 2605 873c 9f86 8fbc 9bdd dc3c
00000370: a6c5 90bc 468b f53b 0413 ea3b 46fd d2bc
00000380: 8998 11bb a165 4cbd 7ba1 0bbd 009b e2bc
00000390: 4fca ea3b 6f91 313c ce05 2cbd 4e3f 18bc
000003a0: 8b80 f63c 320c 1cbd 58f8 6a3c dc6d 193d
000003b0: 9c6e 6aba f827 1bba 40cd a73c 6859 3f3d
000003c0: 5e80 3c3c 8775 983c 31f6 18bd f112 0d3d
000003d0: c898 ffbc c995 e7bc 812b fdbc eace 38bd
000003e0: 5c48 d1bc 5a5f 353d 91cf bdbc 0ebe c93c
000003f0: a0a6 94bb 066c f53c 0beb dbbc 0810 b23b
0.008029491 -0.019619152 -0.014784688 0.017752336 0.0032748373 -0.010981821 0.010773783 0.012979272
-0.0029803293 0.02207012 0.012139454 -0.006003854 -0.00047188243 -0.008428833 -0.0090609295 -0.024154948
-0.033542104 -0.0185574 0.016581118 -0.051189847 -0.035564233 0.00092415104 -0.027093172 -0.033893127
-0.017888663 0.02601066 -0.02083234 -0.024770264 0.00729076 -0.0044298633 0.024112066 0.0110135125
-0.012640224 0.034683865 -0.036980014 -0.025369428 -0.019415557 0.022870088 -0.023583267 -0.020145407
0.0025785144 -0.035561897 0.009173927 -0.001278498 -0.011927695 0.034904815 0.008822246 0.050505716
-0.037397757 0.021527955 0.0010792249 0.0032995949 0.0410472 0.025094181 -0.025179299 -0.04574279
-0.01612725 0.0025003806 -0.0043302593 -0.03805617 0.007736172 -0.024473064 0.025903812 0.0068560294
0.053724643 0.02532298 0.034327835 -0.018800681 0.02457075 -0.01217356 0.01269396 -0.03427567
0.032130413 -0.0075854943 -0.015329598 -0.012833642 0.030348172 -0.013551986 0.035909668 0.009534149
0.018311452 -0.0362156 0.0004628724 -0.049926534 -0.0001374476 -0.0063717947 0.00054421637 0.020615779
-0.0058616893 -0.015715621 -0.029012602 0.046453144 -0.009067835 0.013211108 -0.03877653 -0.013993591
-0.04461912 -0.040556602 -0.00042555004 -0.042586125 -0.035862036 -0.012862306 -0.03828458 0.008687107
-0.0028573992 -0.020351777 0.0332298 -0.0138720125 -0.02228379 -0.037441578 -0.019322162 0.0027418684
-0.023578757 0.037806462 -0.04397242 0.00067851 0.027413754 -0.030870711 -0.016228827 0.023340154
-0.035306808 -0.017992945 0.008435062 -0.02159172 -0.009909313 -0.002684635 -0.020833472 -0.03328268
0.013530908 0.016791344 -0.008738904 -0.016481876 0.045341063 0.03714892 0.042981166 0.02906028
0.017148612 0.04443026 0.02853907 0.015688337 0.00068210467 0.046759564 0.032046303 0.009566271
-0.023702199 -0.044481 0.007035287 -0.02469527 -0.030328618 -0.039958257 0.0077483132 -0.021967387
0.026077602 -0.018930791 -0.005412998 -0.020822583 -0.0116806775 -0.041569915 0.044790328 -0.026072312
0.0022097523 0.013579604 0.036868062 -0.046087455 -0.019570857 -0.014823332 0.023818746 0.021404073
0.029211774 0.0035206904 0.023706222 -0.026812678 0.0049167434 0.01762153 0.0374115 -0.037414104
0.017124413 -0.016383387 -0.050951336 0.023764746 0.011922276 -0.015871992 0.010809253 -0.0070723356
0.0420159 0.025710372 0.012251355 0.017928038 0.004587458 -0.015882725 -0.04540079 -0.04495453
0.037427533 -0.017657548 -0.0053243604 -0.0071368474 -0.003958621 -0.02141439 -0.020156834 -0.0052263513
0.019065408 -0.029551044 0.03997131 0.018041773 -0.03210236 0.02983082 0.015899142 -0.025351178
-0.0016690431 0.015672993 -0.008225708 -0.018373063 0.029880917 -0.038128994 0.023089321 0.012977149
-0.022148676 0.016481947 -0.017520247 0.026961138 -0.017672371 0.0074934093 0.00714338 -0.025755536
-0.0022216162 -0.04990161 -0.034089547 -0.0276618 0.0071652303 0.010837897 -0.041997723 -0.009292437
0.030090591 -0.038097568 0.014341436 0.037458286 -0.00089428737 -0.00059187366 0.020483613 0.046716124
0.0115052145 0.018610729 -0.03734416 0.034441892 -0.031200781 -0.028269665 -0.030904533 -0.045119204
-0.025547199 0.044280387 -0.023170264 0.024626758 -0.004536465 0.029958736 -0.026845476 0.00543404

chara_net.RNN.weight_ih_l0 f4 [200, 203]
00000000: 85d5 66bc c3d2 123d 6436 0ebd c10c e93b
00000010: 7aef 593d 4a76 d13b 24b5 313d 8a9b 1c3d
00000020: 2da4 583d f4cd 32bd a582 c53c 48a4 5ebd
00000030: ba86 8a3d 7a8f 8bbc 73a7 ddbc 9177 08bd
00000040: 46ce 2abc 26ac c1bc 46a9 fcbb 426d aeba
00000050: c229 8abc 2e2f d53c 406d 63bd 6219 3dbd
00000060: fdb3 8bbd b486 13bd 9a41 39bd 89d6 923d
00000070: 4cb1 16bd 4ebe 533d a0a9 373c 0f34 1abd
00000080: 7137 69bd 1b73 7f3d 0a01 6bbc ff23 483d
00000090: a1b3 2b38 bc22 163d f265 90bc a500 043d
000000a0: b0a1 f13b 7ca5 c0bc 15de 8f3d 801b 373c
000000b0: 45c6 18bd 3f3c 293d cc52 e2bb a9f2 163c
000000c0: 51a9 a23c e5f4 13bc 0b03 e33c 5edd 903d
000000d0: 06fc 923d 277f 833d 00d2 8b3d 5e50 253d
000000e0: 674e 343d 084f 603d 9d87 863a 6dc9 b4bc
000000f0: 884f 75bd be2c 76bd 8b62 6f3d 006b f83c
00000100: 4f46 353b 3534 5f3d cf42 343d bd8f 25bd
00000110: cffc 403d 318c 0e3d c6df 06bd b7fe b03b
00000120: 6acb 1f3d 85ff 393c b491 4abd 6fb1 49bd
00000130: 5802 2b3d b386 5abd c124 4cbc 6bc1 1e3d
00000140: 786b 523d 8d01 283d c644 113b 2d1e 2a3d
00000150: 052a 1f3d a8d2 383d b57d cf3c 1790 7ebb
00000160: a54d d63c 3533 e5bb bc5a 803d edb0 13bd
00000170: 73ef d43c ae31 68bd e6b0 7f3d 4954 e43c
00000180: 4535 873d e0e3 88bd b1a3 28bd 5e14 4fbc
00000190: 9094 113d 394d 5e3d 4bd5 0abd 422b 803d
000001a0: 345a b7bc 7c52 833d cf1d 373b f2b0 82bd
000001b0: 94d5 83bb d542 fd3c 6791 fb3a fd45 f13b
000001c0: 7da6 673d e223 a8bc 6f7b ec3c 4161 133d
000001d0: 1b28 fc3c 0aa5 19bd d21e 1d3d 230a 20bc
000001e0: 0be0 c1bc 4145 62bd d26f 323c c39a ee3c
000001f0: dc47 d9bc 0205 823c b3a2 0dbb 212d c3bc
00000200: 9748 023d 6f58 173d 4660 9d3c 3d92 013d
00000210: 888d d1b9 fdf6 533d 434c b03b 3e44 7abd
00000220: dd9b 8ebd 120d 6abc ffb8 233d 3f8c 87bd
00000230: ab75 6b3d a8e3 77bd 54b5 843d 4979 e5bc
00000240: 4a90 b7bc 3525 8abd 2785 293d bfeb 0ebd
00000250: 338c 77bd c057 863d 99a2 b73c 4ebf 4f3d
00000260: f015 97bc 7aec 543c 2f38 093d c980 42bd
00000270: fb4f 49bd 8d11 5abb c2e7 87bc f30f 0f3c
00000280: c2d3 54bd d0e0 7f3d a3fd 553b 216b 87bd
00000290: 88fe 633d bfa0 853d 0c0e 0d3d 7918 ddbc
000002a0: 6aa0 893c 1099 3cbc dfaf 753d f53c abbc
000002b0: 692d f23b a61e 863c a3a4 453d 2113 edbc
000002c0: 7aa4 c5bc dc0f 58bd f9bd a7bc 7384 023d
000002d0: 4d70 3e3d 33f1 8dbd fdc8 a33b 8149 243d
000002e0: b9f9 283d 6f62 f53c 6036 05bd 2285 373d
000002f0: 069a 92bc 57c1 4fbd da58 94bd 6ced 493d
00000300: b474 15bb 9ca7 9fbc 99c5 7f3d 6651 8b3d
00000310: c51d c13c 3e56 f63c 528f ab3c 5458 5a3d
00000320: 9c81 7c3c b36b d83b 1784 6a3d cc14 06bd
00000330: 0031 26bd e376 28bd b7c8 e73c 3cd0 523d
00000340: 7488 0e3d 0503 1b3b 13ad 11bd b379 91bc
00000350: 5363 e3bc af05 4dbc ad88 8ebd 1fec 693d
00000360: 5433 f7bb 70b3 61bd 097b fbba cbd2 0fbc
00000370: 6707 0b3d 6515 8cbd 6aaf 7d3d eaf7 82bd
00000380: 900f 7d3d 6307 febc cf55 fdbc 6423 cfbc
00000390: 667a 923a f52b f23c cb5e 223d d1ca 7b3d
000003a0: 39cd 8abd 80cc c93b d83d 92bc a59d 263d
000003b0: b1f4 59bc 9ad4 38bb 2c32 d13c 63f4 61bb
000003c0: 340f 7c3d 3858 983d 9e78 023d 6179 563c
000003d0: 530e f2bc 027d 373a 7221 ddbb 8433 0a3c
000003e0: f3d8 033d 506e 8aba 4b66 dbbc 50db 103d
000003f0: 88a4 8dbd db38 63bd 9a15 213c c6d6 4dbd
-0.014088993 0.03584553 -0.03471984 0.007112116 0.0532069 0.006392275 0.04338564 0.03823427
0.052890945 -0.043653443 0.024110148 -0.05435589 0.06763978 -0.017036188 -0.027057385 -0.033317152
-0.010425156 -0.023641657 -0.0077106087 -0.0013307708 -0.016865615 0.026023474 -0.05552411 -0.046166785
-0.068214394 -0.036017135 -0.04522858 0.071698256 -0.036790177 0.05169516 0.011209875 -0.037647303
-0.05693764 0.062365633 -0.014343509 0.048862454 4.093687e-05 0.03665422 -0.017626736 0.032227177
0.007374011 -0.02351641 0.07024781 0.01117599 -0.03729846 0.04131722 -0.006906843 0.009213128
0.019856127 -0.009030555 0.027711412 0.070734724 0.07176976 0.06420737 0.06827164 0.040359847
0.044020083 0.05476287 0.0010263805 -0.022068704 -0.0598903 -0.060101263 0.058443587 0.03032446
0.0027660315 0.054493148 0.044009026 -0.040420283 0.047116097 0.034801666 -0.03292825 0.005401458
0.03901235 0.0113524245 -0.04945536 -0.04924148 0.041750282 -0.053351115 -0.012459935 0.038758676
0.05137202 0.041017104 0.0022166236 0.041532684 0.038858432 0.045122772 0.025328496 -0.0038843208
0.02616007 -0.0069946297 0.06267306 -0.0360574 0.025993085 -0.056688003 0.062424563 0.027872222
0.06601957 -0.06684089 -0.041171733 -0.012639133 0.03554207 0.054272864 -0.03389482 0.06258251
-0.02238188 0.06412217 0.0027941351 -0.06381406 -0.004023263 0.030915657 0.0019193114 0.0073630796
0.05655526 -0.020524923 0.028867451 0.03598142 0.030780843 -0.03751091 0.03835947 -0.009768042
-0.023666402 -0.055241827 0.010890918 0.02912653 -0.026523523 0.015871529 -0.002161187 -0.02382523
0.03180751 0.03694957 0.019210946 0.031633604 -0.00039969035 0.05174922 0.005380185 -0.061100237
-0.06963322 -0.014285343 0.039971348 -0.06618547 0.057485264 -0.060519844 0.06479898 -0.028011935
-0.02240767 -0.06745378 0.04138675 -0.034892794 -0.06043644 0.06559706 0.0224164 0.05071955
-0.018443078 0.0129958335 0.033500846 -0.0474861 -0.04914854 -0.0033274621 -0.016590003 0.00873183
-0.05195976 0.062470257 0.00326524 -0.0661223 0.05566266 0.065248005 0.034437224 -0.026989209
0.016800124 -0.011511102 0.059982177 -0.02090309 0.007390667 0.016372036 0.048252713 -0.028939785
-0.02412628 -0.0527495 -0.020476328 0.031864595 0.046493817 -0.06930771 0.004998325 0.04010916
0.04125378 0.029954163 -0.03252256 0.0448047 -0.01789571 -0.050721493 -0.072435096 0.04929869
-0.0022805156 -0.019489102 0.062444303 0.06802635 0.023573766 0.03007042 0.020942364 0.053306893
0.015411761 0.0066046356 0.057254877 -0.032734677 -0.040574074 -0.041129004 0.02829395 0.05146812
0.0347981 0.0023652923 -0.035565447 -0.017758226 -0.027757322 -0.012513562 -0.069596626 0.05710995
-0.0075439606 -0.055102766 -0.0019186448 -0.008778284 0.033942606 -0.06840018 0.061934866 -0.06394942
0.06178242 -0.031009382 -0.030924706 -0.02528543 0.0011175394 0.029561976 0.039641183 0.061472718
-0.06777424 0.0061584115 -0.017851755 0.040677685 -0.013302968 -0.0028202892 0.02553662 -0.0034477941
0.061537936 0.074387014 0.03185331 0.013090462 -0.029547846 0.00069995236 -0.0067483718 0.008435134
0.03218932 -0.001056144 -0.026782176 0.035365403 -0.069161475 -0.055474143 0.00983181 -0.050253652

chara_net.RNN.weight_hh_l0 f4 [200, 200]
00000000: 39c9 0f3d 7cba 043d 49cd 25bd beab 0dbd
00000010: 28f4 85bd 611e 433d 978c 4c3d 4db3 1bbc
00000020: 01e5 26bd 881f 4e3d 86b2 cfbb 3e35 06bd
00000030: bbca 533d e1b8 8a39 8526 7e3d e7f4 2b3d
00000040: 4a4d 613d c95f 6c3d 959d 8cbc a93a 5d3d
00000050: fa49 86bd 4c3d 89bc 6d0d d7bc 48e6 70bb
00000060: b7dd 1b3c 9eac 723c 39bc 7bbd dadc 733d
00000070: e8bb 883d d580 8cbc 27f1 74bd d121 a5bc
00000080: d1f0 e6bc 7b9f b7bb 59a0 87bd 1ad1 7fbd
00000090: cf04 b0bb 161e 133d dedb 1a3d 3a5a 5fbd
000000a0: fe67 2b3d a615 623d 16f9 61bd 9fcf 50bd
000000b0: e98c 86bd f707 77bb fed4 d63b dfc3 7a3d
000000c0: e250 8ebd b33e d23c 2a6a 783d 065b f43c
000000d0: 8d86 2ebd 9627 5bbd ac11 66bd ba39 06bc
000000e0: b784 48bd 6c4e a63c 9271 2fbd 37a0 173c
000000f0: 5579 90bc 56b1 2f3c ac2f eabc c30e de3c
00000100: 83ac 8d3d 8867 473d 899b 6b3d d636 ffbc
00000110: e84d 1b3c e2cc da3b c4a4 28bd 5a2a cd3c
00000120: 2f1b fa3c c976 c03c 4f2f babc e333 82bd
00000130: d7a5 513d c29c 05bd 22bb babc f275 803d
00000140: e0e1 26bd 08a6 8bbb a65d 91bd b2b0 33bd
00000150: 4d8f 22bd 3ac5 5dbd 1795 723d 09c7 a63c
00000160: a432 b23c 27b4 f83c e7d7 01bd 4f7b 0c3d
00000170: 025c 443d 16e8 8b3d b04b bc3c 771b e03c
00000180: 1dca 7c3d 3fe2 713d aea9 883d 3bd5 31bd
00000190: 23dc 3a3c ce9d 4ebd 142c 083d 9916 8bbd
000001a0: 000a 2f3c bfd0 1bbd 945b 91bd c30d 623d
000001b0: f51d 403d 7d82 653b eb59 63bd ec11 0e3c
000001c0: b224 023d a846 a23c 205b fdbb 65e2 883d
000001d0: b388 c4bc f352 8abd 87a8 483b 54fb 71bc
000001e0: 567f 6bbc 38e1 13bc ecd4 833d 132d f2bc
000001f0: 6601 8bbd 2184 46bd 753d 19bb c273 c73c
00000200: 4dc9 663d c706 263d 5a6e 153d 308c 6b3d
00000210: 1d76 3c3c 2904 893c 0b7e 4b3d 403c f4bc
00000220: 48f2 4b3d a1dd a8bb e24c a5bc 2380 1cbd
00000230: c3c6 203d 8e8a 2d3d f56d 8dbd 6490 fdbc
00000240: d3d5 9bbb 43c4 113c 2097 5d3d b5f5 bcba
00000250: 11e9 4c3d 57e1 30bc be04 c9bc 7267 513d
00000260: f3e6 35bc 50c6 103d e93f c4bc 7698 8e3d
00000270: 967d f63c 3d0a 2d3d a981 123c eabf 463d
00000280: bb28 37bd bdf7 ed3c 84f8 30bd b802 3fbd
00000290: fdf8 c03c 601f 793d 6791 47bd 3f5d 89bd
000002a0: b44a 823d 3c45 753d bcf4 8e3c 9105 60bd
000002b0: 26b3 8d3c 1c68 833d 459c 60bd 8677 2c3d
000002c0: 8327 513d 71aa cbbc bd58 503d 95e5 4cbb
000002d0: ac18 e8bc 29d6 3b3d 532b 1abd cdbc 8c3d
000002e0: 9a1a 84bb 0f46 553d da15 783d a2b6 463c
000002f0: 9ccc de3c 11d2 2bbd 35f5 723c b9bc 91bd
00000300: 665a 4e3d fae0 0bbd a595 25bc ba38 e73c
00000310: 2f42 4bbd 6e0f 1a3c a335 903c 6edb 4ebd
00000320: 7f76 e73b a83d e73c 470b 61bd 7466 09bd
00000330: 517c 87bd 99ad 833c cbb2 19bd ee88 943d
00000340: 009e bebc c994 103d 17b7 873d b974 0d3d
00000350: eec0 22bc 9c7e 2dbc 868e 0cbc 9c63 82bc
00000360: f6c2 3abd 9c83 19bd 5574 2dbd 66af 573c
00000370: d0e4 cb3b 445f 4b3d 628a 183d 7a0a a43d
00000380: 4570 7fbd 7d01 cfbc 930c a4bc a0e4 2c3d
00000390: 20b0 733d 5ec1 2ebd 867a 48bd 25b4 d4b9
000003a0: 9f1f 383d 20b3 533c 4a96 93bc 74bb 8fbd
000003b0: d630 f43a ecd4 37bd 099c 61bd b26d 15bd
000003c0: ee61 65bc e443 753d f139 1b3d 13bb ed3b
000003d0: 2a64 883d 97d2 4a3d b13e d43c 6f96 33bd
000003e0: 60e3 86bd bb30 51bd 6fd0 51bd da73 e93b
000003f0: 41b8 caba 6019 f13c 71f6 8bb9 eb5c 03bd
0.03510401 0.032404408 -0.04047898 -0.034587614 -0.0654071 0.047636393 0.049938764 -0.009503198
-0.04074574 0.05032304 -0.0063384203 -0.03276562 0.05170701 0.00026459157 0.062048454 0.041981604
0.05500535 0.057708535 -0.017164985 0.05401102 -0.06557079 -0.016752861 -0.02625152 -0.0036758352
0.00951331 0.014811663 -0.0614588 0.059536792 0.06676465 -0.017151276 -0.059800293 -0.020157726
-0.028191002 -0.0056037284 -0.06622381 -0.062455274 -0.005371667 0.035917364 0.037807338 -0.054529406
0.04184722 0.055196427 -0.055169187 -0.050979253 -0.06569845 -0.0037693956 0.0065561524 0.061221953
-0.06949021 0.025664663 0.06064812 0.02982856 -0.042608786 -0.05350455 -0.056169197 -0.008192474
-0.04895469 0.020301066 -0.04283292 0.009254507 -0.01763598 0.0107234325 -0.028587185 0.027106648
0.069176696 0.04868272 0.057521377 -0.031154078 0.0094790235 0.006677256 -0.041172758 0.025044609
0.03053054 0.023494141 -0.022727637 -0.06357553 0.051183548 -0.0326202 -0.02279431 0.06272496
-0.040742755 -0.004261736 -0.0709794 -0.04386968 -0.039687444 -0.054143168 0.059224214 0.02035858
0.021752663 0.03035934 -0.03170004 0.034297284 0.047939308 0.06831376 0.02298531 0.027356846
0.061716188 0.059053656 0.06672989 -0.043416243 0.011405024 -0.050443463 0.03324516 -0.067914195
0.0106835365 -0.038040873 -0.07097545 0.055188905 0.04690357 0.0035020404 -0.055505674 0.008671265
0.031773277 0.019809082 -0.00773181 0.06683806 -0.023990965 -0.067541026 0.0030618028 -0.014769394
-0.014373621 -0.009025864 0.06437096 -0.029562509 -0.06787376 -0.04846585 -0.0023382579 0.02434719
0.05634432 0.040533807 0.036482193 0.05750674 0.01150277 0.016725617 0.04968075 -0.029813886
0.049791604 -0.0051533733 -0.020178262 -0.03820814 0.039252054 0.042368464 -0.06905738 -0.03095264
-0.0047557144 0.00889689 0.054099202 -0.0014416488 0.050026957 -0.010795913 -0.024538394 0.051124044
-0.011102426 0.035345376 -0.023956256 0.06962673 0.03008918 0.042246092 0.008942046 0.048522867
-0.044716578 0.029048795 -0.043205753 -0.046633452 0.023556227 0.060820937 -0.04872265 -0.067072384
0.06361905 0.05988048 0.017450683 -0.05469281 0.017297339 0.06416342 -0.05483653 0.042106174
0.051063072 -0.024861546 0.050865877 -0.0031264771 -0.028332077 0.045858536 -0.037638973 0.068719484
-0.0040314915 0.052068766 0.060567714 0.012128504 0.027197175 -0.04194838 0.01482897 -0.07116074
0.05037918 -0.0341501 -0.010106479 0.028225292 -0.049623664 0.009403093 0.017603701 -0.050502233
0.0070636864 0.028227642 -0.054942396 -0.033544973 -0.06615508 0.016073989 -0.037524026 0.0725268
-0.0232687 0.035298143 0.066267185 0.034535144 -0.009933693 -0.010589268 -0.008578902 -0.015916638
-0.045596085 -0.037479028 -0.04234727 0.013164377 0.006222345 0.0496514 0.037241347 0.08009811
-0.062362928 -0.025269264 -0.020025527 0.04221022 0.059494138 -0.042664878 -0.048944972 -0.0004057001
0.04495203 0.012921125 -0.018016 -0.07018176 0.0018630277 -0.044880792 -0.055080447 -0.036481567
-0.014000399 0.0598792 0.037897054 0.007254967 0.0665973 0.04951724 0.0259088 -0.043844637
-0.06586337 -0.051071864 -0.05122417 0.0071244063 -0.0015466289 0.029431045 -0.0002669576 -0.032071035

chara_net.RNN.bias_ih_l0 f4 [200]
00000000: a6ea 3dbd 6998 0abc 500b debc 2902 83bd
00000010: e16b 883d 2b1a 4abd d679 c33c 0aeb 27bb
00000020: 2e61 f63c 885d 27bd 8b2d 353d 89b5 0c3d
00000030: 7252 793d 1843 733d 80ad 9abc 50c2 833c
00000040: 4d55 813d 5819 56bd 4e4b 4fbd f666 583d
00000050: 6f87 bc3c 2dc1 80bd 7907 4ebc 87db 02bc
00000060: 8cfd 34bd 02ef 473c 5928 4ebd d6b9 f73b
00000070: 9313 7f3d 9491 cabc 2a94 1dbd 5abf 49bc
00000080: 5c9b e8bb cf37 86bd cc6d 3a3d 65ad 56bd
00000090: 65d8 a8bc eb34 7fbc abb8 4d3d 6ff3 3a3b
000000a0: 3e0c 52bd eb8a 26bb 0474 aebb 87f5 2abd
000000b0: 4458 d2bc dd37 2f3d 9ade dabc 66a7 0c3d
000000c0: 3ffb 2e3d 86de 153d 39d0 3ebc 0480 74bd
000000d0: f551 873d 261e 23bc 4d84 083c 5d35 c7bc
000000e0: d5fe 7dbc 1d05 34bd cdff 553d 55e6 32bb
000000f0: e515 6ebd a760 0ebd 7824 5abd cbea e23c
00000100: 779a 21bd b9ed 4bbd e768 263a b3ed 373d
00000110: de8b 0abd 3b80 be3b 425f 713d e9fe 57bd
00000120: a6a0 e9bb 8f4f 843b 985b 60bd 9f55 33bd
00000130: d08e e73c 658e c1bb 9c59 303c 4d37 3b3d
00000140: f402 6c3d 9a85 3a3c 5bb7 20bd 90fc 8bba
00000150: 9873 573d dca0 7f3d f3a7 66bd 5586 2bbd
00000160: 4113 a5bc 1cba 343d 5c8c 193d 765e 1d3b
00000170: b5b6 533d 44d1 a83c a43d 873c dd34 7f3d
00000180: 180c 24bd 9adc 25bd 7171 883d 8159 903d
00000190: 414c 17bd c97a 223d d9c7 5c3d 7e57 4fbd
000001a0: 3e60 7ebd 42a7 293d 69bb 89bd b1b9 073d
000001b0: 0b10 ad3c d0fa ea3c 3103 c13b 8c3d c1bc
000001c0: bb29 753d beb0 473d 56f4 803d 059e 663c
000001d0: 5be0 013b 3d24 613c 8ebc 1b3c 000a 863c
000001e0: d3c0 173c f866 d7bc 156e debc df1a d73c
000001f0: 6d40 833d 8777 c4bc d471 0e3d f0eb 673d
00000200: 631a 7abd c5be 373c 409c 36b9 7289 7fbd
00000210: 4b09 b3bc d7ac 8c3d f277 4ebd 0c3a 3b3d
00000220: 32c1 efbc e751 273d 533e a9bb 8ac7 66bd
00000230: df12 6dbd 3982 883d e06d 8b3d 034e 8ebd
00000240: 4286 4cbd 47e2 52bd b7f9 503d d885 f2bc
00000250: 0022 e2bc d6b1 6e3d e992 593d 7b16 69bb
00000260: c154 d23b d492 063d 2ce8 8bbc d8af 83bd
00000270: 6785 55bd 81a2 01bd f486 46bd 9347 32b9
00000280: 360d c73c bf85 92bb b708 44bc 6802 d4bc
00000290: 632a b7bc 8d30 d63c a49e 8ebd 5f4f 0fbd
000002a0: 63c1 e93c 0e71 7a3c ad1f 783c 46f9 393b
000002b0: 959f 463d b769 febb 5d03 08bd 4ad6 53bd
000002c0: 6129 16bd 7c88 7dbd 27e9 013c a40e f13c
000002d0: ec50 7d3d b91d 683d 12b9 da3c fa18 d5bc
000002e0: b473 d33b d344 15bb 10d6 7abc 7ab8 183c
000002f0: a71f 053c 564a b13c 59d8 05bd 5500 f8bc
00000300: 1b05 3f3d 7a40 4ebd 33c1 8abd 59ba 1d3d
00000310: 637b 4dbc 417d 903d 0511 8c3d 6de9 623d
-0.046366356 -0.008459189 -0.027105004 -0.063968964 0.06661201 -0.049341362 0.023861807 -0.0025622272
0.030075636 -0.040860683 0.044232886 0.034352813 0.06086964 0.059390157 -0.01888156 0.016083866
0.06315098 -0.052270263 -0.050608926 0.052832566 0.023013799 -0.06286845 -0.012575024 -0.00798691
-0.044187114 0.01220298 -0.050331447 0.007559995 0.062274527 -0.02472762 -0.03847138 -0.012313688
-0.0070985984 -0.065536134 0.045514867 -0.052411456 -0.020610997 -0.0155765815 0.05022494 0.0028526445
-0.051281206 -0.0025412391 -0.0053238887 -0.04173806 -0.025676854 0.042777885 -0.026717473 0.03433933
0.042720076 0.036589168 -0.011646324 -0.059692398 0.06607429 -0.009955918 0.008332324 -0.024317438
-0.015502651 -0.04395019 0.052245904 -0.0027297933 -0.05812635 -0.034760144 -0.053257436 0.027699849
-0.03945395 -0.049787257 0.0006348029 0.044904422 -0.033824794 0.005813626 0.058928736 -0.052733336
-0.0071297465 0.0040378044 -0.05477485 -0.043782827 0.02826634 -0.0059068673 0.010763552 0.045707036
0.057620004 0.011384392 -0.03923736 -0.0010680128 0.052600473 0.062409267 -0.056312513 -0.041876156
-0.020150783 0.0441228 0.037487373 0.0024012602 0.051687915 0.020607598 0.016508885 0.062306274
-0.040050596 -0.040493585 0.06662262 0.070483215 -0.036937956 0.03966788 0.053901527 -0.05062055
-0.062103502 0.041419275 -0.06725199 0.033136073 0.021125814 0.02868405 0.005890273 -0.023588918
0.05985425 0.04875254 0.062966034 0.014075761 0.0019817564 0.01374155 0.009505404 0.01636219
0.0092622815 -0.026294217 -0.0271521 0.02625793 0.064087726 -0.023982776 0.034776524 0.056621492
-0.06106032 0.011214917 -0.0001741508 -0.062386937 -0.021855017 0.06868904 -0.050407358 0.045709655
-0.029266927 0.040849593 -0.0051649003 -0.05634264 -0.057879325 0.06665463 0.06808066 -0.06948473
-0.049932726 -0.051485326 0.051019397 -0.029604837 -0.027604103 0.058275066 0.05311862 -0.0035566378
0.006418795 0.03285487 -0.017078482 -0.06430024 -0.052129176 -0.031649116 -0.048468545 -0.00017002066
0.024298292 -0.00447151 -0.011964968 -0.025880054 -0.022359079 0.026146198 -0.06963852 -0.034987804
0.028534597 0.015285743 0.015144271 0.0028377338 0.048492033 -0.007764067 -0.033206332 -0.051718034
-0.036660556 -0.06189774 0.007929123 0.029425927 0.06184475 0.05666897 0.026699577 -0.026012886
0.006453002 -0.0022776618 -0.015309826 0.009321326 0.008125222 0.021641891 -0.03267703 -0.030273596
0.04663573 -0.05035446 -0.06775131 0.038507793 -0.012541625 0.0705514 0.06839184 0.055398393

chara_net.RNN.bias_hh_l0 f4 [200]
00000000: 52a2 3d3d 573b 343d a915 5e3d 3870 f6bc
00000010: 4f62 613d 7246 8e3d af85 edbb 930b 5cbc
00000020: e7f8 923d 7e07 993c 122e 5ebd 91e6 0fbd
00000030: 59c5 8dbd 22a5 713d 843d 453d bc89 a1bc
00000040: 9224 0e3d 3dc8 893d 8753 d83c de7b fb3c
00000050: 1347 71bb 2147 803b f9c6 f43c 7688 5b3d
00000060: 8e6e 55bc 36f3 253d d928 4d3c f811 683a
00000070: 7b29 2b3d 00e9 71bd a083 f53c 8d47 85bd
00000080: 3182 b73c aff9 8a3d c3c0 99bb df45 abbc
00000090: a439 473d 3423 babc d285 523c 3447 e73c
000000a0: 8076 8abd 74cf 863d 50aa 523b 3e26 093d
000000b0: 2402 5d3d bb55 6e3d b91e 6ebd d422 db3c
000000c0: c17c b73b 973b 243c 4013 5fbd f498 813d
000000d0: 0c02 673d 1b74 953d 1ce8 96bc aaa8 003d
000000e0: 4560 1dbd f4c8 54bd d825 fb3c 88e7 07bd
000000f0: 5676 2a3d 5e4b 383b edba e1bc a647 153c
00000100: 6026 15bd d4a1 813d 15f0 12bc 86d1 e0bc
00000110: c20c 13bd 24d6 11bc 3cb9 783c 4837 e33c
00000120: 1cbb eb3b 87ce 593d 06c0 8e3d bc84 24bd
00000130: 7907 803b 5bed 663d 7e4d 8dbd e265 32bd
00000140: 8972 8e3d bcae e8bb 0e3a 013d 2007 553d
00000150: d8ef 76bc bdd3 8abd ea2d 83bb 3240 54bd
00000160: ad05 f4bc d985 e33c a0e4 4abc 931c 7fbd
00000170: 8508 cbbc 14ed 51bd 0f46 64bd 4483 ffbc
00000180: 6162 7d3d b254 8b3d ead5 21bc 4ab0 25bd
00000190: e956 193d 9929 b03b 5355 43bc 3503 53bd
000001a0: 5383 bcbc a3ce 9f3c c348 85bd acd6 623d
000001b0: b91a 313a 3d79 50bd 5fb0 4cbb ed8a 2b3d
000001c0: c07e f33c 0093 aa3c 5619 0fbd ce1d f1bb
000001d0: b768 843d 5add e23b 6a76 5cbd 798f 3e3c
000001e0: 2acd 4d3d 16b2 49bd 282f 433d 1490 193d
000001f0: cf43 1a3d bc60 dcbb ca0a 63bd 099c 91bd
00000200: b2ee 973d 2690 853d 1f04 333d 23bb 333d
00000210: 122f c9bc c743 48bd 15cf 643d 4a34 69bd
00000220: 59bd 0e3d b3b1 8cbd 820d 8d3d 8fbf 46bd
00000230: 7208 df3c 70cb 0bbd dd48 13bd 760c 5e3d
00000240: 2d24 353d 4b41 dfbc 4e2b 32bd 103b 663d
00000250: 323c 86bd c3b4 31bd 06a3 f8bc b5d1 993b
00000260: 21b4 063d 2ada 60bd d1f7 0d3d 58a3 b43a
00000270: 1497 eb3a 7cff bc3c 1c4e afbc 0778 7dbd
00000280: cb1f 0c3d 0fcf 003d 819f 59bd dfa0 80bd
00000290: badc 85bd 5bdc 7c3d dccb 95bc 7446 08bd
000002a0: 059f 223c 66c4 7b3d cf66 3fbd e616 323b
000002b0: d327 a1bb ab47 4c3d 1bd0 84bb 16b2 aa3b
000002c0: d5ff 8ebb d07e 86bd c3af 7ebc f476 4e3d
000002d0: ac0c be3c 4f02 773d 41b9 ecbb d121 2a3c
000002e0: 1c02 abbc fbb8 943d 000e 57bd 3a9b a0bb
000002f0: e669 8e3d 080b 48bc 9116 823d 636e 2f3c
00000300: 67d8 1b3d 3169 67bd 7fff 8fbd b31b 14bd
00000310: 2271 4cba 834b f9bc a6f8 83bc 576f 00bc
0.04629738 0.044001903 0.054219875 -0.030082807 0.055025395 0.0694703 -0.0072486023 -0.013430494
0.071763806 0.01868033 -0.054243155 -0.035131995 -0.06922407 0.058995374 0.04815437 -0.019718997
0.034702845 0.067276455 0.026407016 0.030698713 -0.0036816045 0.003914729 0.029880034 0.053596936
-0.013026847 0.040515147 0.012521946 0.0008852775 0.041787606 -0.059060097 0.02996999 -0.06507788
0.022400947 0.067859046 -0.0046921684 -0.02090734 0.048638955 -0.022721864 0.012849288 0.028232194
-0.06760883 0.06582537 0.0032144971 0.033483736 0.05395712 0.058187228 -0.05813477 0.026750006
0.0055995886 0.010023973 -0.054461718 0.063280016 0.056398436 0.07297536 -0.018421225 0.03141085
-0.038421888 -0.051949456 0.030657694 -0.03317979 0.04161676 0.0028121094 -0.027554953 0.009111321
-0.03641355 0.063296944 -0.008968373 -0.027443659 -0.03590084 -0.008901153 0.015180882 0.027736321
0.007193936 0.053175475 0.06970219 -0.040165648 0.003907141 0.056378704 -0.06899546 -0.043554194
0.069554396 -0.007100908 0.031549506 0.052008748 -0.015071832 -0.06778667 -0.004003276 -0.051819034
-0.029787863 0.027773784 -0.01238361 -0.06228311 -0.024784336 -0.051251486 -0.055730876 -0.031190522
0.0618614 0.06803264 -0.009877661 -0.040451325 0.0374364 0.0053760526 -0.011922198 -0.05151673
-0.023011839 0.019507712 -0.06508019 0.05538051 0.0006755996 -0.05089687 -0.0031233055 0.041880537
0.029723525 0.020822048 -0.03493627 -0.0073582893 0.06465285 0.00692336 -0.053823866 0.011630886
0.050244488 -0.0492421 0.047652394 0.03749092 0.037662324 -0.006725399 -0.05543021 -0.071098395
0.074185744 0.06521635 0.043705102 0.04387964 -0.024558578 -0.048892763 0.05586155 -0.056934632
0.034848545 -0.06869831 0.06887342 -0.04852253 0.027225707 -0.03412956 -0.03595816 0.054211102
0.044223953 -0.027252814 -0.04349833 0.05620867 -0.0655445 -0.04338528 -0.030351173 0.0046941885
0.032886628 -0.054895557 0.034660164 0.001378159 0.0017974102 0.023071043 -0.02139955 -0.061882045
0.034210008 0.031447466 -0.05313063 -0.06280684 -0.06536241 0.061733585 -0.018285684 -0.033270314
0.0099256085 0.061466597 -0.046728905 0.0027174293 -0.0049180775 0.049873035 -0.0040531284 0.005209218
-0.0043639936 -0.06567156 -0.015544835 0.05040641 0.023199402 0.060304936 -0.0072242324 0.010384039
-0.02087503 0.07261845 -0.052503586 -0.004901317 0.06953792 -0.012209661 0.063519605 0.010707471
0.038048174 -0.056496803 -0.07031154 -0.03615923 -0.00077988405 -0.030431515 -0.016109776 -0.0078390455

ment_net.fc1.weight f4 [128, 400]
00000000: e73d 95bc d2b1 30bd 47c7 79bc 3f37 35bd
00000010: e6f3 4cbd 8712 cabc 1e89 5e3b b332 103d
00000020: 0dec 2e3d b3bc f03c 7262 48bd 3634 373c
00000030: 00ea 1c3d 4d4b 9bbc f212 4dbd 3917 183d
00000040: 73e5 bebc 21d9 efbb 6e8b c9bc a263 12bd
00000050: f109 38bd cdcf 9f3c dc1d 163d 9039 fd3c
00000060: 4bdc 203d a57f 433d 21cb 763c c50d 3d3d
00000070: e68b 7abc 248c 0e3d ea87 4e3c d74d 2ebd
00000080: e5ff a53c 9e6d 37bd 36c4 15bd 5bdd 0dbc
00000090: 5360 1f3d 72cb 76bc b2d5 f9bc 7937 093c
000000a0: d1fa eb3c c0d4 d33c 86f1 5b3c a513 ecbb
000000b0: 5be2 03bd 4463 993c 04cf 0bbd 0102 4bbd
000000c0: 4436 3f3c 7758 c43c 43e9 2b3d a991 22bd
000000d0: e705 41bd fcd6 bc3c 8195 26bd 4e3e 893c
000000e0: 3292 00ba ca18 adbb 4ba0 dd3c d1ff f53a
000000f0: 5285 bf3c a815 3dbd 70ba 4ebd 2312 f43b
00000100: 0f1c b0bc 8728 bfbb d3f7 813c a7a3 a8bc
00000110: fcab 47bd 5331 3ebc 97a6 2cbc 9a7e e2bb
00000120: fb2f 5d3c 39f6 123d 5a03 b03b cd92 203d
00000130: b35d 423d ff79 bebc 9700 383d 43f6 573b
00000140: 4fb3 92bb 3fc9 933c 096c 8cbc d42c c33c
00000150: d662 783c c26f abb9 55b4 18bd a394 3abd
00000160: f127 0fbc dfa6 f9bb 5baf 433b 96f0 213d
00000170: 6198 cfbc a727 ffbc 4f61 eb3c c30c 28bc
00000180: aa57 f2bc 3254 903b f9ac ed3b 9f96 8f3c
00000190: 5e9f d33c bea9 2abd 0170 11bd 54a2 8d3b
000001a0: 2aa7 6fba 57bb 2abd 8f3d 3cbc 5bc2 f0bc
000001b0: 2ee8 08bd 58e9 0f3d 7f19 16bc 8105 9ebb
000001c0: 9685 9cbc 10f4 a1bc 9d16 df3c 35a7 2b3b
000001d0: dd19 37bd 146f c73c e2c7 273c 7a4e ffbc
000001e0: 86ba 163d c06b 373d 5a09 223d ffa6 46bd
000001f0: 7ca1 093a 3125 3ebb 25e0 a3bc 6706 083c
00000200: 563f 3c3d d387 b3bc 719e c1bc 6f90 383d
00000210: d49d 3b3b 8b01 bbbc ecd6 c93b 5e30 ecbc
00000220: 123a acbb cd15 d33b 444e 18bd 4951 083d
00000230: c26e d23c ebbf f5bb 1623 18bc 255e f2bc
00000240: fa85 e23c 02fe 243d 9191 61bd 3f6a 51bc
00000250: 0ab9 63bd 0ca8 83bc 5c4a 96bb 08c4 44bd
00000260: ee4f 58bc 1680 fabc 7c28 f739 64b5 11bd
00000270: 9bc2 373d 112b afbb a418 b93a afb3 7e3b
00000280: bda3 20bd 1e03 b43c c082 febb d00b 7b3c
00000290: eb24 1f3d 8bf5 e53c 2aba a53c 87e6 253d
000002a0: 569b 9dbc 4b44 473d 95cc 15bd f78b 35bd
000002b0: 57f3 1f3d 6dde 1a3d 258e fe3c 3530 323d
000002c0: 10b5 91bc 5e45 cb3b 357d 0fbd 952a 873c
000002d0: 79ef 983c 2698 14bc 5f28 9a3c be82 39bd
000002e0: 9a1c f4bc 31d0 d8bb 91d8 2ebd 7060 1cbd
000002f0: e501 88bc fd00 043d 3d29 43bd eb4a d1bc
00000300: cf5f f3bb a081 67bd c93a e5bc 1016 68bd
00000310: 6b8a 6fbb 265a 4dbd af1e d7bc 4978 21bd
00000320: 9486 273c 66ff 43bd c028 c93c 92e0 aebc
00000330: 7fa8 2bbd ab99 16bd 66d4 06bd a2fd 0c3d
00000340: 9ca2 28bd 013b 06bc 7cca 18bd 3451 29bd
00000350: 918b fcbc cdc7 1cbd 8cfc b03b f1c7 18bd
00000360: 04c0 24bd 36ea 04bd 6a22 bd3b 9c01 b43c
00000370: 497f 4dbd d637 9b3c 064d 54bc e6f1 323d
00000380: 2642 733c 2b2a 1dbd d16d bb3c de16 2b3d
00000390: 0739 483c 3fdb aabb 010b 1bbd 8508 93bb
000003a0: 0f0f 3a3d 309b 043d 6b12 d5bc e419 a63c
000003b0: 7daf 0bbc 8614 24bd b8c8 693a c4f2 a2bb
000003c0: 323b 13bb 2f1b 403d eb8b 2c3a 8333 2a3d
000003d0: 7414 91bc 19ad a73c bf0e 95bc 87dc 7cbc
000003e0: b5db 393d 83d5 0fbd d7ec 2d3d ae22 00bd
000003f0: 4949 953c a270 25ba d2d2 803c 9bbd a0bc
-0.018217994 -0.043138333 -0.015245265 -0.04424214 -0.050037287 -0.024667038 0.003395624 0.0352046
0.042705584 0.029386854 -0.04892201 0.011181882 0.038309097 -0.018956805 -0.050066896 0.03713152
-0.02330277 -0.007319585 -0.024602618 -0.03573955 -0.044931356 0.019508267 0.03664957 0.030911237
0.039272588 0.047729153 0.015063078 0.04615571 -0.015292143 0.034801617 0.012605647 -0.042554703
0.020263622 -0.044782273 -0.036564074 -0.008658732 0.03891022 -0.015063154 -0.030497406 0.008375042
0.028806122 0.025858283 0.013424283 -0.0072044902 -0.03219829 0.018724091 -0.034132972 -0.049562458
0.011670653 0.023967965 0.041970503 -0.039689694 -0.04712477 0.023051731 -0.04066992 0.016753342
-0.00049045973 -0.005282496 0.027053973 0.0018768256 0.023379002 -0.04616323 -0.05047077 0.007448451
-0.021497754 -0.0058336887 0.015865242 -0.020585848 -0.048748 -0.0116084395 -0.010537765 -0.0069120647
0.013500209 0.035879347 0.0053714933 0.0392025 0.04745264 -0.023251532 0.044922438 0.003295318
-0.0044769417 0.018040298 -0.017141359 0.023825087 0.015160283 -0.00032698928 -0.037281353 -0.045551907
-0.00873755 -0.0076187695 0.0029859159 0.03953608 -0.025341215 -0.031146837 0.028732924 -0.010256949
-0.029582817 0.004404568 0.007253286 0.017527876 0.025832828 -0.041665785 -0.035507206 0.0043223295
-0.0009142036 -0.041682567 -0.011489286 -0.02938955 -0.03342455 0.035134643 -0.009161352 -0.0048224335
-0.019106667 -0.019769698 0.027232463 0.0026192192 -0.0447024 0.024344958 0.010240527 -0.03116535
0.036798976 0.044780493 0.0395597 -0.048499104 0.00052501983 -0.0029013867 -0.020004341 0.008302308
0.04595884 -0.021915352 -0.023635121 0.045059618 0.0028628008 -0.022827884 0.006159654 -0.028831657
-0.005255946 0.006441808 -0.037184015 0.033280645 0.025687579 -0.007499685 -0.009285709 -0.029585907
0.027651776 0.040281303 -0.055070464 -0.012781679 -0.05559639 -0.016071342 -0.004586501 -0.048038512
-0.0132026505 -0.030578654 0.00047141674 -0.03557338 0.044863325 -0.00534571 0.0014121723 0.0038864424
-0.039218653 0.021974143 -0.0077670515 0.015322641 0.038853567 0.028071186 0.020230372 0.04050305
-0.019239109 0.048649114 -0.036572058 -0.044322934 0.039050426 0.037809778 0.03107364 0.043503005
-0.017786533 0.0062033376 -0.035031516 0.016499797 0.018668877 -0.009069478 0.018818079 -0.0452907
-0.029798795 -0.006616615 -0.042687003 -0.038177907 -0.016602466 0.032227505 -0.04764675 -0.025548419
-0.0074271928 -0.056520104 -0.027982133 -0.056661665 -0.003655101 -0.0501348 -0.026259748 -0.039421353
0.010224957 -0.04785099 0.024555564 -0.021347318 -0.041908737 -0.036767643 -0.032917403 0.03442157
-0.0411707 -0.008192779 -0.03730248 -0.041337207 -0.03082827 -0.038276482 0.0054011997 -0.037300054
-0.040222183 -0.032449923 0.0057719247 0.021973424 -0.050170217 0.018947523 -0.012957817 0.043687724
0.014847314 -0.038370293 0.022879513 0.041769855 0.012220628 -0.0052141245 -0.03785229 -0.0044870996
0.045424517 0.03237456 -0.026009759 0.020276017 -0.008525726 -0.040058635 0.0008918154 -0.0049727876
-0.0022465703 0.046900924 0.00065821287 0.04155303 -0.017709948 0.020468282 -0.018195508 -0.015433437
0.045375545 -0.03511573 0.042462196 -0.031283073 0.018223422 -0.0006311034 0.015725527 -0.019621661

ment_net.fc1.bias f4 [128]
00000000: a076 97bc b966 313d cda5 49bc bc33 153d
00000010: 2d60 8c3c 3928 dc3a 81cf 753c 0b5d 88b9
00000020: 8227 bebc 8cb0 513d bc45 a03c 0df9 03bd
00000030: 0d01 c13b 849f 54bc 6e16 303d 907e 10bc
00000040: 936b 4f3d 2394 dd3c 938b 9a3c 95c3 0abd
00000050: 574c 5b3c deaf 4ebb 2a89 173d c9b3 c3bc
00000060: dcc8 373d 93eb b13b 3fb4 73bc 86d6 263d
00000070: 6d44 89bc ea0b 26bd 81a3 29bc e198 8abc
00000080: 9328 813c d5ca 06bd d479 173d 5d48 a5bc
00000090: 972c dcbc 0e1a c1bc 3e65 89ba 760f 7abc
000000a0: 77f5 913c 5d22 ab3b f99b 5abc 211f 19bd
000000b0: 8549 493d 53c0 36bd 4055 453b bafd 203d
000000c0: c243 17bd 0cc9 efbc 3205 643c ba8e be3c
000000d0: ffc0 423d 92ad c13a cb32 bebc b75e 20bd
000000e0: cb63 8f3a fd58 b63c 629c 8e3c 2e55 4f3d
000000f0: e2cf 11bc 1757 853c d5b6 093d 9e31 dbbc
00000100: f03b 313d d502 c6bc e0d0 9d3c b630 c9bc
00000110: b645 c83c be30 413d 3bf3 b53c 4a58 28bb
00000120: 8588 643c 177b 36bd 144a 93bb 904e 95bc
00000130: cec8 403d 6d65 1c3c df8c d9bb a65c 4a3d
00000140: 3bd2 b13c 017a 0d3d 2715 de3c 5bb4 c13c
00000150: bcfb 80bc 2c0a 43bd 12ed 02bd de1f 1abd
00000160: 78d2 aa3b 51f0 e6bc 903e db3c 1086 3f3d
00000170: 1ebc 2abc 8554 19bd 4d80 34bd 13d1 10bc
00000180: a69b adbc aa08 a4bc 16e7 3ebd 67dc 38bc
00000190: 5724 80bc 7cb7 dd3c 275d bf3c 0d70 c4bc
000001a0: 1798 45bd dc0a 543c 171a 9f3c ecfd 2fbd
000001b0: 7962 cf3c 752a 9e3b 1c7a 28bd e3b5 293d
000001c0: b9d3 ffbc a85a a53b 74dc 613d 5c65 a2bc
000001d0: 19e6 993c 817f b33b 02d8 e13c 60ad 2ebd
000001e0: 6a13 403d 8096 883c d6bb 7d3c 2437 153d
000001f0: 03e4 23bd 0ad5 a23b 104e d9bc b8f5 13bd
-0.018489182 0.043310855 -0.012307596 0.03642629 0.017135704 0.0016796655 0.015003086 -0.00026009264
-0.023212198 0.05119376 0.019564502 -0.032219935 0.005890018 -0.012977485 0.04299014 -0.008819237
0.0506397 0.027048176 0.018865382 -0.033877928 0.0133849 -0.003153793 0.036996044 -0.02388944
0.04486929 0.005429694 -0.014874517 0.04073193 -0.01675626 -0.040538706 -0.010353924 -0.016918601
0.015766418 -0.03290828 0.03698142 -0.020176107 -0.02687673 -0.023571994 -0.0010482443 -0.015262475
0.017817242 0.0052226023 -0.013342851 -0.037383202 0.04914238 -0.04461701 0.0030110627 0.039304473
-0.036929853 -0.029270671 0.013917254 0.023261417 0.047547337 0.001477646 -0.02321758 -0.039152827
0.0010939775 0.02225923 0.017408554 0.050618343 -0.008899661 0.01627688 0.033621628 -0.026757058
0.04327005 -0.024171272 0.019264638 -0.02455936 0.024447303 0.047165625 0.022210708 -0.002568739
0.013948564 -0.04455098 -0.004494915 -0.018225938 0.047066502 0.009545666 -0.0066391076 0.049404763
0.021706691 0.03454018 0.027109696 0.02364557 -0.015745036 -0.047617123 -0.03196437 -0.037628047
0.005213078 -0.028190764 0.02676323 0.04675871 -0.010420827 -0.03743412 -0.04406767 -0.00883891
-0.021192383 -0.020023663 -0.0466071 -0.011283017 -0.015642328 0.027065031 0.023359848 -0.023979211
-0.048240747 0.012942042 0.01942162 -0.04296677 0.02531551 0.0048268386 -0.041132078 0.041433226
-0.031228887 0.0050462075 0.05514188 -0.019823723 0.018786477 0.005477846 0.02756882 -0.042645812
0.046893515 0.016673326 0.015486678 0.03642954 -0.04001237 0.004969244 -0.02652648 -0.036123008

ment_net.fc2.weight f4 [6, 128]
00000000: 42e9 bcbd 8f86 893c c04c 093d 4f88 cebb
00000010: a39e 113d c761 f4bb a5b2 a93d 9f48 713d
00000020: 9627 223d 1ca6 1d3d 5844 2a3c 1a06 6b3d
00000030: 43a4 b9bd 00ce 6f3c a2a0 38bd 1a54 653d
00000040: 4b7f 29bd 0e67 9bbd ac34 8ebd 60ab abbb
00000050: c170 553d 68f7 d9bd e97f a03d ac0b cbbd
00000060: c79a 603d 3404 543d da7e 9bbd 6adf 20bd
00000070: 08cc 28bd 6285 b73c 3574 9dbc 3ffa 6c3d
00000080: 017d 303c e1c6 04bc ce71 bcbd 70c9 873d
00000090: 6c01 a2bd bf92 b9bc 0515 35bd 28a8 dfbd
000000a0: c9e4 093c d36e 303b d539 c23c a0aa a7bb
000000b0: 417d 403d ac21 2fbb ff51 70bd a401 49bd
000000c0: 9738 c9bd 17c5 39bd 9014 2d3d 18ab 57bd
000000d0: 053c 95bd 7cb0 a53a 72ef 283d f237 8cbd
000000e0: 1041 3cbc b924 f0bc 3f73 83bd efda d33c
000000f0: a954 4b3c 12a4 62bd ddb8 d0bd 1db9 c9bd
00000100: 3d5f a73c ecaa cbbd 6f2c 113c 35b0 fd3c
00000110: 1ef1 b0bd c31b 99bd 43ca 963d d153 803d
00000120: 9a3c a9bd 6433 e53c 372e c73c e86a 86bc
00000130: 9eec 1e3d ce61 62bd 53e4 b3bd af07 653d
00000140: dfb8 2fbd 2e11 3dbd 8f22 623d 63d3 d5bd
00000150: edc5 823d c5b6 8abd b736 aabc 2935 ea3b
00000160: 58ab 87bb 8308 493d ed2f ff3c 1032 d8bd
00000170: 0477 8b3d 0be1 a83d 48bc fabc e48c 723d
00000180: d2ca 133d 9c23 b7bd 9434 ad3c 0858 a1bd
00000190: b594 4c3d 4a21 81bd 7d82 13bc 29da fb3c
000001a0: d87d 8e3d c7f4 ed3b 204b 58bd dbaf e4bd
000001b0: 9487 6bbd 6619 e0bd 54b5 c5bd 0690 a5bd
000001c0: ba2d 813c cf07 2e3b 0a11 e1bd 6f13 9ebd
000001d0: 1f11 acbd 4715 c3bc 1b07 11bd 0f85 90bc
000001e0: cd34 85bc 1718 bebd b194 1fbd a151 30bb
000001f0: 3467 663c 2696 c1bd 414f bdbc 767a c5bd
00000200: 9e08 17bd d62b a03d f9a9 61bc 1dbd 713d
00000210: f530 a6bd 69d0 4e3d bec7 283d 767d aa3d
00000220: d4ad 223d 4c64 e13c d8f9 b33d 657f a5bc
00000230: d88d 233d 7f88 c23d f53c 913d 0635 b53d
00000240: f489 2dbd 523b 673d e699 a4bc 2cd5 673d
00000250: 1253 a9bd 5fa8 c0bd dca2 8d3d 26e2 71bd
00000260: 890f 9ebb 53a3 15bb fbf7 26bd 382b 9fbc
00000270: 09cf 833d dd40 a1bd 1fba 343d 6037 3abd
00000280: e0ad 9b3c 02dd 10bc d1ce a3bd 8815 30bd
00000290: 6a6e 34bd ee96 08bd 9067 8abd b3d9 c3bc
000002a0: 9b9a 39bd 78ce 4c3d 27ec 893d 2680 9c3d
000002b0: 7bdb 9a3d 414b b5bd 8c39 ac3d f601 8bbd
000002c0: d702 95bc 0152 ff3c ed3e 5dbd 65fc 27bb
000002d0: fca4 b4bd 8e61 373d cb29 29bd 300e cc3b
000002e0: ebec e5ba 1187 e0bc bf37 723c 7eaa 613d
000002f0: 4aab 10bc 92ed bfbd e833 3fbd fea8 43bd
00000300: 5c89 a3bd 5bb3 363c 52d8 b2bd 0f83 af3d
00000310: a271 a73d 519c c13c 9715 3a3d e634 903d
00000320: cf20 973d 8b17 e0bc 6b7f 913d 606a 21bc
00000330: d77b a0bd a2fa 93bd 50d9 313d 59ae bebd
00000340: 6491 1a3c 2625 a73d 0f8d 3f3d 7a54 f13c
00000350: cc4d 44bc f7ba 653d 7387 8dbb 251b 423c
00000360: df2e 46bb aa70 a53d 3bdf 8d3d 577b 063d
00000370: 6891 ff3c 2a78 133d 2337 6b3c 4e8c dd3b
00000380: ee0c e9bc c18c 15bd 3401 3d3d 41f0 64bc
00000390: 32df f73c 6123 123d ecb0 1f3d 00f3 ddbc
000003a0: 3eec 74bd f1fe c03d 48af a6bd 3e72 29bb
000003b0: c602 70bd 2c86 be3c 703d 8fbd 4b7c 963a
000003c0: cf98 97bd 95e9 283c 7766 69bd 05c2 953d
000003d0: 43c7 203d 0cae 143d 1362 353d bd83 223d
000003e0: 9ac5 d2bd 3e40 683d 0233 b73d 0ef5 073d
000003f0: dd5b f23c 7d0c 53bd 0d86 733d 2bf8 88bd
-0.09224178 0.016787795 0.03352046 -0.0063028703 0.03555168 -0.007457945 0.08286027 0.058907147
0.039588533 0.038488492 0.010392271 0.057378866 -0.090645336 0.014636517 -0.045075066 0.05598841
-0.04138116 -0.075880155 -0.0694364 -0.0052389354 0.052109484 -0.10642892 0.07836897 -0.099143356
0.054835107 0.05176182 -0.075925544 -0.039275564 -0.041210204 0.02240247 -0.01922045 0.05785584
0.010771991 -0.008104057 -0.09201394 0.06630218 -0.079104275 -0.022652982 -0.0442095 -0.10920745
0.008416363 0.0026921525 0.023709217 -0.0051167756 0.04699445 -0.002672295 -0.058671948 -0.04907383
-0.09825247 -0.045353975 0.042255938 -0.052653402 -0.072868384 0.0012641097 0.041243978 -0.06846608
-0.0114901215 -0.029314386 -0.06418466 0.025861232 0.012410321 -0.05533225 -0.1019151 -0.09849761
0.020431155 -0.0994471 0.008860691 0.030967811 -0.086397395 -0.07475998 0.07362797 0.06265987
-0.08263512 0.027978607 0.02431403 -0.016408399 0.038799874 -0.055269055 -0.08783784 0.05591553
-0.042900916 -0.046158962 0.05520874 -0.104407094 0.063854076 -0.06773142 -0.020778043 0.0071474505
-0.004140299 0.049080383 0.031150782 -0.10556424 0.0680981 0.082460485 -0.030607358 0.059216395
0.036082096 -0.08942339 0.021143235 -0.07878119 0.049946506 -0.063051775 -0.009003279 0.030743675
0.069575965 0.0072618457 -0.05280602 -0.11166354 -0.057502344 -0.10942344 -0.09653726 -0.08084111
0.015768874 0.0026554947 -0.10989578 -0.077185504 -0.08401703 -0.023813857 -0.035407167 -0.017641572
-0.016260529 -0.092819385 -0.038960163 -0.0026904123 0.0140626915 -0.09452467 -0.02310908 -0.09642498
-0.036873452 0.07820861 -0.013773435 0.059018243 -0.081148066 0.050491724 0.041206114 0.08324711
0.039716557 0.027513646 0.08787888 -0.020202348 0.039930195 0.09498691 0.07091705 0.08848004
-0.04236789 0.056453057 -0.020092916 0.05659978 -0.082677975 -0.09407114 0.069158286 -0.059053563
-0.0048236293 -0.0022832945 -0.040763836 -0.019429788 0.06435973 -0.078737 0.04412281 -0.045462966
0.019003808 -0.008841755 -0.079984315 -0.042989284 -0.04405061 -0.033347063 -0.06758034 -0.023907518
-0.04531346 0.05000159 0.067344956 0.0764163 0.07561394 -0.08852244 0.08409414 -0.067874834
-0.01818983 0.031167032 -0.05401509 -0.0025632617 -0.08820531 0.04477077 -0.041299623 0.006227277
-0.001754192 -0.027408155 0.014783799 0.055094235 -0.008829901 -0.09371485 -0.04668036 -0.047768585
-0.079851836 0.01115116 -0.08732666 0.08569919 0.081759706 0.023634108 0.045430746 0.070413396
0.073793046 -0.027354976 0.07104381 -0.009852022 -0.078361206 -0.07225539 0.043420136 -0.09310598
0.009434078 0.081613824 0.046765383 0.029459227 -0.011981439 0.056086507 -0.0043191253 0.011847292
-0.003024034 0.080781296 0.069273435 0.03283247 0.031197265 0.03600327 0.014356407 0.0067611104
-0.028448548 -0.036511187 0.046143726 -0.013973297 0.030257795 0.03567827 0.038987085 -0.02709341
-0.05979561 0.09423626 -0.08138901 -0.0025855447 -0.058596395 0.023257338 -0.0699414 0.0011481134
-0.07402193 0.010309597 -0.056982484 0.07312397 0.03925253 0.036298797 0.044282984 0.039676417
-0.10291596 0.05670189 0.08945276 0.033192687 0.02958482 -0.05152558 0.059454013 -0.06687959

ment_net.fc2.bias f4 [6]
00000000: 8d78 1fbc 13fe 143d 8bfc 02bc 6ba0 97bd
00000010: d6fb 3d3d ece0 a03d
-0.009733331 0.036375117 -0.007994781 -0.07403644 0.046382748 0.078554004
